…
2017-11-25 09:17:47.496209: I tensorflow/core/common_runtime/gpu/gpu_device.cc:1045] Creating TensorFlow device (/gpu:0) -> (device: 0, name: GeForce GTX 1080 Ti, pci bus id: 0000:01:00.0)
Evaluating top output of b20
[0.57026009662793231, 0.80618990384615385]
Training ee of b20
freezing original model...
creating early exit...
__________________________________________________________________________________________________
Layer (type)                    Output Shape         Param #     Connected to
==================================================================================================
input_1 (InputLayer)            (None, 224, 224, 3)  0
__________________________________________________________________________________________________
conv1 (Conv2D)                  (None, 112, 112, 32) 4736        input_1[0][0]
__________________________________________________________________________________________________
bn_conv1 (BatchNormalization)   (None, 112, 112, 32) 128         conv1[0][0]
__________________________________________________________________________________________________
activation_1 (Activation)       (None, 112, 112, 32) 0           bn_conv1[0][0]
__________________________________________________________________________________________________
max_pooling2d_1 (MaxPooling2D)  (None, 55, 55, 32)   0           activation_1[0][0]
__________________________________________________________________________________________________
res2a_branch2a (Conv2D)         (None, 55, 55, 8)    264         max_pooling2d_1[0][0]
__________________________________________________________________________________________________
bn2a_branch2a (BatchNormalizati (None, 55, 55, 8)    32          res2a_branch2a[0][0]
__________________________________________________________________________________________________
activation_2 (Activation)       (None, 55, 55, 8)    0           bn2a_branch2a[0][0]
__________________________________________________________________________________________________
res2a_branch2b (Conv2D)         (None, 55, 55, 8)    584         activation_2[0][0]
__________________________________________________________________________________________________
bn2a_branch2b (BatchNormalizati (None, 55, 55, 8)    32          res2a_branch2b[0][0]
__________________________________________________________________________________________________
activation_3 (Activation)       (None, 55, 55, 8)    0           bn2a_branch2b[0][0]
__________________________________________________________________________________________________
res2a_branch2c (Conv2D)         (None, 55, 55, 32)   288         activation_3[0][0]
__________________________________________________________________________________________________
res2a_branch1 (Conv2D)          (None, 55, 55, 32)   1056        max_pooling2d_1[0][0]
__________________________________________________________________________________________________
bn2a_branch2c (BatchNormalizati (None, 55, 55, 32)   128         res2a_branch2c[0][0]
__________________________________________________________________________________________________
bn2a_branch1 (BatchNormalizatio (None, 55, 55, 32)   128         res2a_branch1[0][0]
__________________________________________________________________________________________________
add_1 (Add)                     (None, 55, 55, 32)   0           bn2a_branch2c[0][0]
                                                                 bn2a_branch1[0][0]
__________________________________________________________________________________________________
activation_4 (Activation)       (None, 55, 55, 32)   0           add_1[0][0]
__________________________________________________________________________________________________
res2b_branch2a (Conv2D)         (None, 55, 55, 8)    264         activation_4[0][0]
__________________________________________________________________________________________________
bn2b_branch2a (BatchNormalizati (None, 55, 55, 8)    32          res2b_branch2a[0][0]
__________________________________________________________________________________________________
activation_5 (Activation)       (None, 55, 55, 8)    0           bn2b_branch2a[0][0]
__________________________________________________________________________________________________
res2b_branch2b (Conv2D)         (None, 55, 55, 8)    584         activation_5[0][0]
__________________________________________________________________________________________________
bn2b_branch2b (BatchNormalizati (None, 55, 55, 8)    32          res2b_branch2b[0][0]
__________________________________________________________________________________________________
activation_6 (Activation)       (None, 55, 55, 8)    0           bn2b_branch2b[0][0]
__________________________________________________________________________________________________
res2b_branch2c (Conv2D)         (None, 55, 55, 32)   288         activation_6[0][0]
__________________________________________________________________________________________________
bn2b_branch2c (BatchNormalizati (None, 55, 55, 32)   128         res2b_branch2c[0][0]
__________________________________________________________________________________________________
add_2 (Add)                     (None, 55, 55, 32)   0           bn2b_branch2c[0][0]
                                                                 activation_4[0][0]
__________________________________________________________________________________________________
ee2b (Activation)               (None, 55, 55, 32)   0           add_2[0][0]
__________________________________________________________________________________________________
res2c_branch2a (Conv2D)         (None, 55, 55, 8)    264         ee2b[0][0]
__________________________________________________________________________________________________
bn2c_branch2a (BatchNormalizati (None, 55, 55, 8)    32          res2c_branch2a[0][0]
__________________________________________________________________________________________________
activation_7 (Activation)       (None, 55, 55, 8)    0           bn2c_branch2a[0][0]
__________________________________________________________________________________________________
res2c_branch2b (Conv2D)         (None, 55, 55, 8)    584         activation_7[0][0]
__________________________________________________________________________________________________
bn2c_branch2b (BatchNormalizati (None, 55, 55, 8)    32          res2c_branch2b[0][0]
__________________________________________________________________________________________________
activation_8 (Activation)       (None, 55, 55, 8)    0           bn2c_branch2b[0][0]
__________________________________________________________________________________________________
res2c_branch2c (Conv2D)         (None, 55, 55, 32)   288         activation_8[0][0]
__________________________________________________________________________________________________
bn2c_branch2c (BatchNormalizati (None, 55, 55, 32)   128         res2c_branch2c[0][0]
__________________________________________________________________________________________________
add_3 (Add)                     (None, 55, 55, 32)   0           bn2c_branch2c[0][0]
                                                                 ee2b[0][0]
__________________________________________________________________________________________________
ee2c (Activation)               (None, 55, 55, 32)   0           add_3[0][0]
__________________________________________________________________________________________________
res3a_branch2a (Conv2D)         (None, 28, 28, 8)    264         ee2c[0][0]
__________________________________________________________________________________________________
bn3a_branch2a (BatchNormalizati (None, 28, 28, 8)    32          res3a_branch2a[0][0]
__________________________________________________________________________________________________
activation_9 (Activation)       (None, 28, 28, 8)    0           bn3a_branch2a[0][0]
__________________________________________________________________________________________________
res3a_branch2b (Conv2D)         (None, 28, 28, 8)    584         activation_9[0][0]
__________________________________________________________________________________________________
bn3a_branch2b (BatchNormalizati (None, 28, 28, 8)    32          res3a_branch2b[0][0]
__________________________________________________________________________________________________
activation_10 (Activation)      (None, 28, 28, 8)    0           bn3a_branch2b[0][0]
__________________________________________________________________________________________________
res3a_branch2c (Conv2D)         (None, 28, 28, 32)   288         activation_10[0][0]
__________________________________________________________________________________________________
res3a_branch1 (Conv2D)          (None, 28, 28, 32)   1056        ee2c[0][0]
__________________________________________________________________________________________________
bn3a_branch2c (BatchNormalizati (None, 28, 28, 32)   128         res3a_branch2c[0][0]
__________________________________________________________________________________________________
bn3a_branch1 (BatchNormalizatio (None, 28, 28, 32)   128         res3a_branch1[0][0]
__________________________________________________________________________________________________
add_4 (Add)                     (None, 28, 28, 32)   0           bn3a_branch2c[0][0]
                                                                 bn3a_branch1[0][0]
__________________________________________________________________________________________________
activation_11 (Activation)      (None, 28, 28, 32)   0           add_4[0][0]
__________________________________________________________________________________________________
res3b_branch2a (Conv2D)         (None, 28, 28, 8)    264         activation_11[0][0]
__________________________________________________________________________________________________
bn3b_branch2a (BatchNormalizati (None, 28, 28, 8)    32          res3b_branch2a[0][0]
__________________________________________________________________________________________________
activation_12 (Activation)      (None, 28, 28, 8)    0           bn3b_branch2a[0][0]
__________________________________________________________________________________________________
res3b_branch2b (Conv2D)         (None, 28, 28, 8)    584         activation_12[0][0]
__________________________________________________________________________________________________
bn3b_branch2b (BatchNormalizati (None, 28, 28, 8)    32          res3b_branch2b[0][0]
__________________________________________________________________________________________________
activation_13 (Activation)      (None, 28, 28, 8)    0           bn3b_branch2b[0][0]
__________________________________________________________________________________________________
res3b_branch2c (Conv2D)         (None, 28, 28, 32)   288         activation_13[0][0]
__________________________________________________________________________________________________
bn3b_branch2c (BatchNormalizati (None, 28, 28, 32)   128         res3b_branch2c[0][0]
__________________________________________________________________________________________________
add_5 (Add)                     (None, 28, 28, 32)   0           bn3b_branch2c[0][0]
                                                                 activation_11[0][0]
__________________________________________________________________________________________________
ee3b (Activation)               (None, 28, 28, 32)   0           add_5[0][0]
__________________________________________________________________________________________________
res3c_branch2a (Conv2D)         (None, 28, 28, 8)    264         ee3b[0][0]
__________________________________________________________________________________________________
bn3c_branch2a (BatchNormalizati (None, 28, 28, 8)    32          res3c_branch2a[0][0]
__________________________________________________________________________________________________
activation_14 (Activation)      (None, 28, 28, 8)    0           bn3c_branch2a[0][0]
__________________________________________________________________________________________________
res3c_branch2b (Conv2D)         (None, 28, 28, 8)    584         activation_14[0][0]
__________________________________________________________________________________________________
bn3c_branch2b (BatchNormalizati (None, 28, 28, 8)    32          res3c_branch2b[0][0]
__________________________________________________________________________________________________
activation_15 (Activation)      (None, 28, 28, 8)    0           bn3c_branch2b[0][0]
__________________________________________________________________________________________________
res3c_branch2c (Conv2D)         (None, 28, 28, 32)   288         activation_15[0][0]
__________________________________________________________________________________________________
bn3c_branch2c (BatchNormalizati (None, 28, 28, 32)   128         res3c_branch2c[0][0]
__________________________________________________________________________________________________
add_6 (Add)                     (None, 28, 28, 32)   0           bn3c_branch2c[0][0]
                                                                 ee3b[0][0]
__________________________________________________________________________________________________
ee3c (Activation)               (None, 28, 28, 32)   0           add_6[0][0]
__________________________________________________________________________________________________
res3d_branch2a (Conv2D)         (None, 28, 28, 8)    264         ee3c[0][0]
__________________________________________________________________________________________________
bn3d_branch2a (BatchNormalizati (None, 28, 28, 8)    32          res3d_branch2a[0][0]
__________________________________________________________________________________________________
activation_16 (Activation)      (None, 28, 28, 8)    0           bn3d_branch2a[0][0]
__________________________________________________________________________________________________
res3d_branch2b (Conv2D)         (None, 28, 28, 8)    584         activation_16[0][0]
__________________________________________________________________________________________________
bn3d_branch2b (BatchNormalizati (None, 28, 28, 8)    32          res3d_branch2b[0][0]
__________________________________________________________________________________________________
activation_17 (Activation)      (None, 28, 28, 8)    0           bn3d_branch2b[0][0]
__________________________________________________________________________________________________
res3d_branch2c (Conv2D)         (None, 28, 28, 32)   288         activation_17[0][0]
__________________________________________________________________________________________________
bn3d_branch2c (BatchNormalizati (None, 28, 28, 32)   128         res3d_branch2c[0][0]
__________________________________________________________________________________________________
add_7 (Add)                     (None, 28, 28, 32)   0           bn3d_branch2c[0][0]
                                                                 ee3c[0][0]
__________________________________________________________________________________________________
ee3d (Activation)               (None, 28, 28, 32)   0           add_7[0][0]
__________________________________________________________________________________________________
res4a_branch2a (Conv2D)         (None, 14, 14, 8)    264         ee3d[0][0]
__________________________________________________________________________________________________
bn4a_branch2a (BatchNormalizati (None, 14, 14, 8)    32          res4a_branch2a[0][0]
__________________________________________________________________________________________________
activation_18 (Activation)      (None, 14, 14, 8)    0           bn4a_branch2a[0][0]
__________________________________________________________________________________________________
res4a_branch2b (Conv2D)         (None, 14, 14, 8)    584         activation_18[0][0]
__________________________________________________________________________________________________
bn4a_branch2b (BatchNormalizati (None, 14, 14, 8)    32          res4a_branch2b[0][0]
__________________________________________________________________________________________________
activation_19 (Activation)      (None, 14, 14, 8)    0           bn4a_branch2b[0][0]
__________________________________________________________________________________________________
res4a_branch2c (Conv2D)         (None, 14, 14, 128)  1152        activation_19[0][0]
__________________________________________________________________________________________________
res4a_branch1 (Conv2D)          (None, 14, 14, 128)  4224        ee3d[0][0]
__________________________________________________________________________________________________
bn4a_branch2c (BatchNormalizati (None, 14, 14, 128)  512         res4a_branch2c[0][0]
__________________________________________________________________________________________________
bn4a_branch1 (BatchNormalizatio (None, 14, 14, 128)  512         res4a_branch1[0][0]
__________________________________________________________________________________________________
add_8 (Add)                     (None, 14, 14, 128)  0           bn4a_branch2c[0][0]
                                                                 bn4a_branch1[0][0]
__________________________________________________________________________________________________
activation_20 (Activation)      (None, 14, 14, 128)  0           add_8[0][0]
__________________________________________________________________________________________________
res4b_branch2a (Conv2D)         (None, 14, 14, 8)    1032        activation_20[0][0]
__________________________________________________________________________________________________
bn4b_branch2a (BatchNormalizati (None, 14, 14, 8)    32          res4b_branch2a[0][0]
__________________________________________________________________________________________________
activation_21 (Activation)      (None, 14, 14, 8)    0           bn4b_branch2a[0][0]
__________________________________________________________________________________________________
res4b_branch2b (Conv2D)         (None, 14, 14, 8)    584         activation_21[0][0]
__________________________________________________________________________________________________
bn4b_branch2b (BatchNormalizati (None, 14, 14, 8)    32          res4b_branch2b[0][0]
__________________________________________________________________________________________________
activation_22 (Activation)      (None, 14, 14, 8)    0           bn4b_branch2b[0][0]
__________________________________________________________________________________________________
res4b_branch2c (Conv2D)         (None, 14, 14, 128)  1152        activation_22[0][0]
__________________________________________________________________________________________________
bn4b_branch2c (BatchNormalizati (None, 14, 14, 128)  512         res4b_branch2c[0][0]
__________________________________________________________________________________________________
add_9 (Add)                     (None, 14, 14, 128)  0           bn4b_branch2c[0][0]
                                                                 activation_20[0][0]
__________________________________________________________________________________________________
ee4b (Activation)               (None, 14, 14, 128)  0           add_9[0][0]
__________________________________________________________________________________________________
res4c_branch2a (Conv2D)         (None, 14, 14, 8)    1032        ee4b[0][0]
__________________________________________________________________________________________________
bn4c_branch2a (BatchNormalizati (None, 14, 14, 8)    32          res4c_branch2a[0][0]
__________________________________________________________________________________________________
activation_23 (Activation)      (None, 14, 14, 8)    0           bn4c_branch2a[0][0]
__________________________________________________________________________________________________
res4c_branch2b (Conv2D)         (None, 14, 14, 8)    584         activation_23[0][0]
__________________________________________________________________________________________________
bn4c_branch2b (BatchNormalizati (None, 14, 14, 8)    32          res4c_branch2b[0][0]
__________________________________________________________________________________________________
activation_24 (Activation)      (None, 14, 14, 8)    0           bn4c_branch2b[0][0]
__________________________________________________________________________________________________
res4c_branch2c (Conv2D)         (None, 14, 14, 128)  1152        activation_24[0][0]
__________________________________________________________________________________________________
bn4c_branch2c (BatchNormalizati (None, 14, 14, 128)  512         res4c_branch2c[0][0]
__________________________________________________________________________________________________
add_10 (Add)                    (None, 14, 14, 128)  0           bn4c_branch2c[0][0]
                                                                 ee4b[0][0]
__________________________________________________________________________________________________
ee4c (Activation)               (None, 14, 14, 128)  0           add_10[0][0]
__________________________________________________________________________________________________
res4d_branch2a (Conv2D)         (None, 14, 14, 8)    1032        ee4c[0][0]
__________________________________________________________________________________________________
bn4d_branch2a (BatchNormalizati (None, 14, 14, 8)    32          res4d_branch2a[0][0]
__________________________________________________________________________________________________
activation_25 (Activation)      (None, 14, 14, 8)    0           bn4d_branch2a[0][0]
__________________________________________________________________________________________________
res4d_branch2b (Conv2D)         (None, 14, 14, 8)    584         activation_25[0][0]
__________________________________________________________________________________________________
bn4d_branch2b (BatchNormalizati (None, 14, 14, 8)    32          res4d_branch2b[0][0]
__________________________________________________________________________________________________
activation_26 (Activation)      (None, 14, 14, 8)    0           bn4d_branch2b[0][0]
__________________________________________________________________________________________________
res4d_branch2c (Conv2D)         (None, 14, 14, 128)  1152        activation_26[0][0]
__________________________________________________________________________________________________
bn4d_branch2c (BatchNormalizati (None, 14, 14, 128)  512         res4d_branch2c[0][0]
__________________________________________________________________________________________________
add_11 (Add)                    (None, 14, 14, 128)  0           bn4d_branch2c[0][0]
                                                                 ee4c[0][0]
__________________________________________________________________________________________________
ee4d (Activation)               (None, 14, 14, 128)  0           add_11[0][0]
__________________________________________________________________________________________________
res4e_branch2a (Conv2D)         (None, 14, 14, 8)    1032        ee4d[0][0]
__________________________________________________________________________________________________
bn4e_branch2a (BatchNormalizati (None, 14, 14, 8)    32          res4e_branch2a[0][0]
__________________________________________________________________________________________________
activation_27 (Activation)      (None, 14, 14, 8)    0           bn4e_branch2a[0][0]
__________________________________________________________________________________________________
res4e_branch2b (Conv2D)         (None, 14, 14, 8)    584         activation_27[0][0]
__________________________________________________________________________________________________
bn4e_branch2b (BatchNormalizati (None, 14, 14, 8)    32          res4e_branch2b[0][0]
__________________________________________________________________________________________________
activation_28 (Activation)      (None, 14, 14, 8)    0           bn4e_branch2b[0][0]
__________________________________________________________________________________________________
res4e_branch2c (Conv2D)         (None, 14, 14, 128)  1152        activation_28[0][0]
__________________________________________________________________________________________________
bn4e_branch2c (BatchNormalizati (None, 14, 14, 128)  512         res4e_branch2c[0][0]
__________________________________________________________________________________________________
add_12 (Add)                    (None, 14, 14, 128)  0           bn4e_branch2c[0][0]
                                                                 ee4d[0][0]
__________________________________________________________________________________________________
ee4e (Activation)               (None, 14, 14, 128)  0           add_12[0][0]
__________________________________________________________________________________________________
res4f_branch2a (Conv2D)         (None, 14, 14, 8)    1032        ee4e[0][0]
__________________________________________________________________________________________________
bn4f_branch2a (BatchNormalizati (None, 14, 14, 8)    32          res4f_branch2a[0][0]
__________________________________________________________________________________________________
activation_29 (Activation)      (None, 14, 14, 8)    0           bn4f_branch2a[0][0]
__________________________________________________________________________________________________
res4f_branch2b (Conv2D)         (None, 14, 14, 8)    584         activation_29[0][0]
__________________________________________________________________________________________________
bn4f_branch2b (BatchNormalizati (None, 14, 14, 8)    32          res4f_branch2b[0][0]
__________________________________________________________________________________________________
activation_30 (Activation)      (None, 14, 14, 8)    0           bn4f_branch2b[0][0]
__________________________________________________________________________________________________
res4f_branch2c (Conv2D)         (None, 14, 14, 128)  1152        activation_30[0][0]
__________________________________________________________________________________________________
bn4f_branch2c (BatchNormalizati (None, 14, 14, 128)  512         res4f_branch2c[0][0]
__________________________________________________________________________________________________
add_13 (Add)                    (None, 14, 14, 128)  0           bn4f_branch2c[0][0]
                                                                 ee4e[0][0]
__________________________________________________________________________________________________
ee4f (Activation)               (None, 14, 14, 128)  0           add_13[0][0]
__________________________________________________________________________________________________
res5a_branch2a (Conv2D)         (None, 7, 7, 8)      1032        ee4f[0][0]
__________________________________________________________________________________________________
bn5a_branch2a (BatchNormalizati (None, 7, 7, 8)      32          res5a_branch2a[0][0]
__________________________________________________________________________________________________
activation_31 (Activation)      (None, 7, 7, 8)      0           bn5a_branch2a[0][0]
__________________________________________________________________________________________________
res5a_branch2b (Conv2D)         (None, 7, 7, 8)      584         activation_31[0][0]
__________________________________________________________________________________________________
bn5a_branch2b (BatchNormalizati (None, 7, 7, 8)      32          res5a_branch2b[0][0]
__________________________________________________________________________________________________
activation_32 (Activation)      (None, 7, 7, 8)      0           bn5a_branch2b[0][0]
__________________________________________________________________________________________________
res5a_branch2c (Conv2D)         (None, 7, 7, 256)    2304        activation_32[0][0]
__________________________________________________________________________________________________
res5a_branch1 (Conv2D)          (None, 7, 7, 256)    33024       ee4f[0][0]
__________________________________________________________________________________________________
bn5a_branch2c (BatchNormalizati (None, 7, 7, 256)    1024        res5a_branch2c[0][0]
__________________________________________________________________________________________________
bn5a_branch1 (BatchNormalizatio (None, 7, 7, 256)    1024        res5a_branch1[0][0]
__________________________________________________________________________________________________
add_14 (Add)                    (None, 7, 7, 256)    0           bn5a_branch2c[0][0]
                                                                 bn5a_branch1[0][0]
__________________________________________________________________________________________________
activation_33 (Activation)      (None, 7, 7, 256)    0           add_14[0][0]
__________________________________________________________________________________________________
res5b_branch2a (Conv2D)         (None, 7, 7, 8)      2056        activation_33[0][0]
__________________________________________________________________________________________________
bn5b_branch2a (BatchNormalizati (None, 7, 7, 8)      32          res5b_branch2a[0][0]
__________________________________________________________________________________________________
activation_34 (Activation)      (None, 7, 7, 8)      0           bn5b_branch2a[0][0]
__________________________________________________________________________________________________
res5b_branch2b (Conv2D)         (None, 7, 7, 8)      584         activation_34[0][0]
__________________________________________________________________________________________________
bn5b_branch2b (BatchNormalizati (None, 7, 7, 8)      32          res5b_branch2b[0][0]
__________________________________________________________________________________________________
activation_35 (Activation)      (None, 7, 7, 8)      0           bn5b_branch2b[0][0]
__________________________________________________________________________________________________
res5b_branch2c (Conv2D)         (None, 7, 7, 256)    2304        activation_35[0][0]
__________________________________________________________________________________________________
bn5b_branch2c (BatchNormalizati (None, 7, 7, 256)    1024        res5b_branch2c[0][0]
__________________________________________________________________________________________________
add_15 (Add)                    (None, 7, 7, 256)    0           bn5b_branch2c[0][0]
                                                                 activation_33[0][0]
__________________________________________________________________________________________________
ee5b (Activation)               (None, 7, 7, 256)    0           add_15[0][0]
__________________________________________________________________________________________________
res5c_branch2a (Conv2D)         (None, 7, 7, 8)      2056        ee5b[0][0]
__________________________________________________________________________________________________
bn5c_branch2a (BatchNormalizati (None, 7, 7, 8)      32          res5c_branch2a[0][0]
__________________________________________________________________________________________________
depthwise_conv2d_1 (DepthwiseCo (None, 55, 55, 32)   288         ee2c[0][0]
__________________________________________________________________________________________________
depthwise_conv2d_2 (DepthwiseCo (None, 28, 28, 32)   288         ee3d[0][0]
__________________________________________________________________________________________________
depthwise_conv2d_3 (DepthwiseCo (None, 14, 14, 128)  1152        ee4f[0][0]
__________________________________________________________________________________________________
activation_36 (Activation)      (None, 7, 7, 8)      0           bn5c_branch2a[0][0]
__________________________________________________________________________________________________
batch_normalization_1 (BatchNor (None, 55, 55, 32)   128         depthwise_conv2d_1[0][0]
__________________________________________________________________________________________________
batch_normalization_3 (BatchNor (None, 28, 28, 32)   128         depthwise_conv2d_2[0][0]
__________________________________________________________________________________________________
batch_normalization_5 (BatchNor (None, 14, 14, 128)  512         depthwise_conv2d_3[0][0]
__________________________________________________________________________________________________
res5c_branch2b (Conv2D)         (None, 7, 7, 8)      584         activation_36[0][0]
__________________________________________________________________________________________________
activation_38 (Activation)      (None, 55, 55, 32)   0           batch_normalization_1[0][0]
__________________________________________________________________________________________________
activation_41 (Activation)      (None, 28, 28, 32)   0           batch_normalization_3[0][0]
__________________________________________________________________________________________________
activation_44 (Activation)      (None, 14, 14, 128)  0           batch_normalization_5[0][0]
__________________________________________________________________________________________________
bn5c_branch2b (BatchNormalizati (None, 7, 7, 8)      32          res5c_branch2b[0][0]
__________________________________________________________________________________________________
conv2d_1 (Conv2D)               (None, 55, 55, 128)  4096        activation_38[0][0]
__________________________________________________________________________________________________
conv2d_3 (Conv2D)               (None, 28, 28, 128)  4096        activation_41[0][0]
__________________________________________________________________________________________________
conv2d_5 (Conv2D)               (None, 14, 14, 128)  16384       activation_44[0][0]
__________________________________________________________________________________________________
activation_37 (Activation)      (None, 7, 7, 8)      0           bn5c_branch2b[0][0]
__________________________________________________________________________________________________
batch_normalization_2 (BatchNor (None, 55, 55, 128)  512         conv2d_1[0][0]
__________________________________________________________________________________________________
batch_normalization_4 (BatchNor (None, 28, 28, 128)  512         conv2d_3[0][0]
__________________________________________________________________________________________________
batch_normalization_6 (BatchNor (None, 14, 14, 128)  512         conv2d_5[0][0]
__________________________________________________________________________________________________
res5c_branch2c (Conv2D)         (None, 7, 7, 256)    2304        activation_37[0][0]
__________________________________________________________________________________________________
activation_39 (Activation)      (None, 55, 55, 128)  0           batch_normalization_2[0][0]
__________________________________________________________________________________________________
activation_42 (Activation)      (None, 28, 28, 128)  0           batch_normalization_4[0][0]
__________________________________________________________________________________________________
activation_45 (Activation)      (None, 14, 14, 128)  0           batch_normalization_6[0][0]
__________________________________________________________________________________________________
bn5c_branch2c (BatchNormalizati (None, 7, 7, 256)    1024        res5c_branch2c[0][0]
__________________________________________________________________________________________________
global_average_pooling2d_1 (Glo (None, 128)          0           activation_39[0][0]
__________________________________________________________________________________________________
global_average_pooling2d_2 (Glo (None, 128)          0           activation_42[0][0]
__________________________________________________________________________________________________
global_average_pooling2d_3 (Glo (None, 128)          0           activation_45[0][0]
__________________________________________________________________________________________________
add_16 (Add)                    (None, 7, 7, 256)    0           bn5c_branch2c[0][0]
                                                                 ee5b[0][0]
__________________________________________________________________________________________________
reshape_1 (Reshape)             (None, 1, 1, 128)    0           global_average_pooling2d_1[0][0]
__________________________________________________________________________________________________
reshape_2 (Reshape)             (None, 1, 1, 128)    0           global_average_pooling2d_2[0][0]
__________________________________________________________________________________________________
reshape_3 (Reshape)             (None, 1, 1, 128)    0           global_average_pooling2d_3[0][0]
__________________________________________________________________________________________________
ee5c (Activation)               (None, 7, 7, 256)    0           add_16[0][0]
__________________________________________________________________________________________________
conv2d_2 (Conv2D)               (None, 1, 1, 10)     1290        reshape_1[0][0]
__________________________________________________________________________________________________
conv2d_4 (Conv2D)               (None, 1, 1, 10)     1290        reshape_2[0][0]
__________________________________________________________________________________________________
conv2d_6 (Conv2D)               (None, 1, 1, 10)     1290        reshape_3[0][0]
__________________________________________________________________________________________________
avg_pool (AveragePooling2D)     (None, 1, 1, 256)    0           ee5c[0][0]
__________________________________________________________________________________________________
activation_40 (Activation)      (None, 1, 1, 10)     0           conv2d_2[0][0]
__________________________________________________________________________________________________
activation_43 (Activation)      (None, 1, 1, 10)     0           conv2d_4[0][0]
__________________________________________________________________________________________________
activation_46 (Activation)      (None, 1, 1, 10)     0           conv2d_6[0][0]
__________________________________________________________________________________________________
flatten_1 (Flatten)             (None, 256)          0           avg_pool[0][0]
__________________________________________________________________________________________________
ee2c_output (Reshape)           (None, 10)           0           activation_40[0][0]
__________________________________________________________________________________________________
ee3d_output (Reshape)           (None, 10)           0           activation_43[0][0]
__________________________________________________________________________________________________
ee4f_output (Reshape)           (None, 10)           0           activation_46[0][0]
__________________________________________________________________________________________________
fc1000 (Dense)                  (None, 10)           2570        flatten_1[0][0]
==================================================================================================
Total params: 126,728
Trainable params: 31,326
Non-trainable params: 95,402
__________________________________________________________________________________________________
Epoch 1/50
780/781 [============================>.] - ETA: 0s - loss: 6.3837 - ee2c_output_loss: 2.069
…
s: 0.6641 - val_fc1000_loss: 0.5026 - val_ee2c_output_acc: 0.5359 - val_ee3d_output_acc: 0.5933 - val_ee4f_output_acc: 0.7693 - val_fc1000_acc: 0.8303
Evaluating top output of b10
[0.53634548894105816, 0.81370192307692313]
Training ee of b10
freezing original model...
creating early exit...
__________________________________________________________________________________________________
Layer (type)                    Output Shape         Param #     Connected to
==================================================================================================
input_2 (InputLayer)            (None, 224, 224, 3)  0
__________________________________________________________________________________________________
conv1 (FrozenConv2D)            (None, 112, 112, 32) 4736        input_2[0][0]
__________________________________________________________________________________________________
bn_conv1 (BatchNormalization)   (None, 112, 112, 32) 128         conv1[0][0]
__________________________________________________________________________________________________
activation_47 (Activation)      (None, 112, 112, 32) 0           bn_conv1[0][0]
__________________________________________________________________________________________________
max_pooling2d_2 (MaxPooling2D)  (None, 55, 55, 32)   0           activation_47[0][0]
__________________________________________________________________________________________________
res2a_branch2a (FrozenConv2D)   (None, 55, 55, 8)    264         max_pooling2d_2[0][0]
__________________________________________________________________________________________________
bn2a_branch2a (BatchNormalizati (None, 55, 55, 8)    32          res2a_branch2a[0][0]
__________________________________________________________________________________________________
activation_48 (Activation)      (None, 55, 55, 8)    0           bn2a_branch2a[0][0]
__________________________________________________________________________________________________
res2a_branch2b (FrozenConv2D)   (None, 55, 55, 8)    584         activation_48[0][0]
__________________________________________________________________________________________________
bn2a_branch2b (BatchNormalizati (None, 55, 55, 8)    32          res2a_branch2b[0][0]
__________________________________________________________________________________________________
activation_49 (Activation)      (None, 55, 55, 8)    0           bn2a_branch2b[0][0]
__________________________________________________________________________________________________
res2a_branch2c (FrozenConv2D)   (None, 55, 55, 64)   576         activation_49[0][0]
__________________________________________________________________________________________________
res2a_branch1 (FrozenConv2D)    (None, 55, 55, 64)   2112        max_pooling2d_2[0][0]
__________________________________________________________________________________________________
bn2a_branch2c (BatchNormalizati (None, 55, 55, 64)   256         res2a_branch2c[0][0]
__________________________________________________________________________________________________
bn2a_branch1 (BatchNormalizatio (None, 55, 55, 64)   256         res2a_branch1[0][0]
__________________________________________________________________________________________________
add_17 (Add)                    (None, 55, 55, 64)   0           bn2a_branch2c[0][0]
                                                                 bn2a_branch1[0][0]
__________________________________________________________________________________________________
activation_50 (Activation)      (None, 55, 55, 64)   0           add_17[0][0]
__________________________________________________________________________________________________
res2b_branch2a (FrozenConv2D)   (None, 55, 55, 8)    520         activation_50[0][0]
__________________________________________________________________________________________________
bn2b_branch2a (BatchNormalizati (None, 55, 55, 8)    32          res2b_branch2a[0][0]
__________________________________________________________________________________________________
activation_51 (Activation)      (None, 55, 55, 8)    0           bn2b_branch2a[0][0]
__________________________________________________________________________________________________
res2b_branch2b (FrozenConv2D)   (None, 55, 55, 8)    584         activation_51[0][0]
__________________________________________________________________________________________________
bn2b_branch2b (BatchNormalizati (None, 55, 55, 8)    32          res2b_branch2b[0][0]
__________________________________________________________________________________________________
activation_52 (Activation)      (None, 55, 55, 8)    0           bn2b_branch2b[0][0]
__________________________________________________________________________________________________
res2b_branch2c (FrozenConv2D)   (None, 55, 55, 64)   576         activation_52[0][0]
__________________________________________________________________________________________________
bn2b_branch2c (BatchNormalizati (None, 55, 55, 64)   256         res2b_branch2c[0][0]
__________________________________________________________________________________________________
add_18 (Add)                    (None, 55, 55, 64)   0           bn2b_branch2c[0][0]
                                                                 activation_50[0][0]
__________________________________________________________________________________________________
ee2b (Activation)               (None, 55, 55, 64)   0           add_18[0][0]
__________________________________________________________________________________________________
res2c_branch2a (FrozenConv2D)   (None, 55, 55, 8)    520         ee2b[0][0]
__________________________________________________________________________________________________
bn2c_branch2a (BatchNormalizati (None, 55, 55, 8)    32          res2c_branch2a[0][0]
__________________________________________________________________________________________________
activation_53 (Activation)      (None, 55, 55, 8)    0           bn2c_branch2a[0][0]
__________________________________________________________________________________________________
res2c_branch2b (FrozenConv2D)   (None, 55, 55, 8)    584         activation_53[0][0]
__________________________________________________________________________________________________
bn2c_branch2b (BatchNormalizati (None, 55, 55, 8)    32          res2c_branch2b[0][0]
__________________________________________________________________________________________________
activation_54 (Activation)      (None, 55, 55, 8)    0           bn2c_branch2b[0][0]
__________________________________________________________________________________________________
res2c_branch2c (FrozenConv2D)   (None, 55, 55, 64)   576         activation_54[0][0]
__________________________________________________________________________________________________
bn2c_branch2c (BatchNormalizati (None, 55, 55, 64)   256         res2c_branch2c[0][0]
__________________________________________________________________________________________________
add_19 (Add)                    (None, 55, 55, 64)   0           bn2c_branch2c[0][0]
                                                                 ee2b[0][0]
__________________________________________________________________________________________________
ee2c (Activation)               (None, 55, 55, 64)   0           add_19[0][0]
__________________________________________________________________________________________________
res3a_branch2a (FrozenConv2D)   (None, 28, 28, 8)    520         ee2c[0][0]
__________________________________________________________________________________________________
bn3a_branch2a (BatchNormalizati (None, 28, 28, 8)    32          res3a_branch2a[0][0]
__________________________________________________________________________________________________
activation_55 (Activation)      (None, 28, 28, 8)    0           bn3a_branch2a[0][0]
__________________________________________________________________________________________________
res3a_branch2b (FrozenConv2D)   (None, 28, 28, 8)    584         activation_55[0][0]
__________________________________________________________________________________________________
bn3a_branch2b (BatchNormalizati (None, 28, 28, 8)    32          res3a_branch2b[0][0]
__________________________________________________________________________________________________
activation_56 (Activation)      (None, 28, 28, 8)    0           bn3a_branch2b[0][0]
__________________________________________________________________________________________________
res3a_branch2c (FrozenConv2D)   (None, 28, 28, 128)  1152        activation_56[0][0]
__________________________________________________________________________________________________
res3a_branch1 (FrozenConv2D)    (None, 28, 28, 128)  8320        ee2c[0][0]
__________________________________________________________________________________________________
bn3a_branch2c (BatchNormalizati (None, 28, 28, 128)  512         res3a_branch2c[0][0]
__________________________________________________________________________________________________
bn3a_branch1 (BatchNormalizatio (None, 28, 28, 128)  512         res3a_branch1[0][0]
__________________________________________________________________________________________________
add_20 (Add)                    (None, 28, 28, 128)  0           bn3a_branch2c[0][0]
                                                                 bn3a_branch1[0][0]
__________________________________________________________________________________________________
activation_57 (Activation)      (None, 28, 28, 128)  0           add_20[0][0]
__________________________________________________________________________________________________
res3b_branch2a (FrozenConv2D)   (None, 28, 28, 8)    1032        activation_57[0][0]
__________________________________________________________________________________________________
bn3b_branch2a (BatchNormalizati (None, 28, 28, 8)    32          res3b_branch2a[0][0]
__________________________________________________________________________________________________
activation_58 (Activation)      (None, 28, 28, 8)    0           bn3b_branch2a[0][0]
__________________________________________________________________________________________________
res3b_branch2b (FrozenConv2D)   (None, 28, 28, 8)    584         activation_58[0][0]
__________________________________________________________________________________________________
bn3b_branch2b (BatchNormalizati (None, 28, 28, 8)    32          res3b_branch2b[0][0]
__________________________________________________________________________________________________
activation_59 (Activation)      (None, 28, 28, 8)    0           bn3b_branch2b[0][0]
__________________________________________________________________________________________________
res3b_branch2c (FrozenConv2D)   (None, 28, 28, 128)  1152        activation_59[0][0]
__________________________________________________________________________________________________
bn3b_branch2c (BatchNormalizati (None, 28, 28, 128)  512         res3b_branch2c[0][0]
__________________________________________________________________________________________________
add_21 (Add)                    (None, 28, 28, 128)  0           bn3b_branch2c[0][0]
                                                                 activation_57[0][0]
__________________________________________________________________________________________________
ee3b (Activation)               (None, 28, 28, 128)  0           add_21[0][0]
__________________________________________________________________________________________________
res3c_branch2a (FrozenConv2D)   (None, 28, 28, 8)    1032        ee3b[0][0]
__________________________________________________________________________________________________
bn3c_branch2a (BatchNormalizati (None, 28, 28, 8)    32          res3c_branch2a[0][0]
__________________________________________________________________________________________________
activation_60 (Activation)      (None, 28, 28, 8)    0           bn3c_branch2a[0][0]
__________________________________________________________________________________________________
res3c_branch2b (FrozenConv2D)   (None, 28, 28, 8)    584         activation_60[0][0]
__________________________________________________________________________________________________
bn3c_branch2b (BatchNormalizati (None, 28, 28, 8)    32          res3c_branch2b[0][0]
__________________________________________________________________________________________________
activation_61 (Activation)      (None, 28, 28, 8)    0           bn3c_branch2b[0][0]
__________________________________________________________________________________________________
res3c_branch2c (FrozenConv2D)   (None, 28, 28, 128)  1152        activation_61[0][0]
__________________________________________________________________________________________________
bn3c_branch2c (BatchNormalizati (None, 28, 28, 128)  512         res3c_branch2c[0][0]
__________________________________________________________________________________________________
add_22 (Add)                    (None, 28, 28, 128)  0           bn3c_branch2c[0][0]
                                                                 ee3b[0][0]
__________________________________________________________________________________________________
ee3c (Activation)               (None, 28, 28, 128)  0           add_22[0][0]
__________________________________________________________________________________________________
res3d_branch2a (FrozenConv2D)   (None, 28, 28, 8)    1032        ee3c[0][0]
__________________________________________________________________________________________________
bn3d_branch2a (BatchNormalizati (None, 28, 28, 8)    32          res3d_branch2a[0][0]
__________________________________________________________________________________________________
activation_62 (Activation)      (None, 28, 28, 8)    0           bn3d_branch2a[0][0]
__________________________________________________________________________________________________
res3d_branch2b (FrozenConv2D)   (None, 28, 28, 8)    584         activation_62[0][0]
__________________________________________________________________________________________________
bn3d_branch2b (BatchNormalizati (None, 28, 28, 8)    32          res3d_branch2b[0][0]
__________________________________________________________________________________________________
activation_63 (Activation)      (None, 28, 28, 8)    0           bn3d_branch2b[0][0]
__________________________________________________________________________________________________
res3d_branch2c (FrozenConv2D)   (None, 28, 28, 128)  1152        activation_63[0][0]
__________________________________________________________________________________________________
bn3d_branch2c (BatchNormalizati (None, 28, 28, 128)  512         res3d_branch2c[0][0]
__________________________________________________________________________________________________
add_23 (Add)                    (None, 28, 28, 128)  0           bn3d_branch2c[0][0]
                                                                 ee3c[0][0]
__________________________________________________________________________________________________
ee3d (Activation)               (None, 28, 28, 128)  0           add_23[0][0]
__________________________________________________________________________________________________
res4a_branch2a (FrozenConv2D)   (None, 14, 14, 8)    1032        ee3d[0][0]
__________________________________________________________________________________________________
bn4a_branch2a (BatchNormalizati (None, 14, 14, 8)    32          res4a_branch2a[0][0]
__________________________________________________________________________________________________
activation_64 (Activation)      (None, 14, 14, 8)    0           bn4a_branch2a[0][0]
__________________________________________________________________________________________________
res4a_branch2b (FrozenConv2D)   (None, 14, 14, 8)    584         activation_64[0][0]
__________________________________________________________________________________________________
bn4a_branch2b (BatchNormalizati (None, 14, 14, 8)    32          res4a_branch2b[0][0]
__________________________________________________________________________________________________
activation_65 (Activation)      (None, 14, 14, 8)    0           bn4a_branch2b[0][0]
__________________________________________________________________________________________________
res4a_branch2c (FrozenConv2D)   (None, 14, 14, 128)  1152        activation_65[0][0]
__________________________________________________________________________________________________
res4a_branch1 (FrozenConv2D)    (None, 14, 14, 128)  16512       ee3d[0][0]
__________________________________________________________________________________________________
bn4a_branch2c (BatchNormalizati (None, 14, 14, 128)  512         res4a_branch2c[0][0]
__________________________________________________________________________________________________
bn4a_branch1 (BatchNormalizatio (None, 14, 14, 128)  512         res4a_branch1[0][0]
__________________________________________________________________________________________________
add_24 (Add)                    (None, 14, 14, 128)  0           bn4a_branch2c[0][0]
                                                                 bn4a_branch1[0][0]
__________________________________________________________________________________________________
activation_66 (Activation)      (None, 14, 14, 128)  0           add_24[0][0]
__________________________________________________________________________________________________
res4b_branch2a (FrozenConv2D)   (None, 14, 14, 8)    1032        activation_66[0][0]
__________________________________________________________________________________________________
bn4b_branch2a (BatchNormalizati (None, 14, 14, 8)    32          res4b_branch2a[0][0]
__________________________________________________________________________________________________
activation_67 (Activation)      (None, 14, 14, 8)    0           bn4b_branch2a[0][0]
__________________________________________________________________________________________________
res4b_branch2b (FrozenConv2D)   (None, 14, 14, 8)    584         activation_67[0][0]
__________________________________________________________________________________________________
bn4b_branch2b (BatchNormalizati (None, 14, 14, 8)    32          res4b_branch2b[0][0]
__________________________________________________________________________________________________
activation_68 (Activation)      (None, 14, 14, 8)    0           bn4b_branch2b[0][0]
__________________________________________________________________________________________________
res4b_branch2c (FrozenConv2D)   (None, 14, 14, 128)  1152        activation_68[0][0]
__________________________________________________________________________________________________
bn4b_branch2c (BatchNormalizati (None, 14, 14, 128)  512         res4b_branch2c[0][0]
__________________________________________________________________________________________________
add_25 (Add)                    (None, 14, 14, 128)  0           bn4b_branch2c[0][0]
                                                                 activation_66[0][0]
__________________________________________________________________________________________________
ee4b (Activation)               (None, 14, 14, 128)  0           add_25[0][0]
__________________________________________________________________________________________________
res4c_branch2a (FrozenConv2D)   (None, 14, 14, 8)    1032        ee4b[0][0]
__________________________________________________________________________________________________
bn4c_branch2a (BatchNormalizati (None, 14, 14, 8)    32          res4c_branch2a[0][0]
__________________________________________________________________________________________________
activation_69 (Activation)      (None, 14, 14, 8)    0           bn4c_branch2a[0][0]
__________________________________________________________________________________________________
res4c_branch2b (FrozenConv2D)   (None, 14, 14, 8)    584         activation_69[0][0]
__________________________________________________________________________________________________
bn4c_branch2b (BatchNormalizati (None, 14, 14, 8)    32          res4c_branch2b[0][0]
__________________________________________________________________________________________________
activation_70 (Activation)      (None, 14, 14, 8)    0           bn4c_branch2b[0][0]
__________________________________________________________________________________________________
res4c_branch2c (FrozenConv2D)   (None, 14, 14, 128)  1152        activation_70[0][0]
__________________________________________________________________________________________________
bn4c_branch2c (BatchNormalizati (None, 14, 14, 128)  512         res4c_branch2c[0][0]
__________________________________________________________________________________________________
add_26 (Add)                    (None, 14, 14, 128)  0           bn4c_branch2c[0][0]
                                                                 ee4b[0][0]
__________________________________________________________________________________________________
ee4c (Activation)               (None, 14, 14, 128)  0           add_26[0][0]
__________________________________________________________________________________________________
res4d_branch2a (FrozenConv2D)   (None, 14, 14, 8)    1032        ee4c[0][0]
__________________________________________________________________________________________________
bn4d_branch2a (BatchNormalizati (None, 14, 14, 8)    32          res4d_branch2a[0][0]
__________________________________________________________________________________________________
activation_71 (Activation)      (None, 14, 14, 8)    0           bn4d_branch2a[0][0]
__________________________________________________________________________________________________
res4d_branch2b (FrozenConv2D)   (None, 14, 14, 8)    584         activation_71[0][0]
__________________________________________________________________________________________________
bn4d_branch2b (BatchNormalizati (None, 14, 14, 8)    32          res4d_branch2b[0][0]
__________________________________________________________________________________________________
activation_72 (Activation)      (None, 14, 14, 8)    0           bn4d_branch2b[0][0]
__________________________________________________________________________________________________
res4d_branch2c (FrozenConv2D)   (None, 14, 14, 128)  1152        activation_72[0][0]
__________________________________________________________________________________________________
bn4d_branch2c (BatchNormalizati (None, 14, 14, 128)  512         res4d_branch2c[0][0]
__________________________________________________________________________________________________
add_27 (Add)                    (None, 14, 14, 128)  0           bn4d_branch2c[0][0]
                                                                 ee4c[0][0]
__________________________________________________________________________________________________
ee4d (Activation)               (None, 14, 14, 128)  0           add_27[0][0]
__________________________________________________________________________________________________
res4e_branch2a (FrozenConv2D)   (None, 14, 14, 8)    1032        ee4d[0][0]
__________________________________________________________________________________________________
bn4e_branch2a (BatchNormalizati (None, 14, 14, 8)    32          res4e_branch2a[0][0]
__________________________________________________________________________________________________
activation_73 (Activation)      (None, 14, 14, 8)    0           bn4e_branch2a[0][0]
__________________________________________________________________________________________________
res4e_branch2b (FrozenConv2D)   (None, 14, 14, 8)    584         activation_73[0][0]
__________________________________________________________________________________________________
bn4e_branch2b (BatchNormalizati (None, 14, 14, 8)    32          res4e_branch2b[0][0]
__________________________________________________________________________________________________
activation_74 (Activation)      (None, 14, 14, 8)    0           bn4e_branch2b[0][0]
__________________________________________________________________________________________________
res4e_branch2c (FrozenConv2D)   (None, 14, 14, 128)  1152        activation_74[0][0]
__________________________________________________________________________________________________
bn4e_branch2c (BatchNormalizati (None, 14, 14, 128)  512         res4e_branch2c[0][0]
__________________________________________________________________________________________________
add_28 (Add)                    (None, 14, 14, 128)  0           bn4e_branch2c[0][0]
                                                                 ee4d[0][0]
__________________________________________________________________________________________________
ee4e (Activation)               (None, 14, 14, 128)  0           add_28[0][0]
__________________________________________________________________________________________________
res4f_branch2a (FrozenConv2D)   (None, 14, 14, 8)    1032        ee4e[0][0]
__________________________________________________________________________________________________
bn4f_branch2a (BatchNormalizati (None, 14, 14, 8)    32          res4f_branch2a[0][0]
__________________________________________________________________________________________________
activation_75 (Activation)      (None, 14, 14, 8)    0           bn4f_branch2a[0][0]
__________________________________________________________________________________________________
res4f_branch2b (FrozenConv2D)   (None, 14, 14, 8)    584         activation_75[0][0]
__________________________________________________________________________________________________
bn4f_branch2b (BatchNormalizati (None, 14, 14, 8)    32          res4f_branch2b[0][0]
__________________________________________________________________________________________________
activation_76 (Activation)      (None, 14, 14, 8)    0           bn4f_branch2b[0][0]
__________________________________________________________________________________________________
res4f_branch2c (FrozenConv2D)   (None, 14, 14, 128)  1152        activation_76[0][0]
__________________________________________________________________________________________________
bn4f_branch2c (BatchNormalizati (None, 14, 14, 128)  512         res4f_branch2c[0][0]
__________________________________________________________________________________________________
add_29 (Add)                    (None, 14, 14, 128)  0           bn4f_branch2c[0][0]
                                                                 ee4e[0][0]
__________________________________________________________________________________________________
ee4f (Activation)               (None, 14, 14, 128)  0           add_29[0][0]
__________________________________________________________________________________________________
res5a_branch2a (FrozenConv2D)   (None, 7, 7, 8)      1032        ee4f[0][0]
__________________________________________________________________________________________________
bn5a_branch2a (BatchNormalizati (None, 7, 7, 8)      32          res5a_branch2a[0][0]
__________________________________________________________________________________________________
activation_77 (Activation)      (None, 7, 7, 8)      0           bn5a_branch2a[0][0]
__________________________________________________________________________________________________
res5a_branch2b (FrozenConv2D)   (None, 7, 7, 8)      584         activation_77[0][0]
__________________________________________________________________________________________________
bn5a_branch2b (BatchNormalizati (None, 7, 7, 8)      32          res5a_branch2b[0][0]
__________________________________________________________________________________________________
activation_78 (Activation)      (None, 7, 7, 8)      0           bn5a_branch2b[0][0]
__________________________________________________________________________________________________
res5a_branch2c (FrozenConv2D)   (None, 7, 7, 256)    2304        activation_78[0][0]
__________________________________________________________________________________________________
res5a_branch1 (FrozenConv2D)    (None, 7, 7, 256)    33024       ee4f[0][0]
__________________________________________________________________________________________________
bn5a_branch2c (BatchNormalizati (None, 7, 7, 256)    1024        res5a_branch2c[0][0]
__________________________________________________________________________________________________
bn5a_branch1 (BatchNormalizatio (None, 7, 7, 256)    1024        res5a_branch1[0][0]
__________________________________________________________________________________________________
add_30 (Add)                    (None, 7, 7, 256)    0           bn5a_branch2c[0][0]
                                                                 bn5a_branch1[0][0]
__________________________________________________________________________________________________
activation_79 (Activation)      (None, 7, 7, 256)    0           add_30[0][0]
__________________________________________________________________________________________________
res5b_branch2a (FrozenConv2D)   (None, 7, 7, 8)      2056        activation_79[0][0]
__________________________________________________________________________________________________
bn5b_branch2a (BatchNormalizati (None, 7, 7, 8)      32          res5b_branch2a[0][0]
__________________________________________________________________________________________________
activation_80 (Activation)      (None, 7, 7, 8)      0           bn5b_branch2a[0][0]
__________________________________________________________________________________________________
res5b_branch2b (FrozenConv2D)   (None, 7, 7, 8)      584         activation_80[0][0]
__________________________________________________________________________________________________
bn5b_branch2b (BatchNormalizati (None, 7, 7, 8)      32          res5b_branch2b[0][0]
__________________________________________________________________________________________________
activation_81 (Activation)      (None, 7, 7, 8)      0           bn5b_branch2b[0][0]
__________________________________________________________________________________________________
res5b_branch2c (FrozenConv2D)   (None, 7, 7, 256)    2304        activation_81[0][0]
__________________________________________________________________________________________________
bn5b_branch2c (BatchNormalizati (None, 7, 7, 256)    1024        res5b_branch2c[0][0]
__________________________________________________________________________________________________
add_31 (Add)                    (None, 7, 7, 256)    0           bn5b_branch2c[0][0]
                                                                 activation_79[0][0]
__________________________________________________________________________________________________
ee5b (Activation)               (None, 7, 7, 256)    0           add_31[0][0]
__________________________________________________________________________________________________
res5c_branch2a (FrozenConv2D)   (None, 7, 7, 8)      2056        ee5b[0][0]
__________________________________________________________________________________________________
bn5c_branch2a (BatchNormalizati (None, 7, 7, 8)      32          res5c_branch2a[0][0]
__________________________________________________________________________________________________
depthwise_conv2d_4 (DepthwiseCo (None, 55, 55, 64)   576         ee2c[0][0]
__________________________________________________________________________________________________
depthwise_conv2d_5 (DepthwiseCo (None, 28, 28, 128)  1152        ee3d[0][0]
__________________________________________________________________________________________________
depthwise_conv2d_6 (DepthwiseCo (None, 14, 14, 128)  1152        ee4f[0][0]
__________________________________________________________________________________________________
activation_82 (Activation)      (None, 7, 7, 8)      0           bn5c_branch2a[0][0]
__________________________________________________________________________________________________
batch_normalization_7 (BatchNor (None, 55, 55, 64)   256         depthwise_conv2d_4[0][0]
__________________________________________________________________________________________________
batch_normalization_9 (BatchNor (None, 28, 28, 128)  512         depthwise_conv2d_5[0][0]
__________________________________________________________________________________________________
batch_normalization_11 (BatchNo (None, 14, 14, 128)  512         depthwise_conv2d_6[0][0]
__________________________________________________________________________________________________
res5c_branch2b (FrozenConv2D)   (None, 7, 7, 8)      584         activation_82[0][0]
__________________________________________________________________________________________________
activation_84 (Activation)      (None, 55, 55, 64)   0           batch_normalization_7[0][0]
__________________________________________________________________________________________________
activation_87 (Activation)      (None, 28, 28, 128)  0           batch_normalization_9[0][0]
__________________________________________________________________________________________________
activation_90 (Activation)      (None, 14, 14, 128)  0           batch_normalization_11[0][0]
__________________________________________________________________________________________________
bn5c_branch2b (BatchNormalizati (None, 7, 7, 8)      32          res5c_branch2b[0][0]
__________________________________________________________________________________________________
conv2d_7 (Conv2D)               (None, 55, 55, 256)  16384       activation_84[0][0]
__________________________________________________________________________________________________
conv2d_9 (Conv2D)               (None, 28, 28, 256)  32768       activation_87[0][0]
__________________________________________________________________________________________________
conv2d_11 (Conv2D)              (None, 14, 14, 256)  32768       activation_90[0][0]
__________________________________________________________________________________________________
activation_83 (Activation)      (None, 7, 7, 8)      0           bn5c_branch2b[0][0]
__________________________________________________________________________________________________
batch_normalization_8 (BatchNor (None, 55, 55, 256)  1024        conv2d_7[0][0]
__________________________________________________________________________________________________
batch_normalization_10 (BatchNo (None, 28, 28, 256)  1024        conv2d_9[0][0]
__________________________________________________________________________________________________
batch_normalization_12 (BatchNo (None, 14, 14, 256)  1024        conv2d_11[0][0]
__________________________________________________________________________________________________
res5c_branch2c (FrozenConv2D)   (None, 7, 7, 256)    2304        activation_83[0][0]
__________________________________________________________________________________________________
activation_85 (Activation)      (None, 55, 55, 256)  0           batch_normalization_8[0][0]
__________________________________________________________________________________________________
activation_88 (Activation)      (None, 28, 28, 256)  0           batch_normalization_10[0][0]
__________________________________________________________________________________________________
activation_91 (Activation)      (None, 14, 14, 256)  0           batch_normalization_12[0][0]
__________________________________________________________________________________________________
bn5c_branch2c (BatchNormalizati (None, 7, 7, 256)    1024        res5c_branch2c[0][0]
__________________________________________________________________________________________________
global_average_pooling2d_4 (Glo (None, 256)          0           activation_85[0][0]
__________________________________________________________________________________________________
global_average_pooling2d_5 (Glo (None, 256)          0           activation_88[0][0]
__________________________________________________________________________________________________
global_average_pooling2d_6 (Glo (None, 256)          0           activation_91[0][0]
__________________________________________________________________________________________________
add_32 (Add)                    (None, 7, 7, 256)    0           bn5c_branch2c[0][0]
                                                                 ee5b[0][0]
__________________________________________________________________________________________________
reshape_4 (Reshape)             (None, 1, 1, 256)    0           global_average_pooling2d_4[0][0]
__________________________________________________________________________________________________
reshape_5 (Reshape)             (None, 1, 1, 256)    0           global_average_pooling2d_5[0][0]
__________________________________________________________________________________________________
reshape_6 (Reshape)             (None, 1, 1, 256)    0           global_average_pooling2d_6[0][0]
__________________________________________________________________________________________________
ee5c (Activation)               (None, 7, 7, 256)    0           add_32[0][0]
__________________________________________________________________________________________________
conv2d_8 (Conv2D)               (None, 1, 1, 10)     2570        reshape_4[0][0]
__________________________________________________________________________________________________
conv2d_10 (Conv2D)              (None, 1, 1, 10)     2570        reshape_5[0][0]
__________________________________________________________________________________________________
conv2d_12 (Conv2D)              (None, 1, 1, 10)     2570        reshape_6[0][0]
__________________________________________________________________________________________________
avg_pool (AveragePooling2D)     (None, 1, 1, 256)    0           ee5c[0][0]
__________________________________________________________________________________________________
activation_86 (Activation)      (None, 1, 1, 10)     0           conv2d_8[0][0]
__________________________________________________________________________________________________
activation_89 (Activation)      (None, 1, 1, 10)     0           conv2d_10[0][0]
__________________________________________________________________________________________________
activation_92 (Activation)      (None, 1, 1, 10)     0           conv2d_12[0][0]
__________________________________________________________________________________________________
flatten_2 (Flatten)             (None, 256)          0           avg_pool[0][0]
__________________________________________________________________________________________________
ee2c_output (Reshape)           (None, 10)           0           activation_86[0][0]
__________________________________________________________________________________________________
ee3d_output (Reshape)           (None, 10)           0           activation_89[0][0]
__________________________________________________________________________________________________
ee4f_output (Reshape)           (None, 10)           0           activation_92[0][0]
__________________________________________________________________________________________________
fc1000 (FrozenDense)            (None, 10)           2570        flatten_2[0][0]
==================================================================================================
Total params: 222,312
Trainable params: 94,686
Non-trainable params: 127,626
__________________________________________________________________________________________________
Epoch 1/40
780/781 [============================>.] - ETA: 0s - loss: 5.8696 - ee2c_output_loss: 2.0114 - ee3d_output_loss: 1.7948 - ee4f_output_loss: 1.4824 - fc1000_loss: 0.5811 - ee2c_output_acc: 0.3030 - ee3d_output_acc: 0.3860 - ee4f_output_acc: 0.5449 - fc1000_acc: 0.7990Epoch 00001: saving model to ./resnet/ee_results/b10_1/b10.h5
…
oss: 0.6277 - val_fc1000_loss: 0.5191 - val_ee2c_output_acc: 0.5574 - val_ee3d_output_acc: 0.6597 - val_ee4f_output_acc: 0.7773 - val_fc1000_acc: 0.8252
Evaluating top output of b0
[0.44319275919443524, 0.84314903846153844]
Training ee of b0
freezing original model...
creating early exit...
__________________________________________________________________________________________________
Layer (type)                    Output Shape         Param #     Connected to
==================================================================================================
input_3 (InputLayer)            (None, 224, 224, 3)  0
__________________________________________________________________________________________________
conv1 (FrozenConv2D)            (None, 112, 112, 32) 4736        input_3[0][0]
__________________________________________________________________________________________________
bn_conv1 (BatchNormalization)   (None, 112, 112, 32) 128         conv1[0][0]
__________________________________________________________________________________________________
activation_93 (Activation)      (None, 112, 112, 32) 0           bn_conv1[0][0]
__________________________________________________________________________________________________
max_pooling2d_3 (MaxPooling2D)  (None, 55, 55, 32)   0           activation_93[0][0]
__________________________________________________________________________________________________
res2a_branch2a (FrozenConv2D)   (None, 55, 55, 16)   528         max_pooling2d_3[0][0]
__________________________________________________________________________________________________
bn2a_branch2a (BatchNormalizati (None, 55, 55, 16)   64          res2a_branch2a[0][0]
__________________________________________________________________________________________________
activation_94 (Activation)      (None, 55, 55, 16)   0           bn2a_branch2a[0][0]
__________________________________________________________________________________________________
res2a_branch2b (FrozenConv2D)   (None, 55, 55, 16)   2320        activation_94[0][0]
__________________________________________________________________________________________________
bn2a_branch2b (BatchNormalizati (None, 55, 55, 16)   64          res2a_branch2b[0][0]
__________________________________________________________________________________________________
activation_95 (Activation)      (None, 55, 55, 16)   0           bn2a_branch2b[0][0]
__________________________________________________________________________________________________
res2a_branch2c (FrozenConv2D)   (None, 55, 55, 64)   1088        activation_95[0][0]
__________________________________________________________________________________________________
res2a_branch1 (FrozenConv2D)    (None, 55, 55, 64)   2112        max_pooling2d_3[0][0]
__________________________________________________________________________________________________
bn2a_branch2c (BatchNormalizati (None, 55, 55, 64)   256         res2a_branch2c[0][0]
__________________________________________________________________________________________________
bn2a_branch1 (BatchNormalizatio (None, 55, 55, 64)   256         res2a_branch1[0][0]
__________________________________________________________________________________________________
add_33 (Add)                    (None, 55, 55, 64)   0           bn2a_branch2c[0][0]
                                                                 bn2a_branch1[0][0]
__________________________________________________________________________________________________
activation_96 (Activation)      (None, 55, 55, 64)   0           add_33[0][0]
__________________________________________________________________________________________________
res2b_branch2a (FrozenConv2D)   (None, 55, 55, 16)   1040        activation_96[0][0]
__________________________________________________________________________________________________
bn2b_branch2a (BatchNormalizati (None, 55, 55, 16)   64          res2b_branch2a[0][0]
__________________________________________________________________________________________________
activation_97 (Activation)      (None, 55, 55, 16)   0           bn2b_branch2a[0][0]
__________________________________________________________________________________________________
res2b_branch2b (FrozenConv2D)   (None, 55, 55, 16)   2320        activation_97[0][0]
__________________________________________________________________________________________________
bn2b_branch2b (BatchNormalizati (None, 55, 55, 16)   64          res2b_branch2b[0][0]
__________________________________________________________________________________________________
activation_98 (Activation)      (None, 55, 55, 16)   0           bn2b_branch2b[0][0]
__________________________________________________________________________________________________
res2b_branch2c (FrozenConv2D)   (None, 55, 55, 64)   1088        activation_98[0][0]
__________________________________________________________________________________________________
bn2b_branch2c (BatchNormalizati (None, 55, 55, 64)   256         res2b_branch2c[0][0]
__________________________________________________________________________________________________
add_34 (Add)                    (None, 55, 55, 64)   0           bn2b_branch2c[0][0]
                                                                 activation_96[0][0]
__________________________________________________________________________________________________
ee2b (Activation)               (None, 55, 55, 64)   0           add_34[0][0]
__________________________________________________________________________________________________
res2c_branch2a (FrozenConv2D)   (None, 55, 55, 16)   1040        ee2b[0][0]
__________________________________________________________________________________________________
bn2c_branch2a (BatchNormalizati (None, 55, 55, 16)   64          res2c_branch2a[0][0]
__________________________________________________________________________________________________
activation_99 (Activation)      (None, 55, 55, 16)   0           bn2c_branch2a[0][0]
__________________________________________________________________________________________________
res2c_branch2b (FrozenConv2D)   (None, 55, 55, 16)   2320        activation_99[0][0]
__________________________________________________________________________________________________
bn2c_branch2b (BatchNormalizati (None, 55, 55, 16)   64          res2c_branch2b[0][0]
__________________________________________________________________________________________________
activation_100 (Activation)     (None, 55, 55, 16)   0           bn2c_branch2b[0][0]
__________________________________________________________________________________________________
res2c_branch2c (FrozenConv2D)   (None, 55, 55, 64)   1088        activation_100[0][0]
__________________________________________________________________________________________________
bn2c_branch2c (BatchNormalizati (None, 55, 55, 64)   256         res2c_branch2c[0][0]
__________________________________________________________________________________________________
add_35 (Add)                    (None, 55, 55, 64)   0           bn2c_branch2c[0][0]
                                                                 ee2b[0][0]
__________________________________________________________________________________________________
ee2c (Activation)               (None, 55, 55, 64)   0           add_35[0][0]
__________________________________________________________________________________________________
res3a_branch2a (FrozenConv2D)   (None, 28, 28, 16)   1040        ee2c[0][0]
__________________________________________________________________________________________________
bn3a_branch2a (BatchNormalizati (None, 28, 28, 16)   64          res3a_branch2a[0][0]
__________________________________________________________________________________________________
activation_101 (Activation)     (None, 28, 28, 16)   0           bn3a_branch2a[0][0]
__________________________________________________________________________________________________
res3a_branch2b (FrozenConv2D)   (None, 28, 28, 16)   2320        activation_101[0][0]
__________________________________________________________________________________________________
bn3a_branch2b (BatchNormalizati (None, 28, 28, 16)   64          res3a_branch2b[0][0]
__________________________________________________________________________________________________
activation_102 (Activation)     (None, 28, 28, 16)   0           bn3a_branch2b[0][0]
__________________________________________________________________________________________________
res3a_branch2c (FrozenConv2D)   (None, 28, 28, 128)  2176        activation_102[0][0]
__________________________________________________________________________________________________
res3a_branch1 (FrozenConv2D)    (None, 28, 28, 128)  8320        ee2c[0][0]
__________________________________________________________________________________________________
bn3a_branch2c (BatchNormalizati (None, 28, 28, 128)  512         res3a_branch2c[0][0]
__________________________________________________________________________________________________
bn3a_branch1 (BatchNormalizatio (None, 28, 28, 128)  512         res3a_branch1[0][0]
__________________________________________________________________________________________________
add_36 (Add)                    (None, 28, 28, 128)  0           bn3a_branch2c[0][0]
                                                                 bn3a_branch1[0][0]
__________________________________________________________________________________________________
activation_103 (Activation)     (None, 28, 28, 128)  0           add_36[0][0]
__________________________________________________________________________________________________
res3b_branch2a (FrozenConv2D)   (None, 28, 28, 16)   2064        activation_103[0][0]
__________________________________________________________________________________________________
bn3b_branch2a (BatchNormalizati (None, 28, 28, 16)   64          res3b_branch2a[0][0]
__________________________________________________________________________________________________
activation_104 (Activation)     (None, 28, 28, 16)   0           bn3b_branch2a[0][0]
__________________________________________________________________________________________________
res3b_branch2b (FrozenConv2D)   (None, 28, 28, 16)   2320        activation_104[0][0]
__________________________________________________________________________________________________
bn3b_branch2b (BatchNormalizati (None, 28, 28, 16)   64          res3b_branch2b[0][0]
__________________________________________________________________________________________________
activation_105 (Activation)     (None, 28, 28, 16)   0           bn3b_branch2b[0][0]
__________________________________________________________________________________________________
res3b_branch2c (FrozenConv2D)   (None, 28, 28, 128)  2176        activation_105[0][0]
__________________________________________________________________________________________________
bn3b_branch2c (BatchNormalizati (None, 28, 28, 128)  512         res3b_branch2c[0][0]
__________________________________________________________________________________________________
add_37 (Add)                    (None, 28, 28, 128)  0           bn3b_branch2c[0][0]
                                                                 activation_103[0][0]
__________________________________________________________________________________________________
ee3b (Activation)               (None, 28, 28, 128)  0           add_37[0][0]
__________________________________________________________________________________________________
res3c_branch2a (FrozenConv2D)   (None, 28, 28, 16)   2064        ee3b[0][0]
__________________________________________________________________________________________________
bn3c_branch2a (BatchNormalizati (None, 28, 28, 16)   64          res3c_branch2a[0][0]
__________________________________________________________________________________________________
activation_106 (Activation)     (None, 28, 28, 16)   0           bn3c_branch2a[0][0]
__________________________________________________________________________________________________
res3c_branch2b (FrozenConv2D)   (None, 28, 28, 16)   2320        activation_106[0][0]
__________________________________________________________________________________________________
bn3c_branch2b (BatchNormalizati (None, 28, 28, 16)   64          res3c_branch2b[0][0]
__________________________________________________________________________________________________
activation_107 (Activation)     (None, 28, 28, 16)   0           bn3c_branch2b[0][0]
__________________________________________________________________________________________________
res3c_branch2c (FrozenConv2D)   (None, 28, 28, 128)  2176        activation_107[0][0]
__________________________________________________________________________________________________
bn3c_branch2c (BatchNormalizati (None, 28, 28, 128)  512         res3c_branch2c[0][0]
__________________________________________________________________________________________________
add_38 (Add)                    (None, 28, 28, 128)  0           bn3c_branch2c[0][0]
                                                                 ee3b[0][0]
__________________________________________________________________________________________________
ee3c (Activation)               (None, 28, 28, 128)  0           add_38[0][0]
__________________________________________________________________________________________________
res3d_branch2a (FrozenConv2D)   (None, 28, 28, 16)   2064        ee3c[0][0]
__________________________________________________________________________________________________
bn3d_branch2a (BatchNormalizati (None, 28, 28, 16)   64          res3d_branch2a[0][0]
__________________________________________________________________________________________________
activation_108 (Activation)     (None, 28, 28, 16)   0           bn3d_branch2a[0][0]
__________________________________________________________________________________________________
res3d_branch2b (FrozenConv2D)   (None, 28, 28, 16)   2320        activation_108[0][0]
__________________________________________________________________________________________________
bn3d_branch2b (BatchNormalizati (None, 28, 28, 16)   64          res3d_branch2b[0][0]
__________________________________________________________________________________________________
activation_109 (Activation)     (None, 28, 28, 16)   0           bn3d_branch2b[0][0]
__________________________________________________________________________________________________
res3d_branch2c (FrozenConv2D)   (None, 28, 28, 128)  2176        activation_109[0][0]
__________________________________________________________________________________________________
bn3d_branch2c (BatchNormalizati (None, 28, 28, 128)  512         res3d_branch2c[0][0]
__________________________________________________________________________________________________
add_39 (Add)                    (None, 28, 28, 128)  0           bn3d_branch2c[0][0]
                                                                 ee3c[0][0]
__________________________________________________________________________________________________
ee3d (Activation)               (None, 28, 28, 128)  0           add_39[0][0]
__________________________________________________________________________________________________
res4a_branch2a (FrozenConv2D)   (None, 14, 14, 16)   2064        ee3d[0][0]
__________________________________________________________________________________________________
bn4a_branch2a (BatchNormalizati (None, 14, 14, 16)   64          res4a_branch2a[0][0]
__________________________________________________________________________________________________
activation_110 (Activation)     (None, 14, 14, 16)   0           bn4a_branch2a[0][0]
__________________________________________________________________________________________________
res4a_branch2b (FrozenConv2D)   (None, 14, 14, 16)   2320        activation_110[0][0]
__________________________________________________________________________________________________
bn4a_branch2b (BatchNormalizati (None, 14, 14, 16)   64          res4a_branch2b[0][0]
__________________________________________________________________________________________________
activation_111 (Activation)     (None, 14, 14, 16)   0           bn4a_branch2b[0][0]
__________________________________________________________________________________________________
res4a_branch2c (FrozenConv2D)   (None, 14, 14, 128)  2176        activation_111[0][0]
__________________________________________________________________________________________________
res4a_branch1 (FrozenConv2D)    (None, 14, 14, 128)  16512       ee3d[0][0]
__________________________________________________________________________________________________
bn4a_branch2c (BatchNormalizati (None, 14, 14, 128)  512         res4a_branch2c[0][0]
__________________________________________________________________________________________________
bn4a_branch1 (BatchNormalizatio (None, 14, 14, 128)  512         res4a_branch1[0][0]
__________________________________________________________________________________________________
add_40 (Add)                    (None, 14, 14, 128)  0           bn4a_branch2c[0][0]
                                                                 bn4a_branch1[0][0]
__________________________________________________________________________________________________
activation_112 (Activation)     (None, 14, 14, 128)  0           add_40[0][0]
__________________________________________________________________________________________________
res4b_branch2a (FrozenConv2D)   (None, 14, 14, 16)   2064        activation_112[0][0]
__________________________________________________________________________________________________
bn4b_branch2a (BatchNormalizati (None, 14, 14, 16)   64          res4b_branch2a[0][0]
__________________________________________________________________________________________________
activation_113 (Activation)     (None, 14, 14, 16)   0           bn4b_branch2a[0][0]
__________________________________________________________________________________________________
res4b_branch2b (FrozenConv2D)   (None, 14, 14, 16)   2320        activation_113[0][0]
__________________________________________________________________________________________________
bn4b_branch2b (BatchNormalizati (None, 14, 14, 16)   64          res4b_branch2b[0][0]
__________________________________________________________________________________________________
activation_114 (Activation)     (None, 14, 14, 16)   0           bn4b_branch2b[0][0]
__________________________________________________________________________________________________
res4b_branch2c (FrozenConv2D)   (None, 14, 14, 128)  2176        activation_114[0][0]
__________________________________________________________________________________________________
bn4b_branch2c (BatchNormalizati (None, 14, 14, 128)  512         res4b_branch2c[0][0]
__________________________________________________________________________________________________
add_41 (Add)                    (None, 14, 14, 128)  0           bn4b_branch2c[0][0]
                                                                 activation_112[0][0]
__________________________________________________________________________________________________
ee4b (Activation)               (None, 14, 14, 128)  0           add_41[0][0]
__________________________________________________________________________________________________
res4c_branch2a (FrozenConv2D)   (None, 14, 14, 16)   2064        ee4b[0][0]
__________________________________________________________________________________________________
bn4c_branch2a (BatchNormalizati (None, 14, 14, 16)   64          res4c_branch2a[0][0]
__________________________________________________________________________________________________
activation_115 (Activation)     (None, 14, 14, 16)   0           bn4c_branch2a[0][0]
__________________________________________________________________________________________________
res4c_branch2b (FrozenConv2D)   (None, 14, 14, 16)   2320        activation_115[0][0]
__________________________________________________________________________________________________
bn4c_branch2b (BatchNormalizati (None, 14, 14, 16)   64          res4c_branch2b[0][0]
__________________________________________________________________________________________________
activation_116 (Activation)     (None, 14, 14, 16)   0           bn4c_branch2b[0][0]
__________________________________________________________________________________________________
res4c_branch2c (FrozenConv2D)   (None, 14, 14, 128)  2176        activation_116[0][0]
__________________________________________________________________________________________________
bn4c_branch2c (BatchNormalizati (None, 14, 14, 128)  512         res4c_branch2c[0][0]
__________________________________________________________________________________________________
add_42 (Add)                    (None, 14, 14, 128)  0           bn4c_branch2c[0][0]
                                                                 ee4b[0][0]
__________________________________________________________________________________________________
ee4c (Activation)               (None, 14, 14, 128)  0           add_42[0][0]
__________________________________________________________________________________________________
res4d_branch2a (FrozenConv2D)   (None, 14, 14, 16)   2064        ee4c[0][0]
__________________________________________________________________________________________________
bn4d_branch2a (BatchNormalizati (None, 14, 14, 16)   64          res4d_branch2a[0][0]
__________________________________________________________________________________________________
activation_117 (Activation)     (None, 14, 14, 16)   0           bn4d_branch2a[0][0]
__________________________________________________________________________________________________
res4d_branch2b (FrozenConv2D)   (None, 14, 14, 16)   2320        activation_117[0][0]
__________________________________________________________________________________________________
bn4d_branch2b (BatchNormalizati (None, 14, 14, 16)   64          res4d_branch2b[0][0]
__________________________________________________________________________________________________
activation_118 (Activation)     (None, 14, 14, 16)   0           bn4d_branch2b[0][0]
__________________________________________________________________________________________________
res4d_branch2c (FrozenConv2D)   (None, 14, 14, 128)  2176        activation_118[0][0]
__________________________________________________________________________________________________
bn4d_branch2c (BatchNormalizati (None, 14, 14, 128)  512         res4d_branch2c[0][0]
__________________________________________________________________________________________________
add_43 (Add)                    (None, 14, 14, 128)  0           bn4d_branch2c[0][0]
                                                                 ee4c[0][0]
__________________________________________________________________________________________________
ee4d (Activation)               (None, 14, 14, 128)  0           add_43[0][0]
__________________________________________________________________________________________________
res4e_branch2a (FrozenConv2D)   (None, 14, 14, 16)   2064        ee4d[0][0]
__________________________________________________________________________________________________
bn4e_branch2a (BatchNormalizati (None, 14, 14, 16)   64          res4e_branch2a[0][0]
__________________________________________________________________________________________________
activation_119 (Activation)     (None, 14, 14, 16)   0           bn4e_branch2a[0][0]
__________________________________________________________________________________________________
res4e_branch2b (FrozenConv2D)   (None, 14, 14, 16)   2320        activation_119[0][0]
__________________________________________________________________________________________________
bn4e_branch2b (BatchNormalizati (None, 14, 14, 16)   64          res4e_branch2b[0][0]
__________________________________________________________________________________________________
activation_120 (Activation)     (None, 14, 14, 16)   0           bn4e_branch2b[0][0]
__________________________________________________________________________________________________
res4e_branch2c (FrozenConv2D)   (None, 14, 14, 128)  2176        activation_120[0][0]
__________________________________________________________________________________________________
bn4e_branch2c (BatchNormalizati (None, 14, 14, 128)  512         res4e_branch2c[0][0]
__________________________________________________________________________________________________
add_44 (Add)                    (None, 14, 14, 128)  0           bn4e_branch2c[0][0]
                                                                 ee4d[0][0]
__________________________________________________________________________________________________
ee4e (Activation)               (None, 14, 14, 128)  0           add_44[0][0]
__________________________________________________________________________________________________
res4f_branch2a (FrozenConv2D)   (None, 14, 14, 16)   2064        ee4e[0][0]
__________________________________________________________________________________________________
bn4f_branch2a (BatchNormalizati (None, 14, 14, 16)   64          res4f_branch2a[0][0]
__________________________________________________________________________________________________
activation_121 (Activation)     (None, 14, 14, 16)   0           bn4f_branch2a[0][0]
__________________________________________________________________________________________________
res4f_branch2b (FrozenConv2D)   (None, 14, 14, 16)   2320        activation_121[0][0]
__________________________________________________________________________________________________
bn4f_branch2b (BatchNormalizati (None, 14, 14, 16)   64          res4f_branch2b[0][0]
__________________________________________________________________________________________________
activation_122 (Activation)     (None, 14, 14, 16)   0           bn4f_branch2b[0][0]
__________________________________________________________________________________________________
res4f_branch2c (FrozenConv2D)   (None, 14, 14, 128)  2176        activation_122[0][0]
__________________________________________________________________________________________________
bn4f_branch2c (BatchNormalizati (None, 14, 14, 128)  512         res4f_branch2c[0][0]
__________________________________________________________________________________________________
add_45 (Add)                    (None, 14, 14, 128)  0           bn4f_branch2c[0][0]
                                                                 ee4e[0][0]
__________________________________________________________________________________________________
ee4f (Activation)               (None, 14, 14, 128)  0           add_45[0][0]
__________________________________________________________________________________________________
res5a_branch2a (FrozenConv2D)   (None, 7, 7, 16)     2064        ee4f[0][0]
__________________________________________________________________________________________________
bn5a_branch2a (BatchNormalizati (None, 7, 7, 16)     64          res5a_branch2a[0][0]
__________________________________________________________________________________________________
activation_123 (Activation)     (None, 7, 7, 16)     0           bn5a_branch2a[0][0]
__________________________________________________________________________________________________
res5a_branch2b (FrozenConv2D)   (None, 7, 7, 16)     2320        activation_123[0][0]
__________________________________________________________________________________________________
bn5a_branch2b (BatchNormalizati (None, 7, 7, 16)     64          res5a_branch2b[0][0]
__________________________________________________________________________________________________
activation_124 (Activation)     (None, 7, 7, 16)     0           bn5a_branch2b[0][0]
__________________________________________________________________________________________________
res5a_branch2c (FrozenConv2D)   (None, 7, 7, 256)    4352        activation_124[0][0]
__________________________________________________________________________________________________
res5a_branch1 (FrozenConv2D)    (None, 7, 7, 256)    33024       ee4f[0][0]
__________________________________________________________________________________________________
bn5a_branch2c (BatchNormalizati (None, 7, 7, 256)    1024        res5a_branch2c[0][0]
__________________________________________________________________________________________________
bn5a_branch1 (BatchNormalizatio (None, 7, 7, 256)    1024        res5a_branch1[0][0]
__________________________________________________________________________________________________
add_46 (Add)                    (None, 7, 7, 256)    0           bn5a_branch2c[0][0]
                                                                 bn5a_branch1[0][0]
__________________________________________________________________________________________________
activation_125 (Activation)     (None, 7, 7, 256)    0           add_46[0][0]
__________________________________________________________________________________________________
res5b_branch2a (FrozenConv2D)   (None, 7, 7, 16)     4112        activation_125[0][0]
__________________________________________________________________________________________________
bn5b_branch2a (BatchNormalizati (None, 7, 7, 16)     64          res5b_branch2a[0][0]
__________________________________________________________________________________________________
activation_126 (Activation)     (None, 7, 7, 16)     0           bn5b_branch2a[0][0]
__________________________________________________________________________________________________
res5b_branch2b (FrozenConv2D)   (None, 7, 7, 16)     2320        activation_126[0][0]
__________________________________________________________________________________________________
bn5b_branch2b (BatchNormalizati (None, 7, 7, 16)     64          res5b_branch2b[0][0]
__________________________________________________________________________________________________
activation_127 (Activation)     (None, 7, 7, 16)     0           bn5b_branch2b[0][0]
__________________________________________________________________________________________________
res5b_branch2c (FrozenConv2D)   (None, 7, 7, 256)    4352        activation_127[0][0]
__________________________________________________________________________________________________
bn5b_branch2c (BatchNormalizati (None, 7, 7, 256)    1024        res5b_branch2c[0][0]
__________________________________________________________________________________________________
add_47 (Add)                    (None, 7, 7, 256)    0           bn5b_branch2c[0][0]
                                                                 activation_125[0][0]
__________________________________________________________________________________________________
ee5b (Activation)               (None, 7, 7, 256)    0           add_47[0][0]
__________________________________________________________________________________________________
res5c_branch2a (FrozenConv2D)   (None, 7, 7, 16)     4112        ee5b[0][0]
__________________________________________________________________________________________________
bn5c_branch2a (BatchNormalizati (None, 7, 7, 16)     64          res5c_branch2a[0][0]
__________________________________________________________________________________________________
depthwise_conv2d_7 (DepthwiseCo (None, 55, 55, 64)   576         ee2c[0][0]
__________________________________________________________________________________________________
depthwise_conv2d_8 (DepthwiseCo (None, 28, 28, 128)  1152        ee3d[0][0]
__________________________________________________________________________________________________
depthwise_conv2d_9 (DepthwiseCo (None, 14, 14, 128)  1152        ee4f[0][0]
__________________________________________________________________________________________________
activation_128 (Activation)     (None, 7, 7, 16)     0           bn5c_branch2a[0][0]
__________________________________________________________________________________________________
batch_normalization_13 (BatchNo (None, 55, 55, 64)   256         depthwise_conv2d_7[0][0]
__________________________________________________________________________________________________
batch_normalization_15 (BatchNo (None, 28, 28, 128)  512         depthwise_conv2d_8[0][0]
__________________________________________________________________________________________________
batch_normalization_17 (BatchNo (None, 14, 14, 128)  512         depthwise_conv2d_9[0][0]
__________________________________________________________________________________________________
res5c_branch2b (FrozenConv2D)   (None, 7, 7, 16)     2320        activation_128[0][0]
__________________________________________________________________________________________________
activation_130 (Activation)     (None, 55, 55, 64)   0           batch_normalization_13[0][0]
__________________________________________________________________________________________________
activation_133 (Activation)     (None, 28, 28, 128)  0           batch_normalization_15[0][0]
__________________________________________________________________________________________________
activation_136 (Activation)     (None, 14, 14, 128)  0           batch_normalization_17[0][0]
__________________________________________________________________________________________________
bn5c_branch2b (BatchNormalizati (None, 7, 7, 16)     64          res5c_branch2b[0][0]
__________________________________________________________________________________________________
conv2d_13 (Conv2D)              (None, 55, 55, 256)  16384       activation_130[0][0]
__________________________________________________________________________________________________
conv2d_15 (Conv2D)              (None, 28, 28, 256)  32768       activation_133[0][0]
__________________________________________________________________________________________________
conv2d_17 (Conv2D)              (None, 14, 14, 256)  32768       activation_136[0][0]
__________________________________________________________________________________________________
activation_129 (Activation)     (None, 7, 7, 16)     0           bn5c_branch2b[0][0]
__________________________________________________________________________________________________
batch_normalization_14 (BatchNo (None, 55, 55, 256)  1024        conv2d_13[0][0]
__________________________________________________________________________________________________
batch_normalization_16 (BatchNo (None, 28, 28, 256)  1024        conv2d_15[0][0]
__________________________________________________________________________________________________
batch_normalization_18 (BatchNo (None, 14, 14, 256)  1024        conv2d_17[0][0]
__________________________________________________________________________________________________
res5c_branch2c (FrozenConv2D)   (None, 7, 7, 256)    4352        activation_129[0][0]
__________________________________________________________________________________________________
activation_131 (Activation)     (None, 55, 55, 256)  0           batch_normalization_14[0][0]
__________________________________________________________________________________________________
activation_134 (Activation)     (None, 28, 28, 256)  0           batch_normalization_16[0][0]
__________________________________________________________________________________________________
activation_137 (Activation)     (None, 14, 14, 256)  0           batch_normalization_18[0][0]
__________________________________________________________________________________________________
bn5c_branch2c (BatchNormalizati (None, 7, 7, 256)    1024        res5c_branch2c[0][0]
__________________________________________________________________________________________________
global_average_pooling2d_7 (Glo (None, 256)          0           activation_131[0][0]
__________________________________________________________________________________________________
global_average_pooling2d_8 (Glo (None, 256)          0           activation_134[0][0]
__________________________________________________________________________________________________
global_average_pooling2d_9 (Glo (None, 256)          0           activation_137[0][0]
__________________________________________________________________________________________________
add_48 (Add)                    (None, 7, 7, 256)    0           bn5c_branch2c[0][0]
                                                                 ee5b[0][0]
__________________________________________________________________________________________________
reshape_7 (Reshape)             (None, 1, 1, 256)    0           global_average_pooling2d_7[0][0]
__________________________________________________________________________________________________
reshape_8 (Reshape)             (None, 1, 1, 256)    0           global_average_pooling2d_8[0][0]
__________________________________________________________________________________________________
reshape_9 (Reshape)             (None, 1, 1, 256)    0           global_average_pooling2d_9[0][0]
__________________________________________________________________________________________________
ee5c (Activation)               (None, 7, 7, 256)    0           add_48[0][0]
__________________________________________________________________________________________________
conv2d_14 (Conv2D)              (None, 1, 1, 10)     2570        reshape_7[0][0]
__________________________________________________________________________________________________
conv2d_16 (Conv2D)              (None, 1, 1, 10)     2570        reshape_8[0][0]
__________________________________________________________________________________________________
conv2d_18 (Conv2D)              (None, 1, 1, 10)     2570        reshape_9[0][0]
__________________________________________________________________________________________________
avg_pool (AveragePooling2D)     (None, 1, 1, 256)    0           ee5c[0][0]
__________________________________________________________________________________________________
activation_132 (Activation)     (None, 1, 1, 10)     0           conv2d_14[0][0]
__________________________________________________________________________________________________
activation_135 (Activation)     (None, 1, 1, 10)     0           conv2d_16[0][0]
__________________________________________________________________________________________________
activation_138 (Activation)     (None, 1, 1, 10)     0           conv2d_18[0][0]
__________________________________________________________________________________________________
flatten_3 (Flatten)             (None, 256)          0           avg_pool[0][0]
__________________________________________________________________________________________________
ee2c_output (Reshape)           (None, 10)           0           activation_132[0][0]
__________________________________________________________________________________________________
ee3d_output (Reshape)           (None, 10)           0           activation_135[0][0]
__________________________________________________________________________________________________
ee4f_output (Reshape)           (None, 10)           0           activation_138[0][0]
__________________________________________________________________________________________________
fc1000 (FrozenDense)            (None, 10)           2570        flatten_3[0][0]
==================================================================================================
Total params: 285,288
Trainable params: 94,686
Non-trainable params: 190,602
__________________________________________________________________________________________________
Epoch 1/40
780/781 [============================>.] - ETA: 0s - loss: 5.7022 - ee2c_output_loss: 1.9980 - ee3d_output_loss: 1.8037 - ee4f_output_loss: 1.4595 - fc1000_loss: 0.4410 - ee2c_output_acc: 0.2994 - ee3d_output_acc: 0.3872 - ee4f_output_acc: 0.5610 - fc1000_acc: 0.8449Epoch 00001: saving model to ./resnet/ee_results/b0_1/b0.h5
…
loss: 0.5531 - val_fc1000_loss: 0.4343 - val_ee2c_output_acc: 0.5673 - val_ee3d_output_acc: 0.6649 - val_ee4f_output_acc: 0.8104 - val_fc1000_acc: 0.8471
Evaluating top output of 50
[0.40923918626056266, 0.8890224358974359]
Training ee of 50
freezing original model...
creating early exit...
__________________________________________________________________________________________________
Layer (type)                    Output Shape         Param #     Connected to
==================================================================================================
input_4 (InputLayer)            (None, 224, 224, 3)  0
__________________________________________________________________________________________________
conv1 (FrozenConv2D)            (None, 112, 112, 64) 9472        input_4[0][0]
__________________________________________________________________________________________________
bn_conv1 (BatchNormalization)   (None, 112, 112, 64) 256         conv1[0][0]
__________________________________________________________________________________________________
activation_139 (Activation)     (None, 112, 112, 64) 0           bn_conv1[0][0]
__________________________________________________________________________________________________
max_pooling2d_4 (MaxPooling2D)  (None, 55, 55, 64)   0           activation_139[0][0]
__________________________________________________________________________________________________
res2a_branch2a (FrozenConv2D)   (None, 55, 55, 32)   2080        max_pooling2d_4[0][0]
__________________________________________________________________________________________________
bn2a_branch2a (BatchNormalizati (None, 55, 55, 32)   128         res2a_branch2a[0][0]
__________________________________________________________________________________________________
activation_140 (Activation)     (None, 55, 55, 32)   0           bn2a_branch2a[0][0]
__________________________________________________________________________________________________
res2a_branch2b (FrozenConv2D)   (None, 55, 55, 32)   9248        activation_140[0][0]
__________________________________________________________________________________________________
bn2a_branch2b (BatchNormalizati (None, 55, 55, 32)   128         res2a_branch2b[0][0]
__________________________________________________________________________________________________
activation_141 (Activation)     (None, 55, 55, 32)   0           bn2a_branch2b[0][0]
__________________________________________________________________________________________________
res2a_branch2c (FrozenConv2D)   (None, 55, 55, 256)  8448        activation_141[0][0]
__________________________________________________________________________________________________
res2a_branch1 (FrozenConv2D)    (None, 55, 55, 256)  16640       max_pooling2d_4[0][0]
__________________________________________________________________________________________________
bn2a_branch2c (BatchNormalizati (None, 55, 55, 256)  1024        res2a_branch2c[0][0]
__________________________________________________________________________________________________
bn2a_branch1 (BatchNormalizatio (None, 55, 55, 256)  1024        res2a_branch1[0][0]
__________________________________________________________________________________________________
add_49 (Add)                    (None, 55, 55, 256)  0           bn2a_branch2c[0][0]
                                                                 bn2a_branch1[0][0]
__________________________________________________________________________________________________
activation_142 (Activation)     (None, 55, 55, 256)  0           add_49[0][0]
__________________________________________________________________________________________________
res2b_branch2a (FrozenConv2D)   (None, 55, 55, 32)   8224        activation_142[0][0]
__________________________________________________________________________________________________
bn2b_branch2a (BatchNormalizati (None, 55, 55, 32)   128         res2b_branch2a[0][0]
__________________________________________________________________________________________________
activation_143 (Activation)     (None, 55, 55, 32)   0           bn2b_branch2a[0][0]
__________________________________________________________________________________________________
res2b_branch2b (FrozenConv2D)   (None, 55, 55, 32)   9248        activation_143[0][0]
__________________________________________________________________________________________________
bn2b_branch2b (BatchNormalizati (None, 55, 55, 32)   128         res2b_branch2b[0][0]
__________________________________________________________________________________________________
activation_144 (Activation)     (None, 55, 55, 32)   0           bn2b_branch2b[0][0]
__________________________________________________________________________________________________
res2b_branch2c (FrozenConv2D)   (None, 55, 55, 256)  8448        activation_144[0][0]
__________________________________________________________________________________________________
bn2b_branch2c (BatchNormalizati (None, 55, 55, 256)  1024        res2b_branch2c[0][0]
__________________________________________________________________________________________________
add_50 (Add)                    (None, 55, 55, 256)  0           bn2b_branch2c[0][0]
                                                                 activation_142[0][0]
__________________________________________________________________________________________________
ee2b (Activation)               (None, 55, 55, 256)  0           add_50[0][0]
__________________________________________________________________________________________________
res2c_branch2a (FrozenConv2D)   (None, 55, 55, 32)   8224        ee2b[0][0]
__________________________________________________________________________________________________
bn2c_branch2a (BatchNormalizati (None, 55, 55, 32)   128         res2c_branch2a[0][0]
__________________________________________________________________________________________________
activation_145 (Activation)     (None, 55, 55, 32)   0           bn2c_branch2a[0][0]
__________________________________________________________________________________________________
res2c_branch2b (FrozenConv2D)   (None, 55, 55, 32)   9248        activation_145[0][0]
__________________________________________________________________________________________________
bn2c_branch2b (BatchNormalizati (None, 55, 55, 32)   128         res2c_branch2b[0][0]
__________________________________________________________________________________________________
activation_146 (Activation)     (None, 55, 55, 32)   0           bn2c_branch2b[0][0]
__________________________________________________________________________________________________
res2c_branch2c (FrozenConv2D)   (None, 55, 55, 256)  8448        activation_146[0][0]
__________________________________________________________________________________________________
bn2c_branch2c (BatchNormalizati (None, 55, 55, 256)  1024        res2c_branch2c[0][0]
__________________________________________________________________________________________________
add_51 (Add)                    (None, 55, 55, 256)  0           bn2c_branch2c[0][0]
                                                                 ee2b[0][0]
__________________________________________________________________________________________________
ee2c (Activation)               (None, 55, 55, 256)  0           add_51[0][0]
__________________________________________________________________________________________________
res3a_branch2a (FrozenConv2D)   (None, 28, 28, 32)   8224        ee2c[0][0]
__________________________________________________________________________________________________
bn3a_branch2a (BatchNormalizati (None, 28, 28, 32)   128         res3a_branch2a[0][0]
__________________________________________________________________________________________________
activation_147 (Activation)     (None, 28, 28, 32)   0           bn3a_branch2a[0][0]
__________________________________________________________________________________________________
res3a_branch2b (FrozenConv2D)   (None, 28, 28, 32)   9248        activation_147[0][0]
__________________________________________________________________________________________________
bn3a_branch2b (BatchNormalizati (None, 28, 28, 32)   128         res3a_branch2b[0][0]
__________________________________________________________________________________________________
activation_148 (Activation)     (None, 28, 28, 32)   0           bn3a_branch2b[0][0]
__________________________________________________________________________________________________
res3a_branch2c (FrozenConv2D)   (None, 28, 28, 512)  16896       activation_148[0][0]
__________________________________________________________________________________________________
res3a_branch1 (FrozenConv2D)    (None, 28, 28, 512)  131584      ee2c[0][0]
__________________________________________________________________________________________________
bn3a_branch2c (BatchNormalizati (None, 28, 28, 512)  2048        res3a_branch2c[0][0]
__________________________________________________________________________________________________
bn3a_branch1 (BatchNormalizatio (None, 28, 28, 512)  2048        res3a_branch1[0][0]
__________________________________________________________________________________________________
add_52 (Add)                    (None, 28, 28, 512)  0           bn3a_branch2c[0][0]
                                                                 bn3a_branch1[0][0]
__________________________________________________________________________________________________
activation_149 (Activation)     (None, 28, 28, 512)  0           add_52[0][0]
__________________________________________________________________________________________________
res3b_branch2a (FrozenConv2D)   (None, 28, 28, 32)   16416       activation_149[0][0]
__________________________________________________________________________________________________
bn3b_branch2a (BatchNormalizati (None, 28, 28, 32)   128         res3b_branch2a[0][0]
__________________________________________________________________________________________________
activation_150 (Activation)     (None, 28, 28, 32)   0           bn3b_branch2a[0][0]
__________________________________________________________________________________________________
res3b_branch2b (FrozenConv2D)   (None, 28, 28, 32)   9248        activation_150[0][0]
__________________________________________________________________________________________________
bn3b_branch2b (BatchNormalizati (None, 28, 28, 32)   128         res3b_branch2b[0][0]
__________________________________________________________________________________________________
activation_151 (Activation)     (None, 28, 28, 32)   0           bn3b_branch2b[0][0]
__________________________________________________________________________________________________
res3b_branch2c (FrozenConv2D)   (None, 28, 28, 512)  16896       activation_151[0][0]
__________________________________________________________________________________________________
bn3b_branch2c (BatchNormalizati (None, 28, 28, 512)  2048        res3b_branch2c[0][0]
__________________________________________________________________________________________________
add_53 (Add)                    (None, 28, 28, 512)  0           bn3b_branch2c[0][0]
                                                                 activation_149[0][0]
__________________________________________________________________________________________________
ee3b (Activation)               (None, 28, 28, 512)  0           add_53[0][0]
__________________________________________________________________________________________________
res3c_branch2a (FrozenConv2D)   (None, 28, 28, 32)   16416       ee3b[0][0]
__________________________________________________________________________________________________
bn3c_branch2a (BatchNormalizati (None, 28, 28, 32)   128         res3c_branch2a[0][0]
__________________________________________________________________________________________________
activation_152 (Activation)     (None, 28, 28, 32)   0           bn3c_branch2a[0][0]
__________________________________________________________________________________________________
res3c_branch2b (FrozenConv2D)   (None, 28, 28, 32)   9248        activation_152[0][0]
__________________________________________________________________________________________________
bn3c_branch2b (BatchNormalizati (None, 28, 28, 32)   128         res3c_branch2b[0][0]
__________________________________________________________________________________________________
activation_153 (Activation)     (None, 28, 28, 32)   0           bn3c_branch2b[0][0]
__________________________________________________________________________________________________
res3c_branch2c (FrozenConv2D)   (None, 28, 28, 512)  16896       activation_153[0][0]
__________________________________________________________________________________________________
bn3c_branch2c (BatchNormalizati (None, 28, 28, 512)  2048        res3c_branch2c[0][0]
__________________________________________________________________________________________________
add_54 (Add)                    (None, 28, 28, 512)  0           bn3c_branch2c[0][0]
                                                                 ee3b[0][0]
__________________________________________________________________________________________________
ee3c (Activation)               (None, 28, 28, 512)  0           add_54[0][0]
__________________________________________________________________________________________________
res3d_branch2a (FrozenConv2D)   (None, 28, 28, 32)   16416       ee3c[0][0]
__________________________________________________________________________________________________
bn3d_branch2a (BatchNormalizati (None, 28, 28, 32)   128         res3d_branch2a[0][0]
__________________________________________________________________________________________________
activation_154 (Activation)     (None, 28, 28, 32)   0           bn3d_branch2a[0][0]
__________________________________________________________________________________________________
res3d_branch2b (FrozenConv2D)   (None, 28, 28, 32)   9248        activation_154[0][0]
__________________________________________________________________________________________________
bn3d_branch2b (BatchNormalizati (None, 28, 28, 32)   128         res3d_branch2b[0][0]
__________________________________________________________________________________________________
activation_155 (Activation)     (None, 28, 28, 32)   0           bn3d_branch2b[0][0]
__________________________________________________________________________________________________
res3d_branch2c (FrozenConv2D)   (None, 28, 28, 512)  16896       activation_155[0][0]
__________________________________________________________________________________________________
bn3d_branch2c (BatchNormalizati (None, 28, 28, 512)  2048        res3d_branch2c[0][0]
__________________________________________________________________________________________________
add_55 (Add)                    (None, 28, 28, 512)  0           bn3d_branch2c[0][0]
                                                                 ee3c[0][0]
__________________________________________________________________________________________________
ee3d (Activation)               (None, 28, 28, 512)  0           add_55[0][0]
__________________________________________________________________________________________________
res4a_branch2a (FrozenConv2D)   (None, 14, 14, 64)   32832       ee3d[0][0]
__________________________________________________________________________________________________
bn4a_branch2a (BatchNormalizati (None, 14, 14, 64)   256         res4a_branch2a[0][0]
__________________________________________________________________________________________________
activation_156 (Activation)     (None, 14, 14, 64)   0           bn4a_branch2a[0][0]
__________________________________________________________________________________________________
res4a_branch2b (FrozenConv2D)   (None, 14, 14, 64)   36928       activation_156[0][0]
__________________________________________________________________________________________________
bn4a_branch2b (BatchNormalizati (None, 14, 14, 64)   256         res4a_branch2b[0][0]
__________________________________________________________________________________________________
activation_157 (Activation)     (None, 14, 14, 64)   0           bn4a_branch2b[0][0]
__________________________________________________________________________________________________
res4a_branch2c (FrozenConv2D)   (None, 14, 14, 512)  33280       activation_157[0][0]
__________________________________________________________________________________________________
res4a_branch1 (FrozenConv2D)    (None, 14, 14, 512)  262656      ee3d[0][0]
__________________________________________________________________________________________________
bn4a_branch2c (BatchNormalizati (None, 14, 14, 512)  2048        res4a_branch2c[0][0]
__________________________________________________________________________________________________
bn4a_branch1 (BatchNormalizatio (None, 14, 14, 512)  2048        res4a_branch1[0][0]
__________________________________________________________________________________________________
add_56 (Add)                    (None, 14, 14, 512)  0           bn4a_branch2c[0][0]
                                                                 bn4a_branch1[0][0]
__________________________________________________________________________________________________
activation_158 (Activation)     (None, 14, 14, 512)  0           add_56[0][0]
__________________________________________________________________________________________________
res4b_branch2a (FrozenConv2D)   (None, 14, 14, 64)   32832       activation_158[0][0]
__________________________________________________________________________________________________
bn4b_branch2a (BatchNormalizati (None, 14, 14, 64)   256         res4b_branch2a[0][0]
__________________________________________________________________________________________________
activation_159 (Activation)     (None, 14, 14, 64)   0           bn4b_branch2a[0][0]
__________________________________________________________________________________________________
res4b_branch2b (FrozenConv2D)   (None, 14, 14, 64)   36928       activation_159[0][0]
__________________________________________________________________________________________________
bn4b_branch2b (BatchNormalizati (None, 14, 14, 64)   256         res4b_branch2b[0][0]
__________________________________________________________________________________________________
activation_160 (Activation)     (None, 14, 14, 64)   0           bn4b_branch2b[0][0]
__________________________________________________________________________________________________
res4b_branch2c (FrozenConv2D)   (None, 14, 14, 512)  33280       activation_160[0][0]
__________________________________________________________________________________________________
bn4b_branch2c (BatchNormalizati (None, 14, 14, 512)  2048        res4b_branch2c[0][0]
__________________________________________________________________________________________________
add_57 (Add)                    (None, 14, 14, 512)  0           bn4b_branch2c[0][0]
                                                                 activation_158[0][0]
__________________________________________________________________________________________________
ee4b (Activation)               (None, 14, 14, 512)  0           add_57[0][0]
__________________________________________________________________________________________________
res4c_branch2a (FrozenConv2D)   (None, 14, 14, 64)   32832       ee4b[0][0]
__________________________________________________________________________________________________
bn4c_branch2a (BatchNormalizati (None, 14, 14, 64)   256         res4c_branch2a[0][0]
__________________________________________________________________________________________________
activation_161 (Activation)     (None, 14, 14, 64)   0           bn4c_branch2a[0][0]
__________________________________________________________________________________________________
res4c_branch2b (FrozenConv2D)   (None, 14, 14, 64)   36928       activation_161[0][0]
__________________________________________________________________________________________________
bn4c_branch2b (BatchNormalizati (None, 14, 14, 64)   256         res4c_branch2b[0][0]
__________________________________________________________________________________________________
activation_162 (Activation)     (None, 14, 14, 64)   0           bn4c_branch2b[0][0]
__________________________________________________________________________________________________
res4c_branch2c (FrozenConv2D)   (None, 14, 14, 512)  33280       activation_162[0][0]
__________________________________________________________________________________________________
bn4c_branch2c (BatchNormalizati (None, 14, 14, 512)  2048        res4c_branch2c[0][0]
__________________________________________________________________________________________________
add_58 (Add)                    (None, 14, 14, 512)  0           bn4c_branch2c[0][0]
                                                                 ee4b[0][0]
__________________________________________________________________________________________________
ee4c (Activation)               (None, 14, 14, 512)  0           add_58[0][0]
__________________________________________________________________________________________________
res4d_branch2a (FrozenConv2D)   (None, 14, 14, 64)   32832       ee4c[0][0]
__________________________________________________________________________________________________
bn4d_branch2a (BatchNormalizati (None, 14, 14, 64)   256         res4d_branch2a[0][0]
__________________________________________________________________________________________________
activation_163 (Activation)     (None, 14, 14, 64)   0           bn4d_branch2a[0][0]
__________________________________________________________________________________________________
res4d_branch2b (FrozenConv2D)   (None, 14, 14, 64)   36928       activation_163[0][0]
__________________________________________________________________________________________________
bn4d_branch2b (BatchNormalizati (None, 14, 14, 64)   256         res4d_branch2b[0][0]
__________________________________________________________________________________________________
activation_164 (Activation)     (None, 14, 14, 64)   0           bn4d_branch2b[0][0]
__________________________________________________________________________________________________
res4d_branch2c (FrozenConv2D)   (None, 14, 14, 512)  33280       activation_164[0][0]
__________________________________________________________________________________________________
bn4d_branch2c (BatchNormalizati (None, 14, 14, 512)  2048        res4d_branch2c[0][0]
__________________________________________________________________________________________________
add_59 (Add)                    (None, 14, 14, 512)  0           bn4d_branch2c[0][0]
                                                                 ee4c[0][0]
__________________________________________________________________________________________________
ee4d (Activation)               (None, 14, 14, 512)  0           add_59[0][0]
__________________________________________________________________________________________________
res4e_branch2a (FrozenConv2D)   (None, 14, 14, 64)   32832       ee4d[0][0]
__________________________________________________________________________________________________
bn4e_branch2a (BatchNormalizati (None, 14, 14, 64)   256         res4e_branch2a[0][0]
__________________________________________________________________________________________________
activation_165 (Activation)     (None, 14, 14, 64)   0           bn4e_branch2a[0][0]
__________________________________________________________________________________________________
res4e_branch2b (FrozenConv2D)   (None, 14, 14, 64)   36928       activation_165[0][0]
__________________________________________________________________________________________________
bn4e_branch2b (BatchNormalizati (None, 14, 14, 64)   256         res4e_branch2b[0][0]
__________________________________________________________________________________________________
activation_166 (Activation)     (None, 14, 14, 64)   0           bn4e_branch2b[0][0]
__________________________________________________________________________________________________
res4e_branch2c (FrozenConv2D)   (None, 14, 14, 512)  33280       activation_166[0][0]
__________________________________________________________________________________________________
bn4e_branch2c (BatchNormalizati (None, 14, 14, 512)  2048        res4e_branch2c[0][0]
__________________________________________________________________________________________________
add_60 (Add)                    (None, 14, 14, 512)  0           bn4e_branch2c[0][0]
                                                                 ee4d[0][0]
__________________________________________________________________________________________________
ee4e (Activation)               (None, 14, 14, 512)  0           add_60[0][0]
__________________________________________________________________________________________________
res4f_branch2a (FrozenConv2D)   (None, 14, 14, 64)   32832       ee4e[0][0]
__________________________________________________________________________________________________
bn4f_branch2a (BatchNormalizati (None, 14, 14, 64)   256         res4f_branch2a[0][0]
__________________________________________________________________________________________________
activation_167 (Activation)     (None, 14, 14, 64)   0           bn4f_branch2a[0][0]
__________________________________________________________________________________________________
res4f_branch2b (FrozenConv2D)   (None, 14, 14, 64)   36928       activation_167[0][0]
__________________________________________________________________________________________________
bn4f_branch2b (BatchNormalizati (None, 14, 14, 64)   256         res4f_branch2b[0][0]
__________________________________________________________________________________________________
activation_168 (Activation)     (None, 14, 14, 64)   0           bn4f_branch2b[0][0]
__________________________________________________________________________________________________
res4f_branch2c (FrozenConv2D)   (None, 14, 14, 512)  33280       activation_168[0][0]
__________________________________________________________________________________________________
bn4f_branch2c (BatchNormalizati (None, 14, 14, 512)  2048        res4f_branch2c[0][0]
__________________________________________________________________________________________________
add_61 (Add)                    (None, 14, 14, 512)  0           bn4f_branch2c[0][0]
                                                                 ee4e[0][0]
__________________________________________________________________________________________________
ee4f (Activation)               (None, 14, 14, 512)  0           add_61[0][0]
__________________________________________________________________________________________________
res5a_branch2a (FrozenConv2D)   (None, 7, 7, 128)    65664       ee4f[0][0]
__________________________________________________________________________________________________
bn5a_branch2a (BatchNormalizati (None, 7, 7, 128)    512         res5a_branch2a[0][0]
__________________________________________________________________________________________________
activation_169 (Activation)     (None, 7, 7, 128)    0           bn5a_branch2a[0][0]
__________________________________________________________________________________________________
res5a_branch2b (FrozenConv2D)   (None, 7, 7, 128)    147584      activation_169[0][0]
__________________________________________________________________________________________________
bn5a_branch2b (BatchNormalizati (None, 7, 7, 128)    512         res5a_branch2b[0][0]
__________________________________________________________________________________________________
…
__________________________________________________________________________________________________
ee5b (Activation)               (None, 7, 7, 1024)   0           add_63[0][0]
__________________________________________________________________________________________________
res5c_branch2a (FrozenConv2D)   (None, 7, 7, 128)    131200      ee5b[0][0]
__________________________________________________________________________________________________
bn5c_branch2a (BatchNormalizati (None, 7, 7, 128)    512         res5c_branch2a[0][0]
__________________________________________________________________________________________________
depthwise_conv2d_10 (DepthwiseC (None, 55, 55, 256)  2304        ee2c[0][0]
__________________________________________________________________________________________________
depthwise_conv2d_11 (DepthwiseC (None, 28, 28, 512)  4608        ee3d[0][0]
__________________________________________________________________________________________________
depthwise_conv2d_12 (DepthwiseC (None, 14, 14, 512)  4608        ee4f[0][0]
__________________________________________________________________________________________________
activation_174 (Activation)     (None, 7, 7, 128)    0           bn5c_branch2a[0][0]
__________________________________________________________________________________________________
batch_normalization_19 (BatchNo (None, 55, 55, 256)  1024        depthwise_conv2d_10[0][0]
__________________________________________________________________________________________________
batch_normalization_21 (BatchNo (None, 28, 28, 512)  2048        depthwise_conv2d_11[0][0]
__________________________________________________________________________________________________
batch_normalization_23 (BatchNo (None, 14, 14, 512)  2048        depthwise_conv2d_12[0][0]
__________________________________________________________________________________________________
res5c_branch2b (FrozenConv2D)   (None, 7, 7, 128)    147584      activation_174[0][0]
__________________________________________________________________________________________________
activation_176 (Activation)     (None, 55, 55, 256)  0           batch_normalization_19[0][0]
__________________________________________________________________________________________________
activation_179 (Activation)     (None, 28, 28, 512)  0           batch_normalization_21[0][0]
__________________________________________________________________________________________________
activation_182 (Activation)     (None, 14, 14, 512)  0           batch_normalization_23[0][0]
__________________________________________________________________________________________________
bn5c_branch2b (BatchNormalizati (None, 7, 7, 128)    512         res5c_branch2b[0][0]
__________________________________________________________________________________________________
conv2d_19 (Conv2D)              (None, 55, 55, 256)  65536       activation_176[0][0]
__________________________________________________________________________________________________
conv2d_21 (Conv2D)              (None, 28, 28, 256)  131072      activation_179[0][0]
__________________________________________________________________________________________________
conv2d_23 (Conv2D)              (None, 14, 14, 256)  131072      activation_182[0][0]
__________________________________________________________________________________________________
activation_175 (Activation)     (None, 7, 7, 128)    0           bn5c_branch2b[0][0]
__________________________________________________________________________________________________
batch_normalization_20 (BatchNo (None, 55, 55, 256)  1024        conv2d_19[0][0]
__________________________________________________________________________________________________
batch_normalization_22 (BatchNo (None, 28, 28, 256)  1024        conv2d_21[0][0]
__________________________________________________________________________________________________
batch_normalization_24 (BatchNo (None, 14, 14, 256)  1024        conv2d_23[0][0]
__________________________________________________________________________________________________
res5c_branch2c (FrozenConv2D)   (None, 7, 7, 1024)   132096      activation_175[0][0]
__________________________________________________________________________________________________
activation_177 (Activation)     (None, 55, 55, 256)  0           batch_normalization_20[0][0]
__________________________________________________________________________________________________
activation_180 (Activation)     (None, 28, 28, 256)  0           batch_normalization_22[0][0]
__________________________________________________________________________________________________
activation_183 (Activation)     (None, 14, 14, 256)  0           batch_normalization_24[0][0]
__________________________________________________________________________________________________
bn5c_branch2c (BatchNormalizati (None, 7, 7, 1024)   4096        res5c_branch2c[0][0]
__________________________________________________________________________________________________
global_average_pooling2d_10 (Gl (None, 256)          0           activation_177[0][0]
__________________________________________________________________________________________________
global_average_pooling2d_11 (Gl (None, 256)          0           activation_180[0][0]
__________________________________________________________________________________________________
global_average_pooling2d_12 (Gl (None, 256)          0           activation_183[0][0]
__________________________________________________________________________________________________
add_64 (Add)                    (None, 7, 7, 1024)   0           bn5c_branch2c[0][0]
                                                                 ee5b[0][0]
__________________________________________________________________________________________________
reshape_10 (Reshape)            (None, 1, 1, 256)    0           global_average_pooling2d_10[0][0]
__________________________________________________________________________________________________
reshape_11 (Reshape)            (None, 1, 1, 256)    0           global_average_pooling2d_11[0][0]
__________________________________________________________________________________________________
reshape_12 (Reshape)            (None, 1, 1, 256)    0           global_average_pooling2d_12[0][0]
__________________________________________________________________________________________________
ee5c (Activation)               (None, 7, 7, 1024)   0           add_64[0][0]
__________________________________________________________________________________________________
conv2d_20 (Conv2D)              (None, 1, 1, 10)     2570        reshape_10[0][0]
__________________________________________________________________________________________________
conv2d_22 (Conv2D)              (None, 1, 1, 10)     2570        reshape_11[0][0]
__________________________________________________________________________________________________
conv2d_24 (Conv2D)              (None, 1, 1, 10)     2570        reshape_12[0][0]
__________________________________________________________________________________________________
avg_pool (AveragePooling2D)     (None, 1, 1, 1024)   0           ee5c[0][0]
__________________________________________________________________________________________________
activation_178 (Activation)     (None, 1, 1, 10)     0           conv2d_20[0][0]
__________________________________________________________________________________________________
activation_181 (Activation)     (None, 1, 1, 10)     0           conv2d_22[0][0]
__________________________________________________________________________________________________
activation_184 (Activation)     (None, 1, 1, 10)     0           conv2d_24[0][0]
__________________________________________________________________________________________________
flatten_4 (Flatten)             (None, 1024)         0           avg_pool[0][0]
__________________________________________________________________________________________________
ee2c_output (Reshape)           (None, 10)           0           activation_178[0][0]
__________________________________________________________________________________________________
ee3d_output (Reshape)           (None, 10)           0           activation_181[0][0]
__________________________________________________________________________________________________
ee4f_output (Reshape)           (None, 10)           0           activation_184[0][0]
__________________________________________________________________________________________________
fc1000 (FrozenDense)            (None, 10)           10250       flatten_4[0][0]
==================================================================================================
Total params: 3,383,272
Trainable params: 351,006
Non-trainable params: 3,032,266
__________________________________________________________________________________________________
Epoch 1/40
780/781 [============================>.] - ETA: 0s - loss: 4.8417 - ee2c_output_loss: 1.8301 - ee3d_output_loss: 1.6465 - ee4f_output_loss: 1.2419 - fc1000_loss: 0.1232 - ee2c_output_acc: 0.3664 - ee3d_output_acc: 0.4464 - ee4f_output_acc: 0.6238 - fc1000_acc: 0.9560Epoch 00001: saving model to ./resnet/ee_results/50_1/50.h5
…
oss: 0.4736 - val_fc1000_loss: 0.3716 - val_ee2c_output_acc: 0.6365 - val_ee3d_output_acc: 0.7202 - val_ee4f_output_acc: 0.8363 - val_fc1000_acc: 0.8965
Evaluating top output of 80
[0.44157235152446306, 0.90324519230769229]
Training ee of 80
freezing original model...
creating early exit...
__________________________________________________________________________________________________
Layer (type)                    Output Shape         Param #     Connected to
==================================================================================================
input_5 (InputLayer)            (None, 224, 224, 3)  0
__________________________________________________________________________________________________
conv1 (FrozenConv2D)            (None, 112, 112, 64) 9472        input_5[0][0]
__________________________________________________________________________________________________
bn_conv1 (BatchNormalization)   (None, 112, 112, 64) 256         conv1[0][0]
__________________________________________________________________________________________________
activation_185 (Activation)     (None, 112, 112, 64) 0           bn_conv1[0][0]
__________________________________________________________________________________________________
max_pooling2d_5 (MaxPooling2D)  (None, 55, 55, 64)   0           activation_185[0][0]
__________________________________________________________________________________________________
res2a_branch2a (FrozenConv2D)   (None, 55, 55, 32)   2080        max_pooling2d_5[0][0]
__________________________________________________________________________________________________
bn2a_branch2a (BatchNormalizati (None, 55, 55, 32)   128         res2a_branch2a[0][0]
__________________________________________________________________________________________________
activation_186 (Activation)     (None, 55, 55, 32)   0           bn2a_branch2a[0][0]
__________________________________________________________________________________________________
res2a_branch2b (FrozenConv2D)   (None, 55, 55, 32)   9248        activation_186[0][0]
__________________________________________________________________________________________________
bn2a_branch2b (BatchNormalizati (None, 55, 55, 32)   128         res2a_branch2b[0][0]
__________________________________________________________________________________________________
activation_187 (Activation)     (None, 55, 55, 32)   0           bn2a_branch2b[0][0]
__________________________________________________________________________________________________
res2a_branch2c (FrozenConv2D)   (None, 55, 55, 256)  8448        activation_187[0][0]
__________________________________________________________________________________________________
res2a_branch1 (FrozenConv2D)    (None, 55, 55, 256)  16640       max_pooling2d_5[0][0]
__________________________________________________________________________________________________
bn2a_branch2c (BatchNormalizati (None, 55, 55, 256)  1024        res2a_branch2c[0][0]
__________________________________________________________________________________________________
bn2a_branch1 (BatchNormalizatio (None, 55, 55, 256)  1024        res2a_branch1[0][0]
__________________________________________________________________________________________________
add_65 (Add)                    (None, 55, 55, 256)  0           bn2a_branch2c[0][0]
                                                                 bn2a_branch1[0][0]
__________________________________________________________________________________________________
activation_188 (Activation)     (None, 55, 55, 256)  0           add_65[0][0]
__________________________________________________________________________________________________
res2b_branch2a (FrozenConv2D)   (None, 55, 55, 32)   8224        activation_188[0][0]
__________________________________________________________________________________________________
bn2b_branch2a (BatchNormalizati (None, 55, 55, 32)   128         res2b_branch2a[0][0]
__________________________________________________________________________________________________
activation_189 (Activation)     (None, 55, 55, 32)   0           bn2b_branch2a[0][0]
__________________________________________________________________________________________________
res2b_branch2b (FrozenConv2D)   (None, 55, 55, 32)   9248        activation_189[0][0]
__________________________________________________________________________________________________
bn2b_branch2b (BatchNormalizati (None, 55, 55, 32)   128         res2b_branch2b[0][0]
__________________________________________________________________________________________________
activation_190 (Activation)     (None, 55, 55, 32)   0           bn2b_branch2b[0][0]
__________________________________________________________________________________________________
res2b_branch2c (FrozenConv2D)   (None, 55, 55, 256)  8448        activation_190[0][0]
__________________________________________________________________________________________________
bn2b_branch2c (BatchNormalizati (None, 55, 55, 256)  1024        res2b_branch2c[0][0]
__________________________________________________________________________________________________
add_66 (Add)                    (None, 55, 55, 256)  0           bn2b_branch2c[0][0]
                                                                 activation_188[0][0]
__________________________________________________________________________________________________
ee2b (Activation)               (None, 55, 55, 256)  0           add_66[0][0]
__________________________________________________________________________________________________
res2c_branch2a (FrozenConv2D)   (None, 55, 55, 32)   8224        ee2b[0][0]
__________________________________________________________________________________________________
bn2c_branch2a (BatchNormalizati (None, 55, 55, 32)   128         res2c_branch2a[0][0]
__________________________________________________________________________________________________
activation_191 (Activation)     (None, 55, 55, 32)   0           bn2c_branch2a[0][0]
__________________________________________________________________________________________________
res2c_branch2b (FrozenConv2D)   (None, 55, 55, 32)   9248        activation_191[0][0]
__________________________________________________________________________________________________
bn2c_branch2b (BatchNormalizati (None, 55, 55, 32)   128         res2c_branch2b[0][0]
__________________________________________________________________________________________________
activation_192 (Activation)     (None, 55, 55, 32)   0           bn2c_branch2b[0][0]
__________________________________________________________________________________________________
res2c_branch2c (FrozenConv2D)   (None, 55, 55, 256)  8448        activation_192[0][0]
__________________________________________________________________________________________________
bn2c_branch2c (BatchNormalizati (None, 55, 55, 256)  1024        res2c_branch2c[0][0]
__________________________________________________________________________________________________
add_67 (Add)                    (None, 55, 55, 256)  0           bn2c_branch2c[0][0]
                                                                 ee2b[0][0]
__________________________________________________________________________________________________
ee2c (Activation)               (None, 55, 55, 256)  0           add_67[0][0]
__________________________________________________________________________________________________
res3a_branch2a (FrozenConv2D)   (None, 28, 28, 64)   16448       ee2c[0][0]
__________________________________________________________________________________________________
bn3a_branch2a (BatchNormalizati (None, 28, 28, 64)   256         res3a_branch2a[0][0]
__________________________________________________________________________________________________
activation_193 (Activation)     (None, 28, 28, 64)   0           bn3a_branch2a[0][0]
__________________________________________________________________________________________________
res3a_branch2b (FrozenConv2D)   (None, 28, 28, 64)   36928       activation_193[0][0]
__________________________________________________________________________________________________
bn3a_branch2b (BatchNormalizati (None, 28, 28, 64)   256         res3a_branch2b[0][0]
__________________________________________________________________________________________________
activation_194 (Activation)     (None, 28, 28, 64)   0           bn3a_branch2b[0][0]
__________________________________________________________________________________________________
res3a_branch2c (FrozenConv2D)   (None, 28, 28, 512)  33280       activation_194[0][0]
__________________________________________________________________________________________________
res3a_branch1 (FrozenConv2D)    (None, 28, 28, 512)  131584      ee2c[0][0]
__________________________________________________________________________________________________
bn3a_branch2c (BatchNormalizati (None, 28, 28, 512)  2048        res3a_branch2c[0][0]
__________________________________________________________________________________________________
bn3a_branch1 (BatchNormalizatio (None, 28, 28, 512)  2048        res3a_branch1[0][0]
__________________________________________________________________________________________________
add_68 (Add)                    (None, 28, 28, 512)  0           bn3a_branch2c[0][0]
                                                                 bn3a_branch1[0][0]
__________________________________________________________________________________________________
activation_195 (Activation)     (None, 28, 28, 512)  0           add_68[0][0]
__________________________________________________________________________________________________
res3b_branch2a (FrozenConv2D)   (None, 28, 28, 64)   32832       activation_195[0][0]
__________________________________________________________________________________________________
bn3b_branch2a (BatchNormalizati (None, 28, 28, 64)   256         res3b_branch2a[0][0]
__________________________________________________________________________________________________
activation_196 (Activation)     (None, 28, 28, 64)   0           bn3b_branch2a[0][0]
__________________________________________________________________________________________________
res3b_branch2b (FrozenConv2D)   (None, 28, 28, 64)   36928       activation_196[0][0]
__________________________________________________________________________________________________
bn3b_branch2b (BatchNormalizati (None, 28, 28, 64)   256         res3b_branch2b[0][0]
__________________________________________________________________________________________________
activation_197 (Activation)     (None, 28, 28, 64)   0           bn3b_branch2b[0][0]
__________________________________________________________________________________________________
res3b_branch2c (FrozenConv2D)   (None, 28, 28, 512)  33280       activation_197[0][0]
__________________________________________________________________________________________________
bn3b_branch2c (BatchNormalizati (None, 28, 28, 512)  2048        res3b_branch2c[0][0]
__________________________________________________________________________________________________
add_69 (Add)                    (None, 28, 28, 512)  0           bn3b_branch2c[0][0]
                                                                 activation_195[0][0]
__________________________________________________________________________________________________
ee3b (Activation)               (None, 28, 28, 512)  0           add_69[0][0]
__________________________________________________________________________________________________
res3c_branch2a (FrozenConv2D)   (None, 28, 28, 64)   32832       ee3b[0][0]
__________________________________________________________________________________________________
bn3c_branch2a (BatchNormalizati (None, 28, 28, 64)   256         res3c_branch2a[0][0]
__________________________________________________________________________________________________
activation_198 (Activation)     (None, 28, 28, 64)   0           bn3c_branch2a[0][0]
__________________________________________________________________________________________________
res3c_branch2b (FrozenConv2D)   (None, 28, 28, 64)   36928       activation_198[0][0]
__________________________________________________________________________________________________
bn3c_branch2b (BatchNormalizati (None, 28, 28, 64)   256         res3c_branch2b[0][0]
__________________________________________________________________________________________________
activation_199 (Activation)     (None, 28, 28, 64)   0           bn3c_branch2b[0][0]
__________________________________________________________________________________________________
res3c_branch2c (FrozenConv2D)   (None, 28, 28, 512)  33280       activation_199[0][0]
__________________________________________________________________________________________________
bn3c_branch2c (BatchNormalizati (None, 28, 28, 512)  2048        res3c_branch2c[0][0]
__________________________________________________________________________________________________
add_70 (Add)                    (None, 28, 28, 512)  0           bn3c_branch2c[0][0]
                                                                 ee3b[0][0]
__________________________________________________________________________________________________
ee3c (Activation)               (None, 28, 28, 512)  0           add_70[0][0]
__________________________________________________________________________________________________
res3d_branch2a (FrozenConv2D)   (None, 28, 28, 64)   32832       ee3c[0][0]
__________________________________________________________________________________________________
bn3d_branch2a (BatchNormalizati (None, 28, 28, 64)   256         res3d_branch2a[0][0]
__________________________________________________________________________________________________
activation_200 (Activation)     (None, 28, 28, 64)   0           bn3d_branch2a[0][0]
__________________________________________________________________________________________________
res3d_branch2b (FrozenConv2D)   (None, 28, 28, 64)   36928       activation_200[0][0]
__________________________________________________________________________________________________
bn3d_branch2b (BatchNormalizati (None, 28, 28, 64)   256         res3d_branch2b[0][0]
__________________________________________________________________________________________________
activation_201 (Activation)     (None, 28, 28, 64)   0           bn3d_branch2b[0][0]
__________________________________________________________________________________________________
res3d_branch2c (FrozenConv2D)   (None, 28, 28, 512)  33280       activation_201[0][0]
__________________________________________________________________________________________________
bn3d_branch2c (BatchNormalizati (None, 28, 28, 512)  2048        res3d_branch2c[0][0]
__________________________________________________________________________________________________
add_71 (Add)                    (None, 28, 28, 512)  0           bn3d_branch2c[0][0]
                                                                 ee3c[0][0]
__________________________________________________________________________________________________
ee3d (Activation)               (None, 28, 28, 512)  0           add_71[0][0]
__________________________________________________________________________________________________
res4a_branch2a (FrozenConv2D)   (None, 14, 14, 128)  65664       ee3d[0][0]
__________________________________________________________________________________________________
bn4a_branch2a (BatchNormalizati (None, 14, 14, 128)  512         res4a_branch2a[0][0]
__________________________________________________________________________________________________
activation_202 (Activation)     (None, 14, 14, 128)  0           bn4a_branch2a[0][0]
__________________________________________________________________________________________________
res4a_branch2b (FrozenConv2D)   (None, 14, 14, 128)  147584      activation_202[0][0]
__________________________________________________________________________________________________
bn4a_branch2b (BatchNormalizati (None, 14, 14, 128)  512         res4a_branch2b[0][0]
__________________________________________________________________________________________________
activation_203 (Activation)     (None, 14, 14, 128)  0           bn4a_branch2b[0][0]
__________________________________________________________________________________________________
res4a_branch2c (FrozenConv2D)   (None, 14, 14, 1024) 132096      activation_203[0][0]
__________________________________________________________________________________________________
res4a_branch1 (FrozenConv2D)    (None, 14, 14, 1024) 525312      ee3d[0][0]
__________________________________________________________________________________________________
bn4a_branch2c (BatchNormalizati (None, 14, 14, 1024) 4096        res4a_branch2c[0][0]
__________________________________________________________________________________________________
bn4a_branch1 (BatchNormalizatio (None, 14, 14, 1024) 4096        res4a_branch1[0][0]
__________________________________________________________________________________________________
add_72 (Add)                    (None, 14, 14, 1024) 0           bn4a_branch2c[0][0]
                                                                 bn4a_branch1[0][0]
__________________________________________________________________________________________________
activation_204 (Activation)     (None, 14, 14, 1024) 0           add_72[0][0]
__________________________________________________________________________________________________
res4b_branch2a (FrozenConv2D)   (None, 14, 14, 128)  131200      activation_204[0][0]
__________________________________________________________________________________________________
bn4b_branch2a (BatchNormalizati (None, 14, 14, 128)  512         res4b_branch2a[0][0]
__________________________________________________________________________________________________
activation_205 (Activation)     (None, 14, 14, 128)  0           bn4b_branch2a[0][0]
__________________________________________________________________________________________________
res4b_branch2b (FrozenConv2D)   (None, 14, 14, 128)  147584      activation_205[0][0]
__________________________________________________________________________________________________
bn4b_branch2b (BatchNormalizati (None, 14, 14, 128)  512         res4b_branch2b[0][0]
__________________________________________________________________________________________________
activation_206 (Activation)     (None, 14, 14, 128)  0           bn4b_branch2b[0][0]
__________________________________________________________________________________________________
res4b_branch2c (FrozenConv2D)   (None, 14, 14, 1024) 132096      activation_206[0][0]
__________________________________________________________________________________________________
bn4b_branch2c (BatchNormalizati (None, 14, 14, 1024) 4096        res4b_branch2c[0][0]
__________________________________________________________________________________________________
add_73 (Add)                    (None, 14, 14, 1024) 0           bn4b_branch2c[0][0]
                                                                 activation_204[0][0]
__________________________________________________________________________________________________
ee4b (Activation)               (None, 14, 14, 1024) 0           add_73[0][0]
__________________________________________________________________________________________________
res4c_branch2a (FrozenConv2D)   (None, 14, 14, 128)  131200      ee4b[0][0]
__________________________________________________________________________________________________
bn4c_branch2a (BatchNormalizati (None, 14, 14, 128)  512         res4c_branch2a[0][0]
__________________________________________________________________________________________________
activation_207 (Activation)     (None, 14, 14, 128)  0           bn4c_branch2a[0][0]
__________________________________________________________________________________________________
res4c_branch2b (FrozenConv2D)   (None, 14, 14, 128)  147584      activation_207[0][0]
__________________________________________________________________________________________________
bn4c_branch2b (BatchNormalizati (None, 14, 14, 128)  512         res4c_branch2b[0][0]
__________________________________________________________________________________________________
activation_208 (Activation)     (None, 14, 14, 128)  0           bn4c_branch2b[0][0]
__________________________________________________________________________________________________
res4c_branch2c (FrozenConv2D)   (None, 14, 14, 1024) 132096      activation_208[0][0]
__________________________________________________________________________________________________
bn4c_branch2c (BatchNormalizati (None, 14, 14, 1024) 4096        res4c_branch2c[0][0]
__________________________________________________________________________________________________
add_74 (Add)                    (None, 14, 14, 1024) 0           bn4c_branch2c[0][0]
                                                                 ee4b[0][0]
__________________________________________________________________________________________________
ee4c (Activation)               (None, 14, 14, 1024) 0           add_74[0][0]
__________________________________________________________________________________________________
res4d_branch2a (FrozenConv2D)   (None, 14, 14, 128)  131200      ee4c[0][0]
__________________________________________________________________________________________________
bn4d_branch2a (BatchNormalizati (None, 14, 14, 128)  512         res4d_branch2a[0][0]
__________________________________________________________________________________________________
activation_209 (Activation)     (None, 14, 14, 128)  0           bn4d_branch2a[0][0]
__________________________________________________________________________________________________
res4d_branch2b (FrozenConv2D)   (None, 14, 14, 128)  147584      activation_209[0][0]
__________________________________________________________________________________________________
bn4d_branch2b (BatchNormalizati (None, 14, 14, 128)  512         res4d_branch2b[0][0]
__________________________________________________________________________________________________
activation_210 (Activation)     (None, 14, 14, 128)  0           bn4d_branch2b[0][0]
__________________________________________________________________________________________________
res4d_branch2c (FrozenConv2D)   (None, 14, 14, 1024) 132096      activation_210[0][0]
__________________________________________________________________________________________________
bn4d_branch2c (BatchNormalizati (None, 14, 14, 1024) 4096        res4d_branch2c[0][0]
__________________________________________________________________________________________________
add_75 (Add)                    (None, 14, 14, 1024) 0           bn4d_branch2c[0][0]
                                                                 ee4c[0][0]
__________________________________________________________________________________________________
ee4d (Activation)               (None, 14, 14, 1024) 0           add_75[0][0]
__________________________________________________________________________________________________
res4e_branch2a (FrozenConv2D)   (None, 14, 14, 128)  131200      ee4d[0][0]
__________________________________________________________________________________________________
bn4e_branch2a (BatchNormalizati (None, 14, 14, 128)  512         res4e_branch2a[0][0]
__________________________________________________________________________________________________
activation_211 (Activation)     (None, 14, 14, 128)  0           bn4e_branch2a[0][0]
__________________________________________________________________________________________________
res4e_branch2b (FrozenConv2D)   (None, 14, 14, 128)  147584      activation_211[0][0]
__________________________________________________________________________________________________
bn4e_branch2b (BatchNormalizati (None, 14, 14, 128)  512         res4e_branch2b[0][0]
__________________________________________________________________________________________________
activation_212 (Activation)     (None, 14, 14, 128)  0           bn4e_branch2b[0][0]
__________________________________________________________________________________________________
res4e_branch2c (FrozenConv2D)   (None, 14, 14, 1024) 132096      activation_212[0][0]
__________________________________________________________________________________________________
bn4e_branch2c (BatchNormalizati (None, 14, 14, 1024) 4096        res4e_branch2c[0][0]
__________________________________________________________________________________________________
add_76 (Add)                    (None, 14, 14, 1024) 0           bn4e_branch2c[0][0]
                                                                 ee4d[0][0]
__________________________________________________________________________________________________
ee4e (Activation)               (None, 14, 14, 1024) 0           add_76[0][0]
__________________________________________________________________________________________________
res4f_branch2a (FrozenConv2D)   (None, 14, 14, 128)  131200      ee4e[0][0]
__________________________________________________________________________________________________
bn4f_branch2a (BatchNormalizati (None, 14, 14, 128)  512         res4f_branch2a[0][0]
__________________________________________________________________________________________________
activation_213 (Activation)     (None, 14, 14, 128)  0           bn4f_branch2a[0][0]
__________________________________________________________________________________________________
res4f_branch2b (FrozenConv2D)   (None, 14, 14, 128)  147584      activation_213[0][0]
__________________________________________________________________________________________________
bn4f_branch2b (BatchNormalizati (None, 14, 14, 128)  512         res4f_branch2b[0][0]
__________________________________________________________________________________________________
activation_214 (Activation)     (None, 14, 14, 128)  0           bn4f_branch2b[0][0]
__________________________________________________________________________________________________
res4f_branch2c (FrozenConv2D)   (None, 14, 14, 1024) 132096      activation_214[0][0]
__________________________________________________________________________________________________
bn4f_branch2c (BatchNormalizati (None, 14, 14, 1024) 4096        res4f_branch2c[0][0]
__________________________________________________________________________________________________
add_77 (Add)                    (None, 14, 14, 1024) 0           bn4f_branch2c[0][0]
                                                                 ee4e[0][0]
__________________________________________________________________________________________________
ee4f (Activation)               (None, 14, 14, 1024) 0           add_77[0][0]
__________________________________________________________________________________________________
res5a_branch2a (FrozenConv2D)   (None, 7, 7, 256)    262400      ee4f[0][0]
__________________________________________________________________________________________________
bn5a_branch2a (BatchNormalizati (None, 7, 7, 256)    1024        res5a_branch2a[0][0]
__________________________________________________________________________________________________
activation_215 (Activation)     (None, 7, 7, 256)    0           bn5a_branch2a[0][0]
__________________________________________________________________________________________________
res5a_branch2b (FrozenConv2D)   (None, 7, 7, 256)    590080      activation_215[0][0]
__________________________________________________________________________________________________
bn5a_branch2b (BatchNormalizati (None, 7, 7, 256)    1024        res5a_branch2b[0][0]
__________________________________________________________________________________________________
activation_216 (Activation)     (None, 7, 7, 256)    0           bn5a_branch2b[0][0]
__________________________________________________________________________________________________
res5a_branch2c (FrozenConv2D)   (None, 7, 7, 2048)   526336      activation_216[0][0]
__________________________________________________________________________________________________
res5a_branch1 (FrozenConv2D)    (None, 7, 7, 2048)   2099200     ee4f[0][0]
__________________________________________________________________________________________________
bn5a_branch2c (BatchNormalizati (None, 7, 7, 2048)   8192        res5a_branch2c[0][0]
__________________________________________________________________________________________________
bn5a_branch1 (BatchNormalizatio (None, 7, 7, 2048)   8192        res5a_branch1[0][0]
__________________________________________________________________________________________________
add_78 (Add)                    (None, 7, 7, 2048)   0           bn5a_branch2c[0][0]
                                                                 bn5a_branch1[0][0]
__________________________________________________________________________________________________
activation_217 (Activation)     (None, 7, 7, 2048)   0           add_78[0][0]
__________________________________________________________________________________________________
res5b_branch2a (FrozenConv2D)   (None, 7, 7, 256)    524544      activation_217[0][0]
__________________________________________________________________________________________________
bn5b_branch2a (BatchNormalizati (None, 7, 7, 256)    1024        res5b_branch2a[0][0]
__________________________________________________________________________________________________
activation_218 (Activation)     (None, 7, 7, 256)    0           bn5b_branch2a[0][0]
__________________________________________________________________________________________________
res5b_branch2b (FrozenConv2D)   (None, 7, 7, 256)    590080      activation_218[0][0]
__________________________________________________________________________________________________
bn5b_branch2b (BatchNormalizati (None, 7, 7, 256)    1024        res5b_branch2b[0][0]
__________________________________________________________________________________________________
activation_219 (Activation)     (None, 7, 7, 256)    0           bn5b_branch2b[0][0]
__________________________________________________________________________________________________
res5b_branch2c (FrozenConv2D)   (None, 7, 7, 2048)   526336      activation_219[0][0]
__________________________________________________________________________________________________
bn5b_branch2c (BatchNormalizati (None, 7, 7, 2048)   8192        res5b_branch2c[0][0]
__________________________________________________________________________________________________
add_79 (Add)                    (None, 7, 7, 2048)   0           bn5b_branch2c[0][0]
                                                                 activation_217[0][0]
__________________________________________________________________________________________________
ee5b (Activation)               (None, 7, 7, 2048)   0           add_79[0][0]
__________________________________________________________________________________________________
res5c_branch2a (FrozenConv2D)   (None, 7, 7, 256)    524544      ee5b[0][0]
__________________________________________________________________________________________________
bn5c_branch2a (BatchNormalizati (None, 7, 7, 256)    1024        res5c_branch2a[0][0]
__________________________________________________________________________________________________
depthwise_conv2d_13 (DepthwiseC (None, 55, 55, 256)  2304        ee2c[0][0]
__________________________________________________________________________________________________
depthwise_conv2d_14 (DepthwiseC (None, 28, 28, 512)  4608        ee3d[0][0]
__________________________________________________________________________________________________
depthwise_conv2d_15 (DepthwiseC (None, 14, 14, 1024) 9216        ee4f[0][0]
__________________________________________________________________________________________________
activation_220 (Activation)     (None, 7, 7, 256)    0           bn5c_branch2a[0][0]
__________________________________________________________________________________________________
batch_normalization_25 (BatchNo (None, 55, 55, 256)  1024        depthwise_conv2d_13[0][0]
__________________________________________________________________________________________________
batch_normalization_27 (BatchNo (None, 28, 28, 512)  2048        depthwise_conv2d_14[0][0]
__________________________________________________________________________________________________
batch_normalization_29 (BatchNo (None, 14, 14, 1024) 4096        depthwise_conv2d_15[0][0]
__________________________________________________________________________________________________
res5c_branch2b (FrozenConv2D)   (None, 7, 7, 256)    590080      activation_220[0][0]
__________________________________________________________________________________________________
activation_222 (Activation)     (None, 55, 55, 256)  0           batch_normalization_25[0][0]
__________________________________________________________________________________________________
activation_225 (Activation)     (None, 28, 28, 512)  0           batch_normalization_27[0][0]
__________________________________________________________________________________________________
activation_228 (Activation)     (None, 14, 14, 1024) 0           batch_normalization_29[0][0]
__________________________________________________________________________________________________
bn5c_branch2b (BatchNormalizati (None, 7, 7, 256)    1024        res5c_branch2b[0][0]
__________________________________________________________________________________________________
conv2d_25 (Conv2D)              (None, 55, 55, 256)  65536       activation_222[0][0]
__________________________________________________________________________________________________
conv2d_27 (Conv2D)              (None, 28, 28, 256)  131072      activation_225[0][0]
__________________________________________________________________________________________________
conv2d_29 (Conv2D)              (None, 14, 14, 256)  262144      activation_228[0][0]
__________________________________________________________________________________________________
activation_221 (Activation)     (None, 7, 7, 256)    0           bn5c_branch2b[0][0]
__________________________________________________________________________________________________
batch_normalization_26 (BatchNo (None, 55, 55, 256)  1024        conv2d_25[0][0]
__________________________________________________________________________________________________
batch_normalization_28 (BatchNo (None, 28, 28, 256)  1024        conv2d_27[0][0]
__________________________________________________________________________________________________
batch_normalization_30 (BatchNo (None, 14, 14, 256)  1024        conv2d_29[0][0]
__________________________________________________________________________________________________
res5c_branch2c (FrozenConv2D)   (None, 7, 7, 2048)   526336      activation_221[0][0]
__________________________________________________________________________________________________
activation_223 (Activation)     (None, 55, 55, 256)  0           batch_normalization_26[0][0]
__________________________________________________________________________________________________
activation_226 (Activation)     (None, 28, 28, 256)  0           batch_normalization_28[0][0]
__________________________________________________________________________________________________
activation_229 (Activation)     (None, 14, 14, 256)  0           batch_normalization_30[0][0]
__________________________________________________________________________________________________
bn5c_branch2c (BatchNormalizati (None, 7, 7, 2048)   8192        res5c_branch2c[0][0]
__________________________________________________________________________________________________
global_average_pooling2d_13 (Gl (None, 256)          0           activation_223[0][0]
__________________________________________________________________________________________________
global_average_pooling2d_14 (Gl (None, 256)          0           activation_226[0][0]
__________________________________________________________________________________________________
global_average_pooling2d_15 (Gl (None, 256)          0           activation_229[0][0]
__________________________________________________________________________________________________
add_80 (Add)                    (None, 7, 7, 2048)   0           bn5c_branch2c[0][0]
                                                                 ee5b[0][0]
__________________________________________________________________________________________________
reshape_13 (Reshape)            (None, 1, 1, 256)    0           global_average_pooling2d_13[0][0]
__________________________________________________________________________________________________
reshape_14 (Reshape)            (None, 1, 1, 256)    0           global_average_pooling2d_14[0][0]
__________________________________________________________________________________________________
reshape_15 (Reshape)            (None, 1, 1, 256)    0           global_average_pooling2d_15[0][0]
__________________________________________________________________________________________________
ee5c (Activation)               (None, 7, 7, 2048)   0           add_80[0][0]
__________________________________________________________________________________________________
conv2d_26 (Conv2D)              (None, 1, 1, 10)     2570        reshape_13[0][0]
__________________________________________________________________________________________________
conv2d_28 (Conv2D)              (None, 1, 1, 10)     2570        reshape_14[0][0]
__________________________________________________________________________________________________
conv2d_30 (Conv2D)              (None, 1, 1, 10)     2570        reshape_15[0][0]
__________________________________________________________________________________________________
avg_pool (AveragePooling2D)     (None, 1, 1, 2048)   0           ee5c[0][0]
__________________________________________________________________________________________________
activation_224 (Activation)     (None, 1, 1, 10)     0           conv2d_26[0][0]
__________________________________________________________________________________________________
activation_227 (Activation)     (None, 1, 1, 10)     0           conv2d_28[0][0]
__________________________________________________________________________________________________
activation_230 (Activation)     (None, 1, 1, 10)     0           conv2d_30[0][0]
__________________________________________________________________________________________________
flatten_5 (Flatten)             (None, 2048)         0           avg_pool[0][0]
__________________________________________________________________________________________________
ee2c_output (Reshape)           (None, 10)           0           activation_224[0][0]
__________________________________________________________________________________________________
ee3d_output (Reshape)           (None, 10)           0           activation_227[0][0]
__________________________________________________________________________________________________
ee4f_output (Reshape)           (None, 10)           0           activation_230[0][0]
__________________________________________________________________________________________________
fc1000 (FrozenDense)            (None, 10)           20490       flatten_5[0][0]
==================================================================================================
Total params: 10,914,536
Trainable params: 487,710
Non-trainable params: 10,426,826
__________________________________________________________________________________________________
Epoch 1/20
780/781 [============================>.] - ETA: 0s - loss: 4.6125 - ee2c_output_loss: 1.8296 - ee3d_output_loss: 1.6291 - ee4f_output_loss: 1.1207 - fc1000_loss: 0.0330 - ee2c_output_acc: 0.3688 - ee3d_output_acc: 0.4557 - ee4f_output_acc: 0.6600 - fc1000_acc: 0.9894Epoch 00001: saving model to ./resnet/ee_results/80_1/80.h5
…
