…
2017-11-19 14:51:42.138429: I tensorflow/core/common_runtime/gpu/gpu_device.cc:1045] Creating TensorFlow device (/gpu:0) -> (device: 0, name: GeForce GTX 1080 Ti, pci bus id: 0000:01:00.0)
##### Training resnet90 #####
2017-11-19 14:52:22.784216: I tensorflow/core/common_runtime/gpu/gpu_device.cc:1045] Creating TensorFlow device (/gpu:0) -> (device: 0, name: GeForce GTX 1080 Ti, pci bus id: 0000:01:00.0)
[2.525744821780767, 0.083633814102564097]
__________________________________________________________________________________________________
Layer (type)                    Output Shape         Param #     Connected to
==================================================================================================
input_1 (InputLayer)            (None, 224, 224, 3)  0
__________________________________________________________________________________________________
conv1 (Conv2D)                  (None, 112, 112, 64) 9472        input_1[0][0]
__________________________________________________________________________________________________
bn_conv1 (BatchNormalization)   (None, 112, 112, 64) 256         conv1[0][0]
__________________________________________________________________________________________________
activation_1 (Activation)       (None, 112, 112, 64) 0           bn_conv1[0][0]
__________________________________________________________________________________________________
max_pooling2d_1 (MaxPooling2D)  (None, 55, 55, 64)   0           activation_1[0][0]
__________________________________________________________________________________________________
res2a_branch2a (Conv2D)         (None, 55, 55, 64)   4160        max_pooling2d_1[0][0]
__________________________________________________________________________________________________
bn2a_branch2a (BatchNormalizati (None, 55, 55, 64)   256         res2a_branch2a[0][0]
__________________________________________________________________________________________________
activation_2 (Activation)       (None, 55, 55, 64)   0           bn2a_branch2a[0][0]
__________________________________________________________________________________________________
res2a_branch2b (Conv2D)         (None, 55, 55, 32)   18464       activation_2[0][0]
__________________________________________________________________________________________________
bn2a_branch2b (BatchNormalizati (None, 55, 55, 32)   128         res2a_branch2b[0][0]
__________________________________________________________________________________________________
activation_3 (Activation)       (None, 55, 55, 32)   0           bn2a_branch2b[0][0]
__________________________________________________________________________________________________
res2a_branch2c (Conv2D)         (None, 55, 55, 256)  8448        activation_3[0][0]
__________________________________________________________________________________________________
res2a_branch1 (Conv2D)          (None, 55, 55, 256)  16640       max_pooling2d_1[0][0]
__________________________________________________________________________________________________
bn2a_branch2c (BatchNormalizati (None, 55, 55, 256)  1024        res2a_branch2c[0][0]
__________________________________________________________________________________________________
bn2a_branch1 (BatchNormalizatio (None, 55, 55, 256)  1024        res2a_branch1[0][0]
__________________________________________________________________________________________________
add_1 (Add)                     (None, 55, 55, 256)  0           bn2a_branch2c[0][0]
                                                                 bn2a_branch1[0][0]
__________________________________________________________________________________________________
activation_4 (Activation)       (None, 55, 55, 256)  0           add_1[0][0]
__________________________________________________________________________________________________
res2b_branch2a (Conv2D)         (None, 55, 55, 64)   16448       activation_4[0][0]
__________________________________________________________________________________________________
bn2b_branch2a (BatchNormalizati (None, 55, 55, 64)   256         res2b_branch2a[0][0]
__________________________________________________________________________________________________
activation_5 (Activation)       (None, 55, 55, 64)   0           bn2b_branch2a[0][0]
__________________________________________________________________________________________________
res2b_branch2b (Conv2D)         (None, 55, 55, 32)   18464       activation_5[0][0]
__________________________________________________________________________________________________
bn2b_branch2b (BatchNormalizati (None, 55, 55, 32)   128         res2b_branch2b[0][0]
__________________________________________________________________________________________________
activation_6 (Activation)       (None, 55, 55, 32)   0           bn2b_branch2b[0][0]
__________________________________________________________________________________________________
res2b_branch2c (Conv2D)         (None, 55, 55, 256)  8448        activation_6[0][0]
__________________________________________________________________________________________________
bn2b_branch2c (BatchNormalizati (None, 55, 55, 256)  1024        res2b_branch2c[0][0]
__________________________________________________________________________________________________
add_2 (Add)                     (None, 55, 55, 256)  0           bn2b_branch2c[0][0]
                                                                 activation_4[0][0]
__________________________________________________________________________________________________
activation_7 (Activation)       (None, 55, 55, 256)  0           add_2[0][0]
__________________________________________________________________________________________________
res2c_branch2a (Conv2D)         (None, 55, 55, 64)   16448       activation_7[0][0]
__________________________________________________________________________________________________
bn2c_branch2a (BatchNormalizati (None, 55, 55, 64)   256         res2c_branch2a[0][0]
__________________________________________________________________________________________________
activation_8 (Activation)       (None, 55, 55, 64)   0           bn2c_branch2a[0][0]
__________________________________________________________________________________________________
res2c_branch2b (Conv2D)         (None, 55, 55, 32)   18464       activation_8[0][0]
__________________________________________________________________________________________________
bn2c_branch2b (BatchNormalizati (None, 55, 55, 32)   128         res2c_branch2b[0][0]
__________________________________________________________________________________________________
activation_9 (Activation)       (None, 55, 55, 32)   0           bn2c_branch2b[0][0]
__________________________________________________________________________________________________
res2c_branch2c (Conv2D)         (None, 55, 55, 256)  8448        activation_9[0][0]
__________________________________________________________________________________________________
bn2c_branch2c (BatchNormalizati (None, 55, 55, 256)  1024        res2c_branch2c[0][0]
__________________________________________________________________________________________________
add_3 (Add)                     (None, 55, 55, 256)  0           bn2c_branch2c[0][0]
                                                                 activation_7[0][0]
__________________________________________________________________________________________________
activation_10 (Activation)      (None, 55, 55, 256)  0           add_3[0][0]
__________________________________________________________________________________________________
res3a_branch2a (Conv2D)         (None, 28, 28, 128)  32896       activation_10[0][0]
__________________________________________________________________________________________________
bn3a_branch2a (BatchNormalizati (None, 28, 28, 128)  512         res3a_branch2a[0][0]
__________________________________________________________________________________________________
activation_11 (Activation)      (None, 28, 28, 128)  0           bn3a_branch2a[0][0]
__________________________________________________________________________________________________
res3a_branch2b (Conv2D)         (None, 28, 28, 64)   73792       activation_11[0][0]
__________________________________________________________________________________________________
bn3a_branch2b (BatchNormalizati (None, 28, 28, 64)   256         res3a_branch2b[0][0]
__________________________________________________________________________________________________
activation_12 (Activation)      (None, 28, 28, 64)   0           bn3a_branch2b[0][0]
__________________________________________________________________________________________________
res3a_branch2c (Conv2D)         (None, 28, 28, 512)  33280       activation_12[0][0]
__________________________________________________________________________________________________
res3a_branch1 (Conv2D)          (None, 28, 28, 512)  131584      activation_10[0][0]
__________________________________________________________________________________________________
bn3a_branch2c (BatchNormalizati (None, 28, 28, 512)  2048        res3a_branch2c[0][0]
__________________________________________________________________________________________________
bn3a_branch1 (BatchNormalizatio (None, 28, 28, 512)  2048        res3a_branch1[0][0]
__________________________________________________________________________________________________
add_4 (Add)                     (None, 28, 28, 512)  0           bn3a_branch2c[0][0]
                                                                 bn3a_branch1[0][0]
__________________________________________________________________________________________________
activation_13 (Activation)      (None, 28, 28, 512)  0           add_4[0][0]
__________________________________________________________________________________________________
res3b_branch2a (Conv2D)         (None, 28, 28, 128)  65664       activation_13[0][0]
__________________________________________________________________________________________________
bn3b_branch2a (BatchNormalizati (None, 28, 28, 128)  512         res3b_branch2a[0][0]
__________________________________________________________________________________________________
activation_14 (Activation)      (None, 28, 28, 128)  0           bn3b_branch2a[0][0]
__________________________________________________________________________________________________
res3b_branch2b (Conv2D)         (None, 28, 28, 64)   73792       activation_14[0][0]
__________________________________________________________________________________________________
bn3b_branch2b (BatchNormalizati (None, 28, 28, 64)   256         res3b_branch2b[0][0]
__________________________________________________________________________________________________
activation_15 (Activation)      (None, 28, 28, 64)   0           bn3b_branch2b[0][0]
__________________________________________________________________________________________________
res3b_branch2c (Conv2D)         (None, 28, 28, 512)  33280       activation_15[0][0]
__________________________________________________________________________________________________
bn3b_branch2c (BatchNormalizati (None, 28, 28, 512)  2048        res3b_branch2c[0][0]
__________________________________________________________________________________________________
add_5 (Add)                     (None, 28, 28, 512)  0           bn3b_branch2c[0][0]
                                                                 activation_13[0][0]
__________________________________________________________________________________________________
activation_16 (Activation)      (None, 28, 28, 512)  0           add_5[0][0]
__________________________________________________________________________________________________
res3c_branch2a (Conv2D)         (None, 28, 28, 128)  65664       activation_16[0][0]
__________________________________________________________________________________________________
bn3c_branch2a (BatchNormalizati (None, 28, 28, 128)  512         res3c_branch2a[0][0]
__________________________________________________________________________________________________
activation_17 (Activation)      (None, 28, 28, 128)  0           bn3c_branch2a[0][0]
__________________________________________________________________________________________________
res3c_branch2b (Conv2D)         (None, 28, 28, 64)   73792       activation_17[0][0]
__________________________________________________________________________________________________
bn3c_branch2b (BatchNormalizati (None, 28, 28, 64)   256         res3c_branch2b[0][0]
__________________________________________________________________________________________________
activation_18 (Activation)      (None, 28, 28, 64)   0           bn3c_branch2b[0][0]
__________________________________________________________________________________________________
res3c_branch2c (Conv2D)         (None, 28, 28, 512)  33280       activation_18[0][0]
__________________________________________________________________________________________________
bn3c_branch2c (BatchNormalizati (None, 28, 28, 512)  2048        res3c_branch2c[0][0]
__________________________________________________________________________________________________
add_6 (Add)                     (None, 28, 28, 512)  0           bn3c_branch2c[0][0]
                                                                 activation_16[0][0]
__________________________________________________________________________________________________
activation_19 (Activation)      (None, 28, 28, 512)  0           add_6[0][0]
__________________________________________________________________________________________________
res3d_branch2a (Conv2D)         (None, 28, 28, 128)  65664       activation_19[0][0]
__________________________________________________________________________________________________
bn3d_branch2a (BatchNormalizati (None, 28, 28, 128)  512         res3d_branch2a[0][0]
__________________________________________________________________________________________________
activation_20 (Activation)      (None, 28, 28, 128)  0           bn3d_branch2a[0][0]
__________________________________________________________________________________________________
res3d_branch2b (Conv2D)         (None, 28, 28, 64)   73792       activation_20[0][0]
__________________________________________________________________________________________________
bn3d_branch2b (BatchNormalizati (None, 28, 28, 64)   256         res3d_branch2b[0][0]
__________________________________________________________________________________________________
activation_21 (Activation)      (None, 28, 28, 64)   0           bn3d_branch2b[0][0]
__________________________________________________________________________________________________
res3d_branch2c (Conv2D)         (None, 28, 28, 512)  33280       activation_21[0][0]
__________________________________________________________________________________________________
bn3d_branch2c (BatchNormalizati (None, 28, 28, 512)  2048        res3d_branch2c[0][0]
__________________________________________________________________________________________________
add_7 (Add)                     (None, 28, 28, 512)  0           bn3d_branch2c[0][0]
                                                                 activation_19[0][0]
__________________________________________________________________________________________________
activation_22 (Activation)      (None, 28, 28, 512)  0           add_7[0][0]
__________________________________________________________________________________________________
res4a_branch2a (Conv2D)         (None, 14, 14, 256)  131328      activation_22[0][0]
__________________________________________________________________________________________________
bn4a_branch2a (BatchNormalizati (None, 14, 14, 256)  1024        res4a_branch2a[0][0]
__________________________________________________________________________________________________
activation_23 (Activation)      (None, 14, 14, 256)  0           bn4a_branch2a[0][0]
__________________________________________________________________________________________________
res4a_branch2b (Conv2D)         (None, 14, 14, 128)  295040      activation_23[0][0]
__________________________________________________________________________________________________
bn4a_branch2b (BatchNormalizati (None, 14, 14, 128)  512         res4a_branch2b[0][0]
__________________________________________________________________________________________________
activation_24 (Activation)      (None, 14, 14, 128)  0           bn4a_branch2b[0][0]
__________________________________________________________________________________________________
res4a_branch2c (Conv2D)         (None, 14, 14, 1024) 132096      activation_24[0][0]
__________________________________________________________________________________________________
res4a_branch1 (Conv2D)          (None, 14, 14, 1024) 525312      activation_22[0][0]
__________________________________________________________________________________________________
bn4a_branch2c (BatchNormalizati (None, 14, 14, 1024) 4096        res4a_branch2c[0][0]
__________________________________________________________________________________________________
bn4a_branch1 (BatchNormalizatio (None, 14, 14, 1024) 4096        res4a_branch1[0][0]
__________________________________________________________________________________________________
add_8 (Add)                     (None, 14, 14, 1024) 0           bn4a_branch2c[0][0]
                                                                 bn4a_branch1[0][0]
__________________________________________________________________________________________________
activation_25 (Activation)      (None, 14, 14, 1024) 0           add_8[0][0]
__________________________________________________________________________________________________
res4b_branch2a (Conv2D)         (None, 14, 14, 256)  262400      activation_25[0][0]
__________________________________________________________________________________________________
bn4b_branch2a (BatchNormalizati (None, 14, 14, 256)  1024        res4b_branch2a[0][0]
__________________________________________________________________________________________________
activation_26 (Activation)      (None, 14, 14, 256)  0           bn4b_branch2a[0][0]
__________________________________________________________________________________________________
res4b_branch2b (Conv2D)         (None, 14, 14, 128)  295040      activation_26[0][0]
__________________________________________________________________________________________________
bn4b_branch2b (BatchNormalizati (None, 14, 14, 128)  512         res4b_branch2b[0][0]
__________________________________________________________________________________________________
activation_27 (Activation)      (None, 14, 14, 128)  0           bn4b_branch2b[0][0]
__________________________________________________________________________________________________
res4b_branch2c (Conv2D)         (None, 14, 14, 1024) 132096      activation_27[0][0]
__________________________________________________________________________________________________
bn4b_branch2c (BatchNormalizati (None, 14, 14, 1024) 4096        res4b_branch2c[0][0]
__________________________________________________________________________________________________
add_9 (Add)                     (None, 14, 14, 1024) 0           bn4b_branch2c[0][0]
                                                                 activation_25[0][0]
__________________________________________________________________________________________________
activation_28 (Activation)      (None, 14, 14, 1024) 0           add_9[0][0]
__________________________________________________________________________________________________
res4c_branch2a (Conv2D)         (None, 14, 14, 256)  262400      activation_28[0][0]
__________________________________________________________________________________________________
bn4c_branch2a (BatchNormalizati (None, 14, 14, 256)  1024        res4c_branch2a[0][0]
__________________________________________________________________________________________________
activation_29 (Activation)      (None, 14, 14, 256)  0           bn4c_branch2a[0][0]
__________________________________________________________________________________________________
res4c_branch2b (Conv2D)         (None, 14, 14, 128)  295040      activation_29[0][0]
__________________________________________________________________________________________________
bn4c_branch2b (BatchNormalizati (None, 14, 14, 128)  512         res4c_branch2b[0][0]
__________________________________________________________________________________________________
activation_30 (Activation)      (None, 14, 14, 128)  0           bn4c_branch2b[0][0]
__________________________________________________________________________________________________
res4c_branch2c (Conv2D)         (None, 14, 14, 1024) 132096      activation_30[0][0]
__________________________________________________________________________________________________
bn4c_branch2c (BatchNormalizati (None, 14, 14, 1024) 4096        res4c_branch2c[0][0]
__________________________________________________________________________________________________
add_10 (Add)                    (None, 14, 14, 1024) 0           bn4c_branch2c[0][0]
                                                                 activation_28[0][0]
__________________________________________________________________________________________________
activation_31 (Activation)      (None, 14, 14, 1024) 0           add_10[0][0]
__________________________________________________________________________________________________
res4d_branch2a (Conv2D)         (None, 14, 14, 256)  262400      activation_31[0][0]
__________________________________________________________________________________________________
bn4d_branch2a (BatchNormalizati (None, 14, 14, 256)  1024        res4d_branch2a[0][0]
__________________________________________________________________________________________________
activation_32 (Activation)      (None, 14, 14, 256)  0           bn4d_branch2a[0][0]
__________________________________________________________________________________________________
res4d_branch2b (Conv2D)         (None, 14, 14, 128)  295040      activation_32[0][0]
__________________________________________________________________________________________________
bn4d_branch2b (BatchNormalizati (None, 14, 14, 128)  512         res4d_branch2b[0][0]
__________________________________________________________________________________________________
activation_33 (Activation)      (None, 14, 14, 128)  0           bn4d_branch2b[0][0]
__________________________________________________________________________________________________
res4d_branch2c (Conv2D)         (None, 14, 14, 1024) 132096      activation_33[0][0]
__________________________________________________________________________________________________
bn4d_branch2c (BatchNormalizati (None, 14, 14, 1024) 4096        res4d_branch2c[0][0]
__________________________________________________________________________________________________
add_11 (Add)                    (None, 14, 14, 1024) 0           bn4d_branch2c[0][0]
                                                                 activation_31[0][0]
__________________________________________________________________________________________________
activation_34 (Activation)      (None, 14, 14, 1024) 0           add_11[0][0]
__________________________________________________________________________________________________
res4e_branch2a (Conv2D)         (None, 14, 14, 256)  262400      activation_34[0][0]
__________________________________________________________________________________________________
bn4e_branch2a (BatchNormalizati (None, 14, 14, 256)  1024        res4e_branch2a[0][0]
__________________________________________________________________________________________________
activation_35 (Activation)      (None, 14, 14, 256)  0           bn4e_branch2a[0][0]
__________________________________________________________________________________________________
res4e_branch2b (Conv2D)         (None, 14, 14, 128)  295040      activation_35[0][0]
__________________________________________________________________________________________________
bn4e_branch2b (BatchNormalizati (None, 14, 14, 128)  512         res4e_branch2b[0][0]
__________________________________________________________________________________________________
activation_36 (Activation)      (None, 14, 14, 128)  0           bn4e_branch2b[0][0]
__________________________________________________________________________________________________
res4e_branch2c (Conv2D)         (None, 14, 14, 1024) 132096      activation_36[0][0]
__________________________________________________________________________________________________
bn4e_branch2c (BatchNormalizati (None, 14, 14, 1024) 4096        res4e_branch2c[0][0]
__________________________________________________________________________________________________
add_12 (Add)                    (None, 14, 14, 1024) 0           bn4e_branch2c[0][0]
                                                                 activation_34[0][0]
__________________________________________________________________________________________________
activation_37 (Activation)      (None, 14, 14, 1024) 0           add_12[0][0]
__________________________________________________________________________________________________
res4f_branch2a (Conv2D)         (None, 14, 14, 256)  262400      activation_37[0][0]
__________________________________________________________________________________________________
bn4f_branch2a (BatchNormalizati (None, 14, 14, 256)  1024        res4f_branch2a[0][0]
__________________________________________________________________________________________________
activation_38 (Activation)      (None, 14, 14, 256)  0           bn4f_branch2a[0][0]
__________________________________________________________________________________________________
res4f_branch2b (Conv2D)         (None, 14, 14, 128)  295040      activation_38[0][0]
__________________________________________________________________________________________________
bn4f_branch2b (BatchNormalizati (None, 14, 14, 128)  512         res4f_branch2b[0][0]
__________________________________________________________________________________________________
activation_39 (Activation)      (None, 14, 14, 128)  0           bn4f_branch2b[0][0]
__________________________________________________________________________________________________
res4f_branch2c (Conv2D)         (None, 14, 14, 1024) 132096      activation_39[0][0]
__________________________________________________________________________________________________
bn4f_branch2c (BatchNormalizati (None, 14, 14, 1024) 4096        res4f_branch2c[0][0]
__________________________________________________________________________________________________
add_13 (Add)                    (None, 14, 14, 1024) 0           bn4f_branch2c[0][0]
                                                                 activation_37[0][0]
__________________________________________________________________________________________________
activation_40 (Activation)      (None, 14, 14, 1024) 0           add_13[0][0]
__________________________________________________________________________________________________
res5a_branch2a (Conv2D)         (None, 7, 7, 512)    524800      activation_40[0][0]
__________________________________________________________________________________________________
bn5a_branch2a (BatchNormalizati (None, 7, 7, 512)    2048        res5a_branch2a[0][0]
__________________________________________________________________________________________________
activation_41 (Activation)      (None, 7, 7, 512)    0           bn5a_branch2a[0][0]
__________________________________________________________________________________________________
res5a_branch2b (Conv2D)         (None, 7, 7, 256)    1179904     activation_41[0][0]
__________________________________________________________________________________________________
bn5a_branch2b (BatchNormalizati (None, 7, 7, 256)    1024        res5a_branch2b[0][0]
__________________________________________________________________________________________________
activation_42 (Activation)      (None, 7, 7, 256)    0           bn5a_branch2b[0][0]
__________________________________________________________________________________________________
res5a_branch2c (Conv2D)         (None, 7, 7, 2048)   526336      activation_42[0][0]
__________________________________________________________________________________________________
res5a_branch1 (Conv2D)          (None, 7, 7, 2048)   2099200     activation_40[0][0]
__________________________________________________________________________________________________
bn5a_branch2c (BatchNormalizati (None, 7, 7, 2048)   8192        res5a_branch2c[0][0]
__________________________________________________________________________________________________
bn5a_branch1 (BatchNormalizatio (None, 7, 7, 2048)   8192        res5a_branch1[0][0]
__________________________________________________________________________________________________
add_14 (Add)                    (None, 7, 7, 2048)   0           bn5a_branch2c[0][0]
                                                                 bn5a_branch1[0][0]
__________________________________________________________________________________________________
activation_43 (Activation)      (None, 7, 7, 2048)   0           add_14[0][0]
__________________________________________________________________________________________________
res5b_branch2a (Conv2D)         (None, 7, 7, 512)    1049088     activation_43[0][0]
__________________________________________________________________________________________________
bn5b_branch2a (BatchNormalizati (None, 7, 7, 512)    2048        res5b_branch2a[0][0]
__________________________________________________________________________________________________
activation_44 (Activation)      (None, 7, 7, 512)    0           bn5b_branch2a[0][0]
__________________________________________________________________________________________________
res5b_branch2b (Conv2D)         (None, 7, 7, 256)    1179904     activation_44[0][0]
__________________________________________________________________________________________________
bn5b_branch2b (BatchNormalizati (None, 7, 7, 256)    1024        res5b_branch2b[0][0]
__________________________________________________________________________________________________
activation_45 (Activation)      (None, 7, 7, 256)    0           bn5b_branch2b[0][0]
__________________________________________________________________________________________________
res5b_branch2c (Conv2D)         (None, 7, 7, 2048)   526336      activation_45[0][0]
__________________________________________________________________________________________________
bn5b_branch2c (BatchNormalizati (None, 7, 7, 2048)   8192        res5b_branch2c[0][0]
__________________________________________________________________________________________________
add_15 (Add)                    (None, 7, 7, 2048)   0           bn5b_branch2c[0][0]
                                                                 activation_43[0][0]
__________________________________________________________________________________________________
activation_46 (Activation)      (None, 7, 7, 2048)   0           add_15[0][0]
__________________________________________________________________________________________________
res5c_branch2a (Conv2D)         (None, 7, 7, 512)    1049088     activation_46[0][0]
__________________________________________________________________________________________________
bn5c_branch2a (BatchNormalizati (None, 7, 7, 512)    2048        res5c_branch2a[0][0]
__________________________________________________________________________________________________
activation_47 (Activation)      (None, 7, 7, 512)    0           bn5c_branch2a[0][0]
__________________________________________________________________________________________________
res5c_branch2b (Conv2D)         (None, 7, 7, 256)    1179904     activation_47[0][0]
__________________________________________________________________________________________________
bn5c_branch2b (BatchNormalizati (None, 7, 7, 256)    1024        res5c_branch2b[0][0]
__________________________________________________________________________________________________
activation_48 (Activation)      (None, 7, 7, 256)    0           bn5c_branch2b[0][0]
__________________________________________________________________________________________________
res5c_branch2c (Conv2D)         (None, 7, 7, 2048)   526336      activation_48[0][0]
__________________________________________________________________________________________________
bn5c_branch2c (BatchNormalizati (None, 7, 7, 2048)   8192        res5c_branch2c[0][0]
__________________________________________________________________________________________________
add_16 (Add)                    (None, 7, 7, 2048)   0           bn5c_branch2c[0][0]
                                                                 activation_46[0][0]
__________________________________________________________________________________________________
activation_49 (Activation)      (None, 7, 7, 2048)   0           add_16[0][0]
__________________________________________________________________________________________________
avg_pool (AveragePooling2D)     (None, 1, 1, 2048)   0           activation_49[0][0]
__________________________________________________________________________________________________
flatten_1 (Flatten)             (None, 2048)         0           avg_pool[0][0]
__________________________________________________________________________________________________
fc1000 (Dense)                  (None, 10)           20490       flatten_1[0][0]
==================================================================================================
Total params: 15,425,194
Trainable params: 15,375,850
Non-trainable params: 49,344
__________________________________________________________________________________________________
Epoch 1/20
780/781 [============================>.] - ETA: 0s - loss: 0.1998 - acc: 0.9374Epoch 00001: val_acc improved from -inf to 0.92037, saving model to ./resnet/results/90_1/90_best.h5
…
2017-11-19 18:05:53.176032: I tensorflow/core/common_runtime/gpu/gpu_device.cc:1045] Creating TensorFlow device (/gpu:0) -> (device: 0, name: GeForce GTX 1080 Ti, pci bus id: 0000:01:00.0)
2017-11-19 18:06:19.613405: I tensorflow/core/common_runtime/gpu/gpu_device.cc:1045] Creating TensorFlow device (/gpu:0) -> (device: 0, name: GeForce GTX 1080 Ti, pci bus id: 0000:01:00.0)
[2.3058214386304221, 0.12520032051282051]
__________________________________________________________________________________________________
Layer (type)                    Output Shape         Param #     Connected to
==================================================================================================
input_1 (InputLayer)            (None, 224, 224, 3)  0
__________________________________________________________________________________________________
conv1 (Conv2D)                  (None, 112, 112, 64) 9472        input_1[0][0]
__________________________________________________________________________________________________
bn_conv1 (BatchNormalization)   (None, 112, 112, 64) 256         conv1[0][0]
__________________________________________________________________________________________________
activation_1 (Activation)       (None, 112, 112, 64) 0           bn_conv1[0][0]
__________________________________________________________________________________________________
max_pooling2d_1 (MaxPooling2D)  (None, 55, 55, 64)   0           activation_1[0][0]
__________________________________________________________________________________________________
res2a_branch2a (Conv2D)         (None, 55, 55, 32)   2080        max_pooling2d_1[0][0]
__________________________________________________________________________________________________
bn2a_branch2a (BatchNormalizati (None, 55, 55, 32)   128         res2a_branch2a[0][0]
__________________________________________________________________________________________________
activation_2 (Activation)       (None, 55, 55, 32)   0           bn2a_branch2a[0][0]
__________________________________________________________________________________________________
res2a_branch2b (Conv2D)         (None, 55, 55, 32)   9248        activation_2[0][0]
__________________________________________________________________________________________________
bn2a_branch2b (BatchNormalizati (None, 55, 55, 32)   128         res2a_branch2b[0][0]
__________________________________________________________________________________________________
activation_3 (Activation)       (None, 55, 55, 32)   0           bn2a_branch2b[0][0]
__________________________________________________________________________________________________
res2a_branch2c (Conv2D)         (None, 55, 55, 256)  8448        activation_3[0][0]
__________________________________________________________________________________________________
res2a_branch1 (Conv2D)          (None, 55, 55, 256)  16640       max_pooling2d_1[0][0]
__________________________________________________________________________________________________
bn2a_branch2c (BatchNormalizati (None, 55, 55, 256)  1024        res2a_branch2c[0][0]
__________________________________________________________________________________________________
bn2a_branch1 (BatchNormalizatio (None, 55, 55, 256)  1024        res2a_branch1[0][0]
__________________________________________________________________________________________________
add_1 (Add)                     (None, 55, 55, 256)  0           bn2a_branch2c[0][0]
                                                                 bn2a_branch1[0][0]
__________________________________________________________________________________________________
activation_4 (Activation)       (None, 55, 55, 256)  0           add_1[0][0]
__________________________________________________________________________________________________
res2b_branch2a (Conv2D)         (None, 55, 55, 32)   8224        activation_4[0][0]
__________________________________________________________________________________________________
bn2b_branch2a (BatchNormalizati (None, 55, 55, 32)   128         res2b_branch2a[0][0]
__________________________________________________________________________________________________
activation_5 (Activation)       (None, 55, 55, 32)   0           bn2b_branch2a[0][0]
__________________________________________________________________________________________________
res2b_branch2b (Conv2D)         (None, 55, 55, 32)   9248        activation_5[0][0]
__________________________________________________________________________________________________
bn2b_branch2b (BatchNormalizati (None, 55, 55, 32)   128         res2b_branch2b[0][0]
__________________________________________________________________________________________________
activation_6 (Activation)       (None, 55, 55, 32)   0           bn2b_branch2b[0][0]
__________________________________________________________________________________________________
res2b_branch2c (Conv2D)         (None, 55, 55, 256)  8448        activation_6[0][0]
__________________________________________________________________________________________________
bn2b_branch2c (BatchNormalizati (None, 55, 55, 256)  1024        res2b_branch2c[0][0]
__________________________________________________________________________________________________
add_2 (Add)                     (None, 55, 55, 256)  0           bn2b_branch2c[0][0]
                                                                 activation_4[0][0]
__________________________________________________________________________________________________
activation_7 (Activation)       (None, 55, 55, 256)  0           add_2[0][0]
__________________________________________________________________________________________________
res2c_branch2a (Conv2D)         (None, 55, 55, 32)   8224        activation_7[0][0]
__________________________________________________________________________________________________
bn2c_branch2a (BatchNormalizati (None, 55, 55, 32)   128         res2c_branch2a[0][0]
__________________________________________________________________________________________________
activation_8 (Activation)       (None, 55, 55, 32)   0           bn2c_branch2a[0][0]
__________________________________________________________________________________________________
res2c_branch2b (Conv2D)         (None, 55, 55, 32)   9248        activation_8[0][0]
__________________________________________________________________________________________________
bn2c_branch2b (BatchNormalizati (None, 55, 55, 32)   128         res2c_branch2b[0][0]
__________________________________________________________________________________________________
activation_9 (Activation)       (None, 55, 55, 32)   0           bn2c_branch2b[0][0]
__________________________________________________________________________________________________
res2c_branch2c (Conv2D)         (None, 55, 55, 256)  8448        activation_9[0][0]
__________________________________________________________________________________________________
bn2c_branch2c (BatchNormalizati (None, 55, 55, 256)  1024        res2c_branch2c[0][0]
__________________________________________________________________________________________________
add_3 (Add)                     (None, 55, 55, 256)  0           bn2c_branch2c[0][0]
                                                                 activation_7[0][0]
__________________________________________________________________________________________________
activation_10 (Activation)      (None, 55, 55, 256)  0           add_3[0][0]
__________________________________________________________________________________________________
res3a_branch2a (Conv2D)         (None, 28, 28, 64)   16448       activation_10[0][0]
__________________________________________________________________________________________________
bn3a_branch2a (BatchNormalizati (None, 28, 28, 64)   256         res3a_branch2a[0][0]
__________________________________________________________________________________________________
activation_11 (Activation)      (None, 28, 28, 64)   0           bn3a_branch2a[0][0]
__________________________________________________________________________________________________
res3a_branch2b (Conv2D)         (None, 28, 28, 64)   36928       activation_11[0][0]
__________________________________________________________________________________________________
bn3a_branch2b (BatchNormalizati (None, 28, 28, 64)   256         res3a_branch2b[0][0]
__________________________________________________________________________________________________
activation_12 (Activation)      (None, 28, 28, 64)   0           bn3a_branch2b[0][0]
__________________________________________________________________________________________________
res3a_branch2c (Conv2D)         (None, 28, 28, 512)  33280       activation_12[0][0]
__________________________________________________________________________________________________
res3a_branch1 (Conv2D)          (None, 28, 28, 512)  131584      activation_10[0][0]
__________________________________________________________________________________________________
bn3a_branch2c (BatchNormalizati (None, 28, 28, 512)  2048        res3a_branch2c[0][0]
__________________________________________________________________________________________________
bn3a_branch1 (BatchNormalizatio (None, 28, 28, 512)  2048        res3a_branch1[0][0]
__________________________________________________________________________________________________
add_4 (Add)                     (None, 28, 28, 512)  0           bn3a_branch2c[0][0]
                                                                 bn3a_branch1[0][0]
__________________________________________________________________________________________________
activation_13 (Activation)      (None, 28, 28, 512)  0           add_4[0][0]
__________________________________________________________________________________________________
res3b_branch2a (Conv2D)         (None, 28, 28, 64)   32832       activation_13[0][0]
__________________________________________________________________________________________________
bn3b_branch2a (BatchNormalizati (None, 28, 28, 64)   256         res3b_branch2a[0][0]
__________________________________________________________________________________________________
activation_14 (Activation)      (None, 28, 28, 64)   0           bn3b_branch2a[0][0]
__________________________________________________________________________________________________
res3b_branch2b (Conv2D)         (None, 28, 28, 64)   36928       activation_14[0][0]
__________________________________________________________________________________________________
bn3b_branch2b (BatchNormalizati (None, 28, 28, 64)   256         res3b_branch2b[0][0]
__________________________________________________________________________________________________
activation_15 (Activation)      (None, 28, 28, 64)   0           bn3b_branch2b[0][0]
__________________________________________________________________________________________________
res3b_branch2c (Conv2D)         (None, 28, 28, 512)  33280       activation_15[0][0]
__________________________________________________________________________________________________
bn3b_branch2c (BatchNormalizati (None, 28, 28, 512)  2048        res3b_branch2c[0][0]
__________________________________________________________________________________________________
add_5 (Add)                     (None, 28, 28, 512)  0           bn3b_branch2c[0][0]
                                                                 activation_13[0][0]
__________________________________________________________________________________________________
activation_16 (Activation)      (None, 28, 28, 512)  0           add_5[0][0]
__________________________________________________________________________________________________
res3c_branch2a (Conv2D)         (None, 28, 28, 64)   32832       activation_16[0][0]
__________________________________________________________________________________________________
bn3c_branch2a (BatchNormalizati (None, 28, 28, 64)   256         res3c_branch2a[0][0]
__________________________________________________________________________________________________
activation_17 (Activation)      (None, 28, 28, 64)   0           bn3c_branch2a[0][0]
__________________________________________________________________________________________________
res3c_branch2b (Conv2D)         (None, 28, 28, 64)   36928       activation_17[0][0]
__________________________________________________________________________________________________
bn3c_branch2b (BatchNormalizati (None, 28, 28, 64)   256         res3c_branch2b[0][0]
__________________________________________________________________________________________________
activation_18 (Activation)      (None, 28, 28, 64)   0           bn3c_branch2b[0][0]
__________________________________________________________________________________________________
res3c_branch2c (Conv2D)         (None, 28, 28, 512)  33280       activation_18[0][0]
__________________________________________________________________________________________________
bn3c_branch2c (BatchNormalizati (None, 28, 28, 512)  2048        res3c_branch2c[0][0]
__________________________________________________________________________________________________
add_6 (Add)                     (None, 28, 28, 512)  0           bn3c_branch2c[0][0]
                                                                 activation_16[0][0]
__________________________________________________________________________________________________
activation_19 (Activation)      (None, 28, 28, 512)  0           add_6[0][0]
__________________________________________________________________________________________________
res3d_branch2a (Conv2D)         (None, 28, 28, 64)   32832       activation_19[0][0]
__________________________________________________________________________________________________
bn3d_branch2a (BatchNormalizati (None, 28, 28, 64)   256         res3d_branch2a[0][0]
__________________________________________________________________________________________________
activation_20 (Activation)      (None, 28, 28, 64)   0           bn3d_branch2a[0][0]
__________________________________________________________________________________________________
res3d_branch2b (Conv2D)         (None, 28, 28, 64)   36928       activation_20[0][0]
__________________________________________________________________________________________________
bn3d_branch2b (BatchNormalizati (None, 28, 28, 64)   256         res3d_branch2b[0][0]
__________________________________________________________________________________________________
activation_21 (Activation)      (None, 28, 28, 64)   0           bn3d_branch2b[0][0]
__________________________________________________________________________________________________
res3d_branch2c (Conv2D)         (None, 28, 28, 512)  33280       activation_21[0][0]
__________________________________________________________________________________________________
bn3d_branch2c (BatchNormalizati (None, 28, 28, 512)  2048        res3d_branch2c[0][0]
__________________________________________________________________________________________________
add_7 (Add)                     (None, 28, 28, 512)  0           bn3d_branch2c[0][0]
                                                                 activation_19[0][0]
__________________________________________________________________________________________________
activation_22 (Activation)      (None, 28, 28, 512)  0           add_7[0][0]
__________________________________________________________________________________________________
res4a_branch2a (Conv2D)         (None, 14, 14, 128)  65664       activation_22[0][0]
__________________________________________________________________________________________________
bn4a_branch2a (BatchNormalizati (None, 14, 14, 128)  512         res4a_branch2a[0][0]
__________________________________________________________________________________________________
activation_23 (Activation)      (None, 14, 14, 128)  0           bn4a_branch2a[0][0]
__________________________________________________________________________________________________
res4a_branch2b (Conv2D)         (None, 14, 14, 128)  147584      activation_23[0][0]
__________________________________________________________________________________________________
bn4a_branch2b (BatchNormalizati (None, 14, 14, 128)  512         res4a_branch2b[0][0]
__________________________________________________________________________________________________
activation_24 (Activation)      (None, 14, 14, 128)  0           bn4a_branch2b[0][0]
__________________________________________________________________________________________________
res4a_branch2c (Conv2D)         (None, 14, 14, 1024) 132096      activation_24[0][0]
__________________________________________________________________________________________________
res4a_branch1 (Conv2D)          (None, 14, 14, 1024) 525312      activation_22[0][0]
__________________________________________________________________________________________________
bn4a_branch2c (BatchNormalizati (None, 14, 14, 1024) 4096        res4a_branch2c[0][0]
__________________________________________________________________________________________________
bn4a_branch1 (BatchNormalizatio (None, 14, 14, 1024) 4096        res4a_branch1[0][0]
__________________________________________________________________________________________________
add_8 (Add)                     (None, 14, 14, 1024) 0           bn4a_branch2c[0][0]
                                                                 bn4a_branch1[0][0]
__________________________________________________________________________________________________
activation_25 (Activation)      (None, 14, 14, 1024) 0           add_8[0][0]
__________________________________________________________________________________________________
res4b_branch2a (Conv2D)         (None, 14, 14, 128)  131200      activation_25[0][0]
__________________________________________________________________________________________________
bn4b_branch2a (BatchNormalizati (None, 14, 14, 128)  512         res4b_branch2a[0][0]
__________________________________________________________________________________________________
activation_26 (Activation)      (None, 14, 14, 128)  0           bn4b_branch2a[0][0]
__________________________________________________________________________________________________
res4b_branch2b (Conv2D)         (None, 14, 14, 128)  147584      activation_26[0][0]
__________________________________________________________________________________________________
bn4b_branch2b (BatchNormalizati (None, 14, 14, 128)  512         res4b_branch2b[0][0]
__________________________________________________________________________________________________
activation_27 (Activation)      (None, 14, 14, 128)  0           bn4b_branch2b[0][0]
__________________________________________________________________________________________________
res4b_branch2c (Conv2D)         (None, 14, 14, 1024) 132096      activation_27[0][0]
__________________________________________________________________________________________________
bn4b_branch2c (BatchNormalizati (None, 14, 14, 1024) 4096        res4b_branch2c[0][0]
__________________________________________________________________________________________________
add_9 (Add)                     (None, 14, 14, 1024) 0           bn4b_branch2c[0][0]
                                                                 activation_25[0][0]
__________________________________________________________________________________________________
activation_28 (Activation)      (None, 14, 14, 1024) 0           add_9[0][0]
__________________________________________________________________________________________________
res4c_branch2a (Conv2D)         (None, 14, 14, 128)  131200      activation_28[0][0]
__________________________________________________________________________________________________
bn4c_branch2a (BatchNormalizati (None, 14, 14, 128)  512         res4c_branch2a[0][0]
__________________________________________________________________________________________________
activation_29 (Activation)      (None, 14, 14, 128)  0           bn4c_branch2a[0][0]
__________________________________________________________________________________________________
res4c_branch2b (Conv2D)         (None, 14, 14, 128)  147584      activation_29[0][0]
__________________________________________________________________________________________________
bn4c_branch2b (BatchNormalizati (None, 14, 14, 128)  512         res4c_branch2b[0][0]
__________________________________________________________________________________________________
activation_30 (Activation)      (None, 14, 14, 128)  0           bn4c_branch2b[0][0]
__________________________________________________________________________________________________
res4c_branch2c (Conv2D)         (None, 14, 14, 1024) 132096      activation_30[0][0]
__________________________________________________________________________________________________
bn4c_branch2c (BatchNormalizati (None, 14, 14, 1024) 4096        res4c_branch2c[0][0]
__________________________________________________________________________________________________
add_10 (Add)                    (None, 14, 14, 1024) 0           bn4c_branch2c[0][0]
                                                                 activation_28[0][0]
__________________________________________________________________________________________________
activation_31 (Activation)      (None, 14, 14, 1024) 0           add_10[0][0]
__________________________________________________________________________________________________
res4d_branch2a (Conv2D)         (None, 14, 14, 128)  131200      activation_31[0][0]
__________________________________________________________________________________________________
bn4d_branch2a (BatchNormalizati (None, 14, 14, 128)  512         res4d_branch2a[0][0]
__________________________________________________________________________________________________
activation_32 (Activation)      (None, 14, 14, 128)  0           bn4d_branch2a[0][0]
__________________________________________________________________________________________________
res4d_branch2b (Conv2D)         (None, 14, 14, 128)  147584      activation_32[0][0]
__________________________________________________________________________________________________
bn4d_branch2b (BatchNormalizati (None, 14, 14, 128)  512         res4d_branch2b[0][0]
__________________________________________________________________________________________________
activation_33 (Activation)      (None, 14, 14, 128)  0           bn4d_branch2b[0][0]
__________________________________________________________________________________________________
res4d_branch2c (Conv2D)         (None, 14, 14, 1024) 132096      activation_33[0][0]
__________________________________________________________________________________________________
bn4d_branch2c (BatchNormalizati (None, 14, 14, 1024) 4096        res4d_branch2c[0][0]
__________________________________________________________________________________________________
add_11 (Add)                    (None, 14, 14, 1024) 0           bn4d_branch2c[0][0]
                                                                 activation_31[0][0]
__________________________________________________________________________________________________
activation_34 (Activation)      (None, 14, 14, 1024) 0           add_11[0][0]
__________________________________________________________________________________________________
res4e_branch2a (Conv2D)         (None, 14, 14, 128)  131200      activation_34[0][0]
__________________________________________________________________________________________________
bn4e_branch2a (BatchNormalizati (None, 14, 14, 128)  512         res4e_branch2a[0][0]
__________________________________________________________________________________________________
activation_35 (Activation)      (None, 14, 14, 128)  0           bn4e_branch2a[0][0]
__________________________________________________________________________________________________
res4e_branch2b (Conv2D)         (None, 14, 14, 128)  147584      activation_35[0][0]
__________________________________________________________________________________________________
bn4e_branch2b (BatchNormalizati (None, 14, 14, 128)  512         res4e_branch2b[0][0]
__________________________________________________________________________________________________
activation_36 (Activation)      (None, 14, 14, 128)  0           bn4e_branch2b[0][0]
__________________________________________________________________________________________________
res4e_branch2c (Conv2D)         (None, 14, 14, 1024) 132096      activation_36[0][0]
__________________________________________________________________________________________________
bn4e_branch2c (BatchNormalizati (None, 14, 14, 1024) 4096        res4e_branch2c[0][0]
__________________________________________________________________________________________________
add_12 (Add)                    (None, 14, 14, 1024) 0           bn4e_branch2c[0][0]
                                                                 activation_34[0][0]
__________________________________________________________________________________________________
activation_37 (Activation)      (None, 14, 14, 1024) 0           add_12[0][0]
__________________________________________________________________________________________________
res4f_branch2a (Conv2D)         (None, 14, 14, 128)  131200      activation_37[0][0]
__________________________________________________________________________________________________
bn4f_branch2a (BatchNormalizati (None, 14, 14, 128)  512         res4f_branch2a[0][0]
__________________________________________________________________________________________________
activation_38 (Activation)      (None, 14, 14, 128)  0           bn4f_branch2a[0][0]
__________________________________________________________________________________________________
res4f_branch2b (Conv2D)         (None, 14, 14, 128)  147584      activation_38[0][0]
__________________________________________________________________________________________________
bn4f_branch2b (BatchNormalizati (None, 14, 14, 128)  512         res4f_branch2b[0][0]
__________________________________________________________________________________________________
activation_39 (Activation)      (None, 14, 14, 128)  0           bn4f_branch2b[0][0]
__________________________________________________________________________________________________
res4f_branch2c (Conv2D)         (None, 14, 14, 1024) 132096      activation_39[0][0]
__________________________________________________________________________________________________
bn4f_branch2c (BatchNormalizati (None, 14, 14, 1024) 4096        res4f_branch2c[0][0]
__________________________________________________________________________________________________
add_13 (Add)                    (None, 14, 14, 1024) 0           bn4f_branch2c[0][0]
                                                                 activation_37[0][0]
__________________________________________________________________________________________________
activation_40 (Activation)      (None, 14, 14, 1024) 0           add_13[0][0]
__________________________________________________________________________________________________
res5a_branch2a (Conv2D)         (None, 7, 7, 256)    262400      activation_40[0][0]
__________________________________________________________________________________________________
bn5a_branch2a (BatchNormalizati (None, 7, 7, 256)    1024        res5a_branch2a[0][0]
__________________________________________________________________________________________________
activation_41 (Activation)      (None, 7, 7, 256)    0           bn5a_branch2a[0][0]
__________________________________________________________________________________________________
res5a_branch2b (Conv2D)         (None, 7, 7, 256)    590080      activation_41[0][0]
__________________________________________________________________________________________________
bn5a_branch2b (BatchNormalizati (None, 7, 7, 256)    1024        res5a_branch2b[0][0]
__________________________________________________________________________________________________
activation_42 (Activation)      (None, 7, 7, 256)    0           bn5a_branch2b[0][0]
__________________________________________________________________________________________________
res5a_branch2c (Conv2D)         (None, 7, 7, 2048)   526336      activation_42[0][0]
__________________________________________________________________________________________________
res5a_branch1 (Conv2D)          (None, 7, 7, 2048)   2099200     activation_40[0][0]
__________________________________________________________________________________________________
bn5a_branch2c (BatchNormalizati (None, 7, 7, 2048)   8192        res5a_branch2c[0][0]
__________________________________________________________________________________________________
bn5a_branch1 (BatchNormalizatio (None, 7, 7, 2048)   8192        res5a_branch1[0][0]
__________________________________________________________________________________________________
add_14 (Add)                    (None, 7, 7, 2048)   0           bn5a_branch2c[0][0]
                                                                 bn5a_branch1[0][0]
__________________________________________________________________________________________________
activation_43 (Activation)      (None, 7, 7, 2048)   0           add_14[0][0]
__________________________________________________________________________________________________
res5b_branch2a (Conv2D)         (None, 7, 7, 256)    524544      activation_43[0][0]
__________________________________________________________________________________________________
bn5b_branch2a (BatchNormalizati (None, 7, 7, 256)    1024        res5b_branch2a[0][0]
__________________________________________________________________________________________________
activation_44 (Activation)      (None, 7, 7, 256)    0           bn5b_branch2a[0][0]
__________________________________________________________________________________________________
res5b_branch2b (Conv2D)         (None, 7, 7, 256)    590080      activation_44[0][0]
__________________________________________________________________________________________________
bn5b_branch2b (BatchNormalizati (None, 7, 7, 256)    1024        res5b_branch2b[0][0]
__________________________________________________________________________________________________
activation_45 (Activation)      (None, 7, 7, 256)    0           bn5b_branch2b[0][0]
__________________________________________________________________________________________________
res5b_branch2c (Conv2D)         (None, 7, 7, 2048)   526336      activation_45[0][0]
__________________________________________________________________________________________________
bn5b_branch2c (BatchNormalizati (None, 7, 7, 2048)   8192        res5b_branch2c[0][0]
__________________________________________________________________________________________________
add_15 (Add)                    (None, 7, 7, 2048)   0           bn5b_branch2c[0][0]
                                                                 activation_43[0][0]
__________________________________________________________________________________________________
activation_46 (Activation)      (None, 7, 7, 2048)   0           add_15[0][0]
__________________________________________________________________________________________________
res5c_branch2a (Conv2D)         (None, 7, 7, 256)    524544      activation_46[0][0]
__________________________________________________________________________________________________
bn5c_branch2a (BatchNormalizati (None, 7, 7, 256)    1024        res5c_branch2a[0][0]
__________________________________________________________________________________________________
activation_47 (Activation)      (None, 7, 7, 256)    0           bn5c_branch2a[0][0]
__________________________________________________________________________________________________
res5c_branch2b (Conv2D)         (None, 7, 7, 256)    590080      activation_47[0][0]
__________________________________________________________________________________________________
bn5c_branch2b (BatchNormalizati (None, 7, 7, 256)    1024        res5c_branch2b[0][0]
__________________________________________________________________________________________________
activation_48 (Activation)      (None, 7, 7, 256)    0           bn5c_branch2b[0][0]
__________________________________________________________________________________________________
res5c_branch2c (Conv2D)         (None, 7, 7, 2048)   526336      activation_48[0][0]
__________________________________________________________________________________________________
bn5c_branch2c (BatchNormalizati (None, 7, 7, 2048)   8192        res5c_branch2c[0][0]
__________________________________________________________________________________________________
add_16 (Add)                    (None, 7, 7, 2048)   0           bn5c_branch2c[0][0]
                                                                 activation_46[0][0]
__________________________________________________________________________________________________
activation_49 (Activation)      (None, 7, 7, 2048)   0           add_16[0][0]
__________________________________________________________________________________________________
avg_pool (AveragePooling2D)     (None, 1, 1, 2048)   0           activation_49[0][0]
__________________________________________________________________________________________________
flatten_1 (Flatten)             (None, 2048)         0           avg_pool[0][0]
__________________________________________________________________________________________________
fc1000 (Dense)                  (None, 10)           20490       flatten_1[0][0]
==================================================================================================
Total params: 10,421,706
Trainable params: 10,376,138
Non-trainable params: 45,568
__________________________________________________________________________________________________
Epoch 1/20
780/781 [============================>.] - ETA: 0s - loss: 0.2166 - acc: 0.9315Epoch 00001: val_acc improved from -inf to 0.92137, saving model to ./resnet/results/80_1/80_best.h5
…
