…
2017-11-25 22:08:45.704376: I tensorflow/core/common_runtime/gpu/gpu_device.cc:1045] Creating TensorFlow device (/gpu:0) -> (device: 0, name: GeForce GTX 1080 Ti, pci bus id: 0000:01:00.0)
Found 63911 images belonging to 50 classes.
Found 2500 images belonging to 50 classes.
[4.4115202243511495, 0.026041666666666668]
Found 63911 images belonging to 50 classes.
Found 2500 images belonging to 50 classes.
__________________________________________________________________________________________________
Layer (type)                    Output Shape         Param #     Connected to
==================================================================================================
input_1 (InputLayer)            (None, 224, 224, 3)  0
__________________________________________________________________________________________________
conv1 (Conv2D)                  (None, 112, 112, 64) 9472        input_1[0][0]
__________________________________________________________________________________________________
bn_conv1 (BatchNormalization)   (None, 112, 112, 64) 256         conv1[0][0]
__________________________________________________________________________________________________
activation_1 (Activation)       (None, 112, 112, 64) 0           bn_conv1[0][0]
__________________________________________________________________________________________________
max_pooling2d_1 (MaxPooling2D)  (None, 55, 55, 64)   0           activation_1[0][0]
__________________________________________________________________________________________________
res2a_branch2a (Conv2D)         (None, 55, 55, 64)   4160        max_pooling2d_1[0][0]
__________________________________________________________________________________________________
bn2a_branch2a (BatchNormalizati (None, 55, 55, 64)   256         res2a_branch2a[0][0]
__________________________________________________________________________________________________
activation_2 (Activation)       (None, 55, 55, 64)   0           bn2a_branch2a[0][0]
__________________________________________________________________________________________________
res2a_branch2b (Conv2D)         (None, 55, 55, 64)   36928       activation_2[0][0]
__________________________________________________________________________________________________
bn2a_branch2b (BatchNormalizati (None, 55, 55, 64)   256         res2a_branch2b[0][0]
__________________________________________________________________________________________________
activation_3 (Activation)       (None, 55, 55, 64)   0           bn2a_branch2b[0][0]
__________________________________________________________________________________________________
res2a_branch2c (Conv2D)         (None, 55, 55, 256)  16640       activation_3[0][0]
__________________________________________________________________________________________________
res2a_branch1 (Conv2D)          (None, 55, 55, 256)  16640       max_pooling2d_1[0][0]
__________________________________________________________________________________________________
bn2a_branch2c (BatchNormalizati (None, 55, 55, 256)  1024        res2a_branch2c[0][0]
__________________________________________________________________________________________________
bn2a_branch1 (BatchNormalizatio (None, 55, 55, 256)  1024        res2a_branch1[0][0]
__________________________________________________________________________________________________
add_1 (Add)                     (None, 55, 55, 256)  0           bn2a_branch2c[0][0]
                                                                 bn2a_branch1[0][0]
__________________________________________________________________________________________________
activation_4 (Activation)       (None, 55, 55, 256)  0           add_1[0][0]
__________________________________________________________________________________________________
res2b_branch2a (Conv2D)         (None, 55, 55, 64)   16448       activation_4[0][0]
__________________________________________________________________________________________________
bn2b_branch2a (BatchNormalizati (None, 55, 55, 64)   256         res2b_branch2a[0][0]
__________________________________________________________________________________________________
activation_5 (Activation)       (None, 55, 55, 64)   0           bn2b_branch2a[0][0]
__________________________________________________________________________________________________
res2b_branch2b (Conv2D)         (None, 55, 55, 64)   36928       activation_5[0][0]
__________________________________________________________________________________________________
bn2b_branch2b (BatchNormalizati (None, 55, 55, 64)   256         res2b_branch2b[0][0]
__________________________________________________________________________________________________
activation_6 (Activation)       (None, 55, 55, 64)   0           bn2b_branch2b[0][0]
__________________________________________________________________________________________________
res2b_branch2c (Conv2D)         (None, 55, 55, 256)  16640       activation_6[0][0]
__________________________________________________________________________________________________
bn2b_branch2c (BatchNormalizati (None, 55, 55, 256)  1024        res2b_branch2c[0][0]
__________________________________________________________________________________________________
add_2 (Add)                     (None, 55, 55, 256)  0           bn2b_branch2c[0][0]
                                                                 activation_4[0][0]
__________________________________________________________________________________________________
ee2b (Activation)               (None, 55, 55, 256)  0           add_2[0][0]
__________________________________________________________________________________________________
res2c_branch2a (Conv2D)         (None, 55, 55, 64)   16448       ee2b[0][0]
__________________________________________________________________________________________________
bn2c_branch2a (BatchNormalizati (None, 55, 55, 64)   256         res2c_branch2a[0][0]
__________________________________________________________________________________________________
activation_7 (Activation)       (None, 55, 55, 64)   0           bn2c_branch2a[0][0]
__________________________________________________________________________________________________
res2c_branch2b (Conv2D)         (None, 55, 55, 64)   36928       activation_7[0][0]
__________________________________________________________________________________________________
bn2c_branch2b (BatchNormalizati (None, 55, 55, 64)   256         res2c_branch2b[0][0]
__________________________________________________________________________________________________
activation_8 (Activation)       (None, 55, 55, 64)   0           bn2c_branch2b[0][0]
__________________________________________________________________________________________________
res2c_branch2c (Conv2D)         (None, 55, 55, 256)  16640       activation_8[0][0]
__________________________________________________________________________________________________
bn2c_branch2c (BatchNormalizati (None, 55, 55, 256)  1024        res2c_branch2c[0][0]
__________________________________________________________________________________________________
add_3 (Add)                     (None, 55, 55, 256)  0           bn2c_branch2c[0][0]
                                                                 ee2b[0][0]
__________________________________________________________________________________________________
ee2c (Activation)               (None, 55, 55, 256)  0           add_3[0][0]
__________________________________________________________________________________________________
res3a_branch2a (Conv2D)         (None, 28, 28, 128)  32896       ee2c[0][0]
__________________________________________________________________________________________________
bn3a_branch2a (BatchNormalizati (None, 28, 28, 128)  512         res3a_branch2a[0][0]
__________________________________________________________________________________________________
activation_9 (Activation)       (None, 28, 28, 128)  0           bn3a_branch2a[0][0]
__________________________________________________________________________________________________
res3a_branch2b (Conv2D)         (None, 28, 28, 128)  147584      activation_9[0][0]
__________________________________________________________________________________________________
bn3a_branch2b (BatchNormalizati (None, 28, 28, 128)  512         res3a_branch2b[0][0]
__________________________________________________________________________________________________
activation_10 (Activation)      (None, 28, 28, 128)  0           bn3a_branch2b[0][0]
__________________________________________________________________________________________________
res3a_branch2c (Conv2D)         (None, 28, 28, 512)  66048       activation_10[0][0]
__________________________________________________________________________________________________
res3a_branch1 (Conv2D)          (None, 28, 28, 512)  131584      ee2c[0][0]
__________________________________________________________________________________________________
bn3a_branch2c (BatchNormalizati (None, 28, 28, 512)  2048        res3a_branch2c[0][0]
__________________________________________________________________________________________________
bn3a_branch1 (BatchNormalizatio (None, 28, 28, 512)  2048        res3a_branch1[0][0]
__________________________________________________________________________________________________
add_4 (Add)                     (None, 28, 28, 512)  0           bn3a_branch2c[0][0]
                                                                 bn3a_branch1[0][0]
__________________________________________________________________________________________________
activation_11 (Activation)      (None, 28, 28, 512)  0           add_4[0][0]
__________________________________________________________________________________________________
res3b_branch2a (Conv2D)         (None, 28, 28, 128)  65664       activation_11[0][0]
__________________________________________________________________________________________________
bn3b_branch2a (BatchNormalizati (None, 28, 28, 128)  512         res3b_branch2a[0][0]
__________________________________________________________________________________________________
activation_12 (Activation)      (None, 28, 28, 128)  0           bn3b_branch2a[0][0]
__________________________________________________________________________________________________
res3b_branch2b (Conv2D)         (None, 28, 28, 128)  147584      activation_12[0][0]
__________________________________________________________________________________________________
bn3b_branch2b (BatchNormalizati (None, 28, 28, 128)  512         res3b_branch2b[0][0]
__________________________________________________________________________________________________
activation_13 (Activation)      (None, 28, 28, 128)  0           bn3b_branch2b[0][0]
__________________________________________________________________________________________________
res3b_branch2c (Conv2D)         (None, 28, 28, 512)  66048       activation_13[0][0]
__________________________________________________________________________________________________
bn3b_branch2c (BatchNormalizati (None, 28, 28, 512)  2048        res3b_branch2c[0][0]
__________________________________________________________________________________________________
add_5 (Add)                     (None, 28, 28, 512)  0           bn3b_branch2c[0][0]
                                                                 activation_11[0][0]
__________________________________________________________________________________________________
ee3b (Activation)               (None, 28, 28, 512)  0           add_5[0][0]
__________________________________________________________________________________________________
res3c_branch2a (Conv2D)         (None, 28, 28, 128)  65664       ee3b[0][0]
__________________________________________________________________________________________________
bn3c_branch2a (BatchNormalizati (None, 28, 28, 128)  512         res3c_branch2a[0][0]
__________________________________________________________________________________________________
activation_14 (Activation)      (None, 28, 28, 128)  0           bn3c_branch2a[0][0]
__________________________________________________________________________________________________
res3c_branch2b (Conv2D)         (None, 28, 28, 128)  147584      activation_14[0][0]
__________________________________________________________________________________________________
bn3c_branch2b (BatchNormalizati (None, 28, 28, 128)  512         res3c_branch2b[0][0]
__________________________________________________________________________________________________
activation_15 (Activation)      (None, 28, 28, 128)  0           bn3c_branch2b[0][0]
__________________________________________________________________________________________________
res3c_branch2c (Conv2D)         (None, 28, 28, 512)  66048       activation_15[0][0]
__________________________________________________________________________________________________
bn3c_branch2c (BatchNormalizati (None, 28, 28, 512)  2048        res3c_branch2c[0][0]
__________________________________________________________________________________________________
add_6 (Add)                     (None, 28, 28, 512)  0           bn3c_branch2c[0][0]
                                                                 ee3b[0][0]
__________________________________________________________________________________________________
ee3c (Activation)               (None, 28, 28, 512)  0           add_6[0][0]
__________________________________________________________________________________________________
res3d_branch2a (Conv2D)         (None, 28, 28, 128)  65664       ee3c[0][0]
__________________________________________________________________________________________________
bn3d_branch2a (BatchNormalizati (None, 28, 28, 128)  512         res3d_branch2a[0][0]
__________________________________________________________________________________________________
activation_16 (Activation)      (None, 28, 28, 128)  0           bn3d_branch2a[0][0]
__________________________________________________________________________________________________
res3d_branch2b (Conv2D)         (None, 28, 28, 128)  147584      activation_16[0][0]
__________________________________________________________________________________________________
bn3d_branch2b (BatchNormalizati (None, 28, 28, 128)  512         res3d_branch2b[0][0]
__________________________________________________________________________________________________
activation_17 (Activation)      (None, 28, 28, 128)  0           bn3d_branch2b[0][0]
__________________________________________________________________________________________________
res3d_branch2c (Conv2D)         (None, 28, 28, 512)  66048       activation_17[0][0]
__________________________________________________________________________________________________
bn3d_branch2c (BatchNormalizati (None, 28, 28, 512)  2048        res3d_branch2c[0][0]
__________________________________________________________________________________________________
add_7 (Add)                     (None, 28, 28, 512)  0           bn3d_branch2c[0][0]
                                                                 ee3c[0][0]
__________________________________________________________________________________________________
ee3d (Activation)               (None, 28, 28, 512)  0           add_7[0][0]
__________________________________________________________________________________________________
res4a_branch2a (Conv2D)         (None, 14, 14, 256)  131328      ee3d[0][0]
__________________________________________________________________________________________________
bn4a_branch2a (BatchNormalizati (None, 14, 14, 256)  1024        res4a_branch2a[0][0]
__________________________________________________________________________________________________
activation_18 (Activation)      (None, 14, 14, 256)  0           bn4a_branch2a[0][0]
__________________________________________________________________________________________________
res4a_branch2b (Conv2D)         (None, 14, 14, 256)  590080      activation_18[0][0]
__________________________________________________________________________________________________
bn4a_branch2b (BatchNormalizati (None, 14, 14, 256)  1024        res4a_branch2b[0][0]
__________________________________________________________________________________________________
activation_19 (Activation)      (None, 14, 14, 256)  0           bn4a_branch2b[0][0]
__________________________________________________________________________________________________
res4a_branch2c (Conv2D)         (None, 14, 14, 1024) 263168      activation_19[0][0]
__________________________________________________________________________________________________
res4a_branch1 (Conv2D)          (None, 14, 14, 1024) 525312      ee3d[0][0]
__________________________________________________________________________________________________
bn4a_branch2c (BatchNormalizati (None, 14, 14, 1024) 4096        res4a_branch2c[0][0]
__________________________________________________________________________________________________
bn4a_branch1 (BatchNormalizatio (None, 14, 14, 1024) 4096        res4a_branch1[0][0]
__________________________________________________________________________________________________
add_8 (Add)                     (None, 14, 14, 1024) 0           bn4a_branch2c[0][0]
                                                                 bn4a_branch1[0][0]
__________________________________________________________________________________________________
activation_20 (Activation)      (None, 14, 14, 1024) 0           add_8[0][0]
__________________________________________________________________________________________________
res4b_branch2a (Conv2D)         (None, 14, 14, 256)  262400      activation_20[0][0]
__________________________________________________________________________________________________
bn4b_branch2a (BatchNormalizati (None, 14, 14, 256)  1024        res4b_branch2a[0][0]
__________________________________________________________________________________________________
activation_21 (Activation)      (None, 14, 14, 256)  0           bn4b_branch2a[0][0]
__________________________________________________________________________________________________
res4b_branch2b (Conv2D)         (None, 14, 14, 256)  590080      activation_21[0][0]
__________________________________________________________________________________________________
bn4b_branch2b (BatchNormalizati (None, 14, 14, 256)  1024        res4b_branch2b[0][0]
__________________________________________________________________________________________________
activation_22 (Activation)      (None, 14, 14, 256)  0           bn4b_branch2b[0][0]
__________________________________________________________________________________________________
res4b_branch2c (Conv2D)         (None, 14, 14, 1024) 263168      activation_22[0][0]
__________________________________________________________________________________________________
bn4b_branch2c (BatchNormalizati (None, 14, 14, 1024) 4096        res4b_branch2c[0][0]
__________________________________________________________________________________________________
add_9 (Add)                     (None, 14, 14, 1024) 0           bn4b_branch2c[0][0]
                                                                 activation_20[0][0]
__________________________________________________________________________________________________
ee4b (Activation)               (None, 14, 14, 1024) 0           add_9[0][0]
__________________________________________________________________________________________________
res4c_branch2a (Conv2D)         (None, 14, 14, 256)  262400      ee4b[0][0]
__________________________________________________________________________________________________
bn4c_branch2a (BatchNormalizati (None, 14, 14, 256)  1024        res4c_branch2a[0][0]
__________________________________________________________________________________________________
activation_23 (Activation)      (None, 14, 14, 256)  0           bn4c_branch2a[0][0]
__________________________________________________________________________________________________
res4c_branch2b (Conv2D)         (None, 14, 14, 256)  590080      activation_23[0][0]
__________________________________________________________________________________________________
bn4c_branch2b (BatchNormalizati (None, 14, 14, 256)  1024        res4c_branch2b[0][0]
__________________________________________________________________________________________________
activation_24 (Activation)      (None, 14, 14, 256)  0           bn4c_branch2b[0][0]
__________________________________________________________________________________________________
res4c_branch2c (Conv2D)         (None, 14, 14, 1024) 263168      activation_24[0][0]
__________________________________________________________________________________________________
bn4c_branch2c (BatchNormalizati (None, 14, 14, 1024) 4096        res4c_branch2c[0][0]
__________________________________________________________________________________________________
add_10 (Add)                    (None, 14, 14, 1024) 0           bn4c_branch2c[0][0]
                                                                 ee4b[0][0]
__________________________________________________________________________________________________
ee4c (Activation)               (None, 14, 14, 1024) 0           add_10[0][0]
__________________________________________________________________________________________________
res4d_branch2a (Conv2D)         (None, 14, 14, 256)  262400      ee4c[0][0]
__________________________________________________________________________________________________
bn4d_branch2a (BatchNormalizati (None, 14, 14, 256)  1024        res4d_branch2a[0][0]
__________________________________________________________________________________________________
activation_25 (Activation)      (None, 14, 14, 256)  0           bn4d_branch2a[0][0]
__________________________________________________________________________________________________
res4d_branch2b (Conv2D)         (None, 14, 14, 256)  590080      activation_25[0][0]
__________________________________________________________________________________________________
bn4d_branch2b (BatchNormalizati (None, 14, 14, 256)  1024        res4d_branch2b[0][0]
__________________________________________________________________________________________________
activation_26 (Activation)      (None, 14, 14, 256)  0           bn4d_branch2b[0][0]
__________________________________________________________________________________________________
res4d_branch2c (Conv2D)         (None, 14, 14, 1024) 263168      activation_26[0][0]
__________________________________________________________________________________________________
bn4d_branch2c (BatchNormalizati (None, 14, 14, 1024) 4096        res4d_branch2c[0][0]
__________________________________________________________________________________________________
add_11 (Add)                    (None, 14, 14, 1024) 0           bn4d_branch2c[0][0]
                                                                 ee4c[0][0]
__________________________________________________________________________________________________
ee4d (Activation)               (None, 14, 14, 1024) 0           add_11[0][0]
__________________________________________________________________________________________________
res4e_branch2a (Conv2D)         (None, 14, 14, 256)  262400      ee4d[0][0]
__________________________________________________________________________________________________
bn4e_branch2a (BatchNormalizati (None, 14, 14, 256)  1024        res4e_branch2a[0][0]
__________________________________________________________________________________________________
activation_27 (Activation)      (None, 14, 14, 256)  0           bn4e_branch2a[0][0]
__________________________________________________________________________________________________
res4e_branch2b (Conv2D)         (None, 14, 14, 256)  590080      activation_27[0][0]
__________________________________________________________________________________________________
bn4e_branch2b (BatchNormalizati (None, 14, 14, 256)  1024        res4e_branch2b[0][0]
__________________________________________________________________________________________________
activation_28 (Activation)      (None, 14, 14, 256)  0           bn4e_branch2b[0][0]
__________________________________________________________________________________________________
res4e_branch2c (Conv2D)         (None, 14, 14, 1024) 263168      activation_28[0][0]
__________________________________________________________________________________________________
bn4e_branch2c (BatchNormalizati (None, 14, 14, 1024) 4096        res4e_branch2c[0][0]
__________________________________________________________________________________________________
add_12 (Add)                    (None, 14, 14, 1024) 0           bn4e_branch2c[0][0]
                                                                 ee4d[0][0]
__________________________________________________________________________________________________
ee4e (Activation)               (None, 14, 14, 1024) 0           add_12[0][0]
__________________________________________________________________________________________________
res4f_branch2a (Conv2D)         (None, 14, 14, 256)  262400      ee4e[0][0]
__________________________________________________________________________________________________
bn4f_branch2a (BatchNormalizati (None, 14, 14, 256)  1024        res4f_branch2a[0][0]
__________________________________________________________________________________________________
activation_29 (Activation)      (None, 14, 14, 256)  0           bn4f_branch2a[0][0]
__________________________________________________________________________________________________
res4f_branch2b (Conv2D)         (None, 14, 14, 256)  590080      activation_29[0][0]
__________________________________________________________________________________________________
bn4f_branch2b (BatchNormalizati (None, 14, 14, 256)  1024        res4f_branch2b[0][0]
__________________________________________________________________________________________________
activation_30 (Activation)      (None, 14, 14, 256)  0           bn4f_branch2b[0][0]
__________________________________________________________________________________________________
res4f_branch2c (Conv2D)         (None, 14, 14, 1024) 263168      activation_30[0][0]
__________________________________________________________________________________________________
bn4f_branch2c (BatchNormalizati (None, 14, 14, 1024) 4096        res4f_branch2c[0][0]
__________________________________________________________________________________________________
add_13 (Add)                    (None, 14, 14, 1024) 0           bn4f_branch2c[0][0]
                                                                 ee4e[0][0]
__________________________________________________________________________________________________
ee4f (Activation)               (None, 14, 14, 1024) 0           add_13[0][0]
__________________________________________________________________________________________________
res5a_branch2a (Conv2D)         (None, 7, 7, 512)    524800      ee4f[0][0]
__________________________________________________________________________________________________
bn5a_branch2a (BatchNormalizati (None, 7, 7, 512)    2048        res5a_branch2a[0][0]
__________________________________________________________________________________________________
activation_31 (Activation)      (None, 7, 7, 512)    0           bn5a_branch2a[0][0]
__________________________________________________________________________________________________
res5a_branch2b (Conv2D)         (None, 7, 7, 512)    2359808     activation_31[0][0]
__________________________________________________________________________________________________
bn5a_branch2b (BatchNormalizati (None, 7, 7, 512)    2048        res5a_branch2b[0][0]
__________________________________________________________________________________________________
activation_32 (Activation)      (None, 7, 7, 512)    0           bn5a_branch2b[0][0]
__________________________________________________________________________________________________
res5a_branch2c (Conv2D)         (None, 7, 7, 2048)   1050624     activation_32[0][0]
__________________________________________________________________________________________________
res5a_branch1 (Conv2D)          (None, 7, 7, 2048)   2099200     ee4f[0][0]
__________________________________________________________________________________________________
bn5a_branch2c (BatchNormalizati (None, 7, 7, 2048)   8192        res5a_branch2c[0][0]
__________________________________________________________________________________________________
bn5a_branch1 (BatchNormalizatio (None, 7, 7, 2048)   8192        res5a_branch1[0][0]
__________________________________________________________________________________________________
add_14 (Add)                    (None, 7, 7, 2048)   0           bn5a_branch2c[0][0]
                                                                 bn5a_branch1[0][0]
__________________________________________________________________________________________________
activation_33 (Activation)      (None, 7, 7, 2048)   0           add_14[0][0]
__________________________________________________________________________________________________
res5b_branch2a (Conv2D)         (None, 7, 7, 512)    1049088     activation_33[0][0]
__________________________________________________________________________________________________
bn5b_branch2a (BatchNormalizati (None, 7, 7, 512)    2048        res5b_branch2a[0][0]
__________________________________________________________________________________________________
activation_34 (Activation)      (None, 7, 7, 512)    0           bn5b_branch2a[0][0]
__________________________________________________________________________________________________
res5b_branch2b (Conv2D)         (None, 7, 7, 512)    2359808     activation_34[0][0]
__________________________________________________________________________________________________
bn5b_branch2b (BatchNormalizati (None, 7, 7, 512)    2048        res5b_branch2b[0][0]
__________________________________________________________________________________________________
activation_35 (Activation)      (None, 7, 7, 512)    0           bn5b_branch2b[0][0]
__________________________________________________________________________________________________
res5b_branch2c (Conv2D)         (None, 7, 7, 2048)   1050624     activation_35[0][0]
__________________________________________________________________________________________________
bn5b_branch2c (BatchNormalizati (None, 7, 7, 2048)   8192        res5b_branch2c[0][0]
__________________________________________________________________________________________________
add_15 (Add)                    (None, 7, 7, 2048)   0           bn5b_branch2c[0][0]
                                                                 activation_33[0][0]
__________________________________________________________________________________________________
ee5b (Activation)               (None, 7, 7, 2048)   0           add_15[0][0]
__________________________________________________________________________________________________
res5c_branch2a (Conv2D)         (None, 7, 7, 512)    1049088     ee5b[0][0]
__________________________________________________________________________________________________
bn5c_branch2a (BatchNormalizati (None, 7, 7, 512)    2048        res5c_branch2a[0][0]
__________________________________________________________________________________________________
activation_36 (Activation)      (None, 7, 7, 512)    0           bn5c_branch2a[0][0]
__________________________________________________________________________________________________
res5c_branch2b (Conv2D)         (None, 7, 7, 512)    2359808     activation_36[0][0]
__________________________________________________________________________________________________
bn5c_branch2b (BatchNormalizati (None, 7, 7, 512)    2048        res5c_branch2b[0][0]
__________________________________________________________________________________________________
activation_37 (Activation)      (None, 7, 7, 512)    0           bn5c_branch2b[0][0]
__________________________________________________________________________________________________
res5c_branch2c (Conv2D)         (None, 7, 7, 2048)   1050624     activation_37[0][0]
__________________________________________________________________________________________________
bn5c_branch2c (BatchNormalizati (None, 7, 7, 2048)   8192        res5c_branch2c[0][0]
__________________________________________________________________________________________________
add_16 (Add)                    (None, 7, 7, 2048)   0           bn5c_branch2c[0][0]
                                                                 ee5b[0][0]
__________________________________________________________________________________________________
ee5c (Activation)               (None, 7, 7, 2048)   0           add_16[0][0]
__________________________________________________________________________________________________
avg_pool (AveragePooling2D)     (None, 1, 1, 2048)   0           ee5c[0][0]
__________________________________________________________________________________________________
flatten_1 (Flatten)             (None, 2048)         0           avg_pool[0][0]
__________________________________________________________________________________________________
fc1000 (Dense)                  (None, 50)           102450      flatten_1[0][0]
==================================================================================================
Total params: 23,690,162
Trainable params: 23,637,042
Non-trainable params: 53,120
__________________________________________________________________________________________________
Epoch 1/20
875/998 [=========================>....] - ETA: 2:21 - loss: 0.8529 - acc: 0.7554/home/xiao/anaconda2/envs/tf/lib/python3.5/site-packages/PIL/TiffImagePlugin.py:742: UserWarning: Corrupt EXIF data.  Expecting to read 4 bytes but only got 0.
…
2017-11-26 01:57:16.819183: I tensorflow/core/common_runtime/gpu/gpu_device.cc:1045] Creating TensorFlow device (/gpu:0) -> (device: 0, name: GeForce GTX 1080 Ti, pci bus id: 0000:01:00.0)
Found 63911 images belonging to 50 classes.
Found 2500 images belonging to 50 classes.
[3.6410918663709593, 0.31610576923076922]
Found 63911 images belonging to 50 classes.
Found 2500 images belonging to 50 classes.
__________________________________________________________________________________________________
Layer (type)                    Output Shape         Param #     Connected to
==================================================================================================
input_1 (InputLayer)            (None, 224, 224, 3)  0
__________________________________________________________________________________________________
conv1 (Conv2D)                  (None, 112, 112, 64) 9472        input_1[0][0]
__________________________________________________________________________________________________
bn_conv1 (BatchNormalization)   (None, 112, 112, 64) 256         conv1[0][0]
__________________________________________________________________________________________________
activation_1 (Activation)       (None, 112, 112, 64) 0           bn_conv1[0][0]
__________________________________________________________________________________________________
max_pooling2d_1 (MaxPooling2D)  (None, 55, 55, 64)   0           activation_1[0][0]
__________________________________________________________________________________________________
res2a_branch2a (Conv2D)         (None, 55, 55, 64)   4160        max_pooling2d_1[0][0]
__________________________________________________________________________________________________
bn2a_branch2a (BatchNormalizati (None, 55, 55, 64)   256         res2a_branch2a[0][0]
__________________________________________________________________________________________________
activation_2 (Activation)       (None, 55, 55, 64)   0           bn2a_branch2a[0][0]
__________________________________________________________________________________________________
res2a_branch2b (Conv2D)         (None, 55, 55, 32)   18464       activation_2[0][0]
__________________________________________________________________________________________________
bn2a_branch2b (BatchNormalizati (None, 55, 55, 32)   128         res2a_branch2b[0][0]
__________________________________________________________________________________________________
activation_3 (Activation)       (None, 55, 55, 32)   0           bn2a_branch2b[0][0]
__________________________________________________________________________________________________
res2a_branch2c (Conv2D)         (None, 55, 55, 256)  8448        activation_3[0][0]
__________________________________________________________________________________________________
res2a_branch1 (Conv2D)          (None, 55, 55, 256)  16640       max_pooling2d_1[0][0]
__________________________________________________________________________________________________
bn2a_branch2c (BatchNormalizati (None, 55, 55, 256)  1024        res2a_branch2c[0][0]
__________________________________________________________________________________________________
bn2a_branch1 (BatchNormalizatio (None, 55, 55, 256)  1024        res2a_branch1[0][0]
__________________________________________________________________________________________________
add_1 (Add)                     (None, 55, 55, 256)  0           bn2a_branch2c[0][0]
                                                                 bn2a_branch1[0][0]
__________________________________________________________________________________________________
activation_4 (Activation)       (None, 55, 55, 256)  0           add_1[0][0]
__________________________________________________________________________________________________
res2b_branch2a (Conv2D)         (None, 55, 55, 64)   16448       activation_4[0][0]
__________________________________________________________________________________________________
bn2b_branch2a (BatchNormalizati (None, 55, 55, 64)   256         res2b_branch2a[0][0]
__________________________________________________________________________________________________
activation_5 (Activation)       (None, 55, 55, 64)   0           bn2b_branch2a[0][0]
__________________________________________________________________________________________________
res2b_branch2b (Conv2D)         (None, 55, 55, 32)   18464       activation_5[0][0]
__________________________________________________________________________________________________
bn2b_branch2b (BatchNormalizati (None, 55, 55, 32)   128         res2b_branch2b[0][0]
__________________________________________________________________________________________________
activation_6 (Activation)       (None, 55, 55, 32)   0           bn2b_branch2b[0][0]
__________________________________________________________________________________________________
res2b_branch2c (Conv2D)         (None, 55, 55, 256)  8448        activation_6[0][0]
__________________________________________________________________________________________________
bn2b_branch2c (BatchNormalizati (None, 55, 55, 256)  1024        res2b_branch2c[0][0]
__________________________________________________________________________________________________
add_2 (Add)                     (None, 55, 55, 256)  0           bn2b_branch2c[0][0]
                                                                 activation_4[0][0]
__________________________________________________________________________________________________
ee2b (Activation)               (None, 55, 55, 256)  0           add_2[0][0]
__________________________________________________________________________________________________
res2c_branch2a (Conv2D)         (None, 55, 55, 64)   16448       ee2b[0][0]
__________________________________________________________________________________________________
bn2c_branch2a (BatchNormalizati (None, 55, 55, 64)   256         res2c_branch2a[0][0]
__________________________________________________________________________________________________
activation_7 (Activation)       (None, 55, 55, 64)   0           bn2c_branch2a[0][0]
__________________________________________________________________________________________________
res2c_branch2b (Conv2D)         (None, 55, 55, 32)   18464       activation_7[0][0]
__________________________________________________________________________________________________
bn2c_branch2b (BatchNormalizati (None, 55, 55, 32)   128         res2c_branch2b[0][0]
__________________________________________________________________________________________________
activation_8 (Activation)       (None, 55, 55, 32)   0           bn2c_branch2b[0][0]
__________________________________________________________________________________________________
res2c_branch2c (Conv2D)         (None, 55, 55, 256)  8448        activation_8[0][0]
__________________________________________________________________________________________________
bn2c_branch2c (BatchNormalizati (None, 55, 55, 256)  1024        res2c_branch2c[0][0]
__________________________________________________________________________________________________
add_3 (Add)                     (None, 55, 55, 256)  0           bn2c_branch2c[0][0]
                                                                 ee2b[0][0]
__________________________________________________________________________________________________
ee2c (Activation)               (None, 55, 55, 256)  0           add_3[0][0]
__________________________________________________________________________________________________
res3a_branch2a (Conv2D)         (None, 28, 28, 128)  32896       ee2c[0][0]
__________________________________________________________________________________________________
bn3a_branch2a (BatchNormalizati (None, 28, 28, 128)  512         res3a_branch2a[0][0]
__________________________________________________________________________________________________
activation_9 (Activation)       (None, 28, 28, 128)  0           bn3a_branch2a[0][0]
__________________________________________________________________________________________________
res3a_branch2b (Conv2D)         (None, 28, 28, 64)   73792       activation_9[0][0]
__________________________________________________________________________________________________
bn3a_branch2b (BatchNormalizati (None, 28, 28, 64)   256         res3a_branch2b[0][0]
__________________________________________________________________________________________________
activation_10 (Activation)      (None, 28, 28, 64)   0           bn3a_branch2b[0][0]
__________________________________________________________________________________________________
res3a_branch2c (Conv2D)         (None, 28, 28, 512)  33280       activation_10[0][0]
__________________________________________________________________________________________________
res3a_branch1 (Conv2D)          (None, 28, 28, 512)  131584      ee2c[0][0]
__________________________________________________________________________________________________
bn3a_branch2c (BatchNormalizati (None, 28, 28, 512)  2048        res3a_branch2c[0][0]
__________________________________________________________________________________________________
bn3a_branch1 (BatchNormalizatio (None, 28, 28, 512)  2048        res3a_branch1[0][0]
__________________________________________________________________________________________________
add_4 (Add)                     (None, 28, 28, 512)  0           bn3a_branch2c[0][0]
                                                                 bn3a_branch1[0][0]
__________________________________________________________________________________________________
activation_11 (Activation)      (None, 28, 28, 512)  0           add_4[0][0]
__________________________________________________________________________________________________
res3b_branch2a (Conv2D)         (None, 28, 28, 128)  65664       activation_11[0][0]
__________________________________________________________________________________________________
bn3b_branch2a (BatchNormalizati (None, 28, 28, 128)  512         res3b_branch2a[0][0]
__________________________________________________________________________________________________
activation_12 (Activation)      (None, 28, 28, 128)  0           bn3b_branch2a[0][0]
__________________________________________________________________________________________________
res3b_branch2b (Conv2D)         (None, 28, 28, 64)   73792       activation_12[0][0]
__________________________________________________________________________________________________
bn3b_branch2b (BatchNormalizati (None, 28, 28, 64)   256         res3b_branch2b[0][0]
__________________________________________________________________________________________________
activation_13 (Activation)      (None, 28, 28, 64)   0           bn3b_branch2b[0][0]
__________________________________________________________________________________________________
res3b_branch2c (Conv2D)         (None, 28, 28, 512)  33280       activation_13[0][0]
__________________________________________________________________________________________________
bn3b_branch2c (BatchNormalizati (None, 28, 28, 512)  2048        res3b_branch2c[0][0]
__________________________________________________________________________________________________
add_5 (Add)                     (None, 28, 28, 512)  0           bn3b_branch2c[0][0]
                                                                 activation_11[0][0]
__________________________________________________________________________________________________
ee3b (Activation)               (None, 28, 28, 512)  0           add_5[0][0]
__________________________________________________________________________________________________
res3c_branch2a (Conv2D)         (None, 28, 28, 128)  65664       ee3b[0][0]
__________________________________________________________________________________________________
bn3c_branch2a (BatchNormalizati (None, 28, 28, 128)  512         res3c_branch2a[0][0]
__________________________________________________________________________________________________
activation_14 (Activation)      (None, 28, 28, 128)  0           bn3c_branch2a[0][0]
__________________________________________________________________________________________________
res3c_branch2b (Conv2D)         (None, 28, 28, 64)   73792       activation_14[0][0]
__________________________________________________________________________________________________
bn3c_branch2b (BatchNormalizati (None, 28, 28, 64)   256         res3c_branch2b[0][0]
__________________________________________________________________________________________________
activation_15 (Activation)      (None, 28, 28, 64)   0           bn3c_branch2b[0][0]
__________________________________________________________________________________________________
res3c_branch2c (Conv2D)         (None, 28, 28, 512)  33280       activation_15[0][0]
__________________________________________________________________________________________________
bn3c_branch2c (BatchNormalizati (None, 28, 28, 512)  2048        res3c_branch2c[0][0]
__________________________________________________________________________________________________
add_6 (Add)                     (None, 28, 28, 512)  0           bn3c_branch2c[0][0]
                                                                 ee3b[0][0]
__________________________________________________________________________________________________
ee3c (Activation)               (None, 28, 28, 512)  0           add_6[0][0]
__________________________________________________________________________________________________
res3d_branch2a (Conv2D)         (None, 28, 28, 128)  65664       ee3c[0][0]
__________________________________________________________________________________________________
bn3d_branch2a (BatchNormalizati (None, 28, 28, 128)  512         res3d_branch2a[0][0]
__________________________________________________________________________________________________
activation_16 (Activation)      (None, 28, 28, 128)  0           bn3d_branch2a[0][0]
__________________________________________________________________________________________________
res3d_branch2b (Conv2D)         (None, 28, 28, 64)   73792       activation_16[0][0]
__________________________________________________________________________________________________
bn3d_branch2b (BatchNormalizati (None, 28, 28, 64)   256         res3d_branch2b[0][0]
__________________________________________________________________________________________________
activation_17 (Activation)      (None, 28, 28, 64)   0           bn3d_branch2b[0][0]
__________________________________________________________________________________________________
res3d_branch2c (Conv2D)         (None, 28, 28, 512)  33280       activation_17[0][0]
__________________________________________________________________________________________________
bn3d_branch2c (BatchNormalizati (None, 28, 28, 512)  2048        res3d_branch2c[0][0]
__________________________________________________________________________________________________
add_7 (Add)                     (None, 28, 28, 512)  0           bn3d_branch2c[0][0]
                                                                 ee3c[0][0]
__________________________________________________________________________________________________
ee3d (Activation)               (None, 28, 28, 512)  0           add_7[0][0]
__________________________________________________________________________________________________
res4a_branch2a (Conv2D)         (None, 14, 14, 256)  131328      ee3d[0][0]
__________________________________________________________________________________________________
bn4a_branch2a (BatchNormalizati (None, 14, 14, 256)  1024        res4a_branch2a[0][0]
__________________________________________________________________________________________________
activation_18 (Activation)      (None, 14, 14, 256)  0           bn4a_branch2a[0][0]
__________________________________________________________________________________________________
res4a_branch2b (Conv2D)         (None, 14, 14, 128)  295040      activation_18[0][0]
__________________________________________________________________________________________________
bn4a_branch2b (BatchNormalizati (None, 14, 14, 128)  512         res4a_branch2b[0][0]
__________________________________________________________________________________________________
activation_19 (Activation)      (None, 14, 14, 128)  0           bn4a_branch2b[0][0]
__________________________________________________________________________________________________
res4a_branch2c (Conv2D)         (None, 14, 14, 1024) 132096      activation_19[0][0]
__________________________________________________________________________________________________
res4a_branch1 (Conv2D)          (None, 14, 14, 1024) 525312      ee3d[0][0]
__________________________________________________________________________________________________
bn4a_branch2c (BatchNormalizati (None, 14, 14, 1024) 4096        res4a_branch2c[0][0]
__________________________________________________________________________________________________
bn4a_branch1 (BatchNormalizatio (None, 14, 14, 1024) 4096        res4a_branch1[0][0]
__________________________________________________________________________________________________
add_8 (Add)                     (None, 14, 14, 1024) 0           bn4a_branch2c[0][0]
                                                                 bn4a_branch1[0][0]
__________________________________________________________________________________________________
activation_20 (Activation)      (None, 14, 14, 1024) 0           add_8[0][0]
__________________________________________________________________________________________________
res4b_branch2a (Conv2D)         (None, 14, 14, 256)  262400      activation_20[0][0]
__________________________________________________________________________________________________
bn4b_branch2a (BatchNormalizati (None, 14, 14, 256)  1024        res4b_branch2a[0][0]
__________________________________________________________________________________________________
activation_21 (Activation)      (None, 14, 14, 256)  0           bn4b_branch2a[0][0]
__________________________________________________________________________________________________
res4b_branch2b (Conv2D)         (None, 14, 14, 128)  295040      activation_21[0][0]
__________________________________________________________________________________________________
bn4b_branch2b (BatchNormalizati (None, 14, 14, 128)  512         res4b_branch2b[0][0]
__________________________________________________________________________________________________
activation_22 (Activation)      (None, 14, 14, 128)  0           bn4b_branch2b[0][0]
__________________________________________________________________________________________________
res4b_branch2c (Conv2D)         (None, 14, 14, 1024) 132096      activation_22[0][0]
__________________________________________________________________________________________________
bn4b_branch2c (BatchNormalizati (None, 14, 14, 1024) 4096        res4b_branch2c[0][0]
__________________________________________________________________________________________________
add_9 (Add)                     (None, 14, 14, 1024) 0           bn4b_branch2c[0][0]
                                                                 activation_20[0][0]
__________________________________________________________________________________________________
ee4b (Activation)               (None, 14, 14, 1024) 0           add_9[0][0]
__________________________________________________________________________________________________
res4c_branch2a (Conv2D)         (None, 14, 14, 256)  262400      ee4b[0][0]
__________________________________________________________________________________________________
bn4c_branch2a (BatchNormalizati (None, 14, 14, 256)  1024        res4c_branch2a[0][0]
__________________________________________________________________________________________________
activation_23 (Activation)      (None, 14, 14, 256)  0           bn4c_branch2a[0][0]
__________________________________________________________________________________________________
res4c_branch2b (Conv2D)         (None, 14, 14, 128)  295040      activation_23[0][0]
__________________________________________________________________________________________________
bn4c_branch2b (BatchNormalizati (None, 14, 14, 128)  512         res4c_branch2b[0][0]
__________________________________________________________________________________________________
activation_24 (Activation)      (None, 14, 14, 128)  0           bn4c_branch2b[0][0]
__________________________________________________________________________________________________
res4c_branch2c (Conv2D)         (None, 14, 14, 1024) 132096      activation_24[0][0]
__________________________________________________________________________________________________
bn4c_branch2c (BatchNormalizati (None, 14, 14, 1024) 4096        res4c_branch2c[0][0]
__________________________________________________________________________________________________
add_10 (Add)                    (None, 14, 14, 1024) 0           bn4c_branch2c[0][0]
                                                                 ee4b[0][0]
__________________________________________________________________________________________________
ee4c (Activation)               (None, 14, 14, 1024) 0           add_10[0][0]
__________________________________________________________________________________________________
res4d_branch2a (Conv2D)         (None, 14, 14, 256)  262400      ee4c[0][0]
__________________________________________________________________________________________________
bn4d_branch2a (BatchNormalizati (None, 14, 14, 256)  1024        res4d_branch2a[0][0]
__________________________________________________________________________________________________
activation_25 (Activation)      (None, 14, 14, 256)  0           bn4d_branch2a[0][0]
__________________________________________________________________________________________________
res4d_branch2b (Conv2D)         (None, 14, 14, 128)  295040      activation_25[0][0]
__________________________________________________________________________________________________
bn4d_branch2b (BatchNormalizati (None, 14, 14, 128)  512         res4d_branch2b[0][0]
__________________________________________________________________________________________________
activation_26 (Activation)      (None, 14, 14, 128)  0           bn4d_branch2b[0][0]
__________________________________________________________________________________________________
res4d_branch2c (Conv2D)         (None, 14, 14, 1024) 132096      activation_26[0][0]
__________________________________________________________________________________________________
bn4d_branch2c (BatchNormalizati (None, 14, 14, 1024) 4096        res4d_branch2c[0][0]
__________________________________________________________________________________________________
add_11 (Add)                    (None, 14, 14, 1024) 0           bn4d_branch2c[0][0]
                                                                 ee4c[0][0]
__________________________________________________________________________________________________
ee4d (Activation)               (None, 14, 14, 1024) 0           add_11[0][0]
__________________________________________________________________________________________________
res4e_branch2a (Conv2D)         (None, 14, 14, 256)  262400      ee4d[0][0]
__________________________________________________________________________________________________
bn4e_branch2a (BatchNormalizati (None, 14, 14, 256)  1024        res4e_branch2a[0][0]
__________________________________________________________________________________________________
activation_27 (Activation)      (None, 14, 14, 256)  0           bn4e_branch2a[0][0]
__________________________________________________________________________________________________
res4e_branch2b (Conv2D)         (None, 14, 14, 128)  295040      activation_27[0][0]
__________________________________________________________________________________________________
bn4e_branch2b (BatchNormalizati (None, 14, 14, 128)  512         res4e_branch2b[0][0]
__________________________________________________________________________________________________
activation_28 (Activation)      (None, 14, 14, 128)  0           bn4e_branch2b[0][0]
__________________________________________________________________________________________________
res4e_branch2c (Conv2D)         (None, 14, 14, 1024) 132096      activation_28[0][0]
__________________________________________________________________________________________________
bn4e_branch2c (BatchNormalizati (None, 14, 14, 1024) 4096        res4e_branch2c[0][0]
__________________________________________________________________________________________________
add_12 (Add)                    (None, 14, 14, 1024) 0           bn4e_branch2c[0][0]
                                                                 ee4d[0][0]
__________________________________________________________________________________________________
ee4e (Activation)               (None, 14, 14, 1024) 0           add_12[0][0]
__________________________________________________________________________________________________
res4f_branch2a (Conv2D)         (None, 14, 14, 256)  262400      ee4e[0][0]
__________________________________________________________________________________________________
bn4f_branch2a (BatchNormalizati (None, 14, 14, 256)  1024        res4f_branch2a[0][0]
__________________________________________________________________________________________________
activation_29 (Activation)      (None, 14, 14, 256)  0           bn4f_branch2a[0][0]
__________________________________________________________________________________________________
res4f_branch2b (Conv2D)         (None, 14, 14, 128)  295040      activation_29[0][0]
__________________________________________________________________________________________________
bn4f_branch2b (BatchNormalizati (None, 14, 14, 128)  512         res4f_branch2b[0][0]
__________________________________________________________________________________________________
activation_30 (Activation)      (None, 14, 14, 128)  0           bn4f_branch2b[0][0]
__________________________________________________________________________________________________
res4f_branch2c (Conv2D)         (None, 14, 14, 1024) 132096      activation_30[0][0]
__________________________________________________________________________________________________
bn4f_branch2c (BatchNormalizati (None, 14, 14, 1024) 4096        res4f_branch2c[0][0]
__________________________________________________________________________________________________
add_13 (Add)                    (None, 14, 14, 1024) 0           bn4f_branch2c[0][0]
                                                                 ee4e[0][0]
__________________________________________________________________________________________________
ee4f (Activation)               (None, 14, 14, 1024) 0           add_13[0][0]
__________________________________________________________________________________________________
res5a_branch2a (Conv2D)         (None, 7, 7, 512)    524800      ee4f[0][0]
__________________________________________________________________________________________________
bn5a_branch2a (BatchNormalizati (None, 7, 7, 512)    2048        res5a_branch2a[0][0]
__________________________________________________________________________________________________
activation_31 (Activation)      (None, 7, 7, 512)    0           bn5a_branch2a[0][0]
__________________________________________________________________________________________________
res5a_branch2b (Conv2D)         (None, 7, 7, 256)    1179904     activation_31[0][0]
__________________________________________________________________________________________________
bn5a_branch2b (BatchNormalizati (None, 7, 7, 256)    1024        res5a_branch2b[0][0]
__________________________________________________________________________________________________
activation_32 (Activation)      (None, 7, 7, 256)    0           bn5a_branch2b[0][0]
__________________________________________________________________________________________________
res5a_branch2c (Conv2D)         (None, 7, 7, 2048)   526336      activation_32[0][0]
__________________________________________________________________________________________________
res5a_branch1 (Conv2D)          (None, 7, 7, 2048)   2099200     ee4f[0][0]
__________________________________________________________________________________________________
bn5a_branch2c (BatchNormalizati (None, 7, 7, 2048)   8192        res5a_branch2c[0][0]
__________________________________________________________________________________________________
bn5a_branch1 (BatchNormalizatio (None, 7, 7, 2048)   8192        res5a_branch1[0][0]
__________________________________________________________________________________________________
add_14 (Add)                    (None, 7, 7, 2048)   0           bn5a_branch2c[0][0]
                                                                 bn5a_branch1[0][0]
__________________________________________________________________________________________________
activation_33 (Activation)      (None, 7, 7, 2048)   0           add_14[0][0]
__________________________________________________________________________________________________
res5b_branch2a (Conv2D)         (None, 7, 7, 512)    1049088     activation_33[0][0]
__________________________________________________________________________________________________
bn5b_branch2a (BatchNormalizati (None, 7, 7, 512)    2048        res5b_branch2a[0][0]
__________________________________________________________________________________________________
activation_34 (Activation)      (None, 7, 7, 512)    0           bn5b_branch2a[0][0]
__________________________________________________________________________________________________
res5b_branch2b (Conv2D)         (None, 7, 7, 256)    1179904     activation_34[0][0]
__________________________________________________________________________________________________
bn5b_branch2b (BatchNormalizati (None, 7, 7, 256)    1024        res5b_branch2b[0][0]
__________________________________________________________________________________________________
activation_35 (Activation)      (None, 7, 7, 256)    0           bn5b_branch2b[0][0]
__________________________________________________________________________________________________
res5b_branch2c (Conv2D)         (None, 7, 7, 2048)   526336      activation_35[0][0]
__________________________________________________________________________________________________
bn5b_branch2c (BatchNormalizati (None, 7, 7, 2048)   8192        res5b_branch2c[0][0]
__________________________________________________________________________________________________
add_15 (Add)                    (None, 7, 7, 2048)   0           bn5b_branch2c[0][0]
                                                                 activation_33[0][0]
__________________________________________________________________________________________________
ee5b (Activation)               (None, 7, 7, 2048)   0           add_15[0][0]
__________________________________________________________________________________________________
res5c_branch2a (Conv2D)         (None, 7, 7, 512)    1049088     ee5b[0][0]
__________________________________________________________________________________________________
bn5c_branch2a (BatchNormalizati (None, 7, 7, 512)    2048        res5c_branch2a[0][0]
__________________________________________________________________________________________________
activation_36 (Activation)      (None, 7, 7, 512)    0           bn5c_branch2a[0][0]
__________________________________________________________________________________________________
res5c_branch2b (Conv2D)         (None, 7, 7, 256)    1179904     activation_36[0][0]
__________________________________________________________________________________________________
bn5c_branch2b (BatchNormalizati (None, 7, 7, 256)    1024        res5c_branch2b[0][0]
__________________________________________________________________________________________________
activation_37 (Activation)      (None, 7, 7, 256)    0           bn5c_branch2b[0][0]
__________________________________________________________________________________________________
res5c_branch2c (Conv2D)         (None, 7, 7, 2048)   526336      activation_37[0][0]
__________________________________________________________________________________________________
bn5c_branch2c (BatchNormalizati (None, 7, 7, 2048)   8192        res5c_branch2c[0][0]
__________________________________________________________________________________________________
add_16 (Add)                    (None, 7, 7, 2048)   0           bn5c_branch2c[0][0]
                                                                 ee5b[0][0]
__________________________________________________________________________________________________
ee5c (Activation)               (None, 7, 7, 2048)   0           add_16[0][0]
__________________________________________________________________________________________________
avg_pool (AveragePooling2D)     (None, 1, 1, 2048)   0           ee5c[0][0]
__________________________________________________________________________________________________
flatten_1 (Flatten)             (None, 2048)         0           avg_pool[0][0]
__________________________________________________________________________________________________
fc1000 (Dense)                  (None, 50)           102450      flatten_1[0][0]
==================================================================================================
Total params: 15,507,154
Trainable params: 15,457,810
Non-trainable params: 49,344
__________________________________________________________________________________________________
Epoch 1/20
997/998 [============================>.] - ETA: 0s - loss: 0.2342 - acc: 0.9251Epoch 00001: val_acc improved from -inf to 0.78766, saving model to ./resnet/imagenet/results/90_1/90_best.h5
…
2017-11-26 05:36:51.804995: I tensorflow/core/common_runtime/gpu/gpu_device.cc:1045] Creating TensorFlow device (/gpu:0) -> (device: 0, name: GeForce GTX 1080 Ti, pci bus id: 0000:01:00.0)
Found 63911 images belonging to 50 classes.
Found 2500 images belonging to 50 classes.
[4.5402308305104571, 0.18549679487179488]
Found 63911 images belonging to 50 classes.
Found 2500 images belonging to 50 classes.
__________________________________________________________________________________________________
Layer (type)                    Output Shape         Param #     Connected to
==================================================================================================
input_1 (InputLayer)            (None, 224, 224, 3)  0
__________________________________________________________________________________________________
conv1 (Conv2D)                  (None, 112, 112, 64) 9472        input_1[0][0]
__________________________________________________________________________________________________
bn_conv1 (BatchNormalization)   (None, 112, 112, 64) 256         conv1[0][0]
__________________________________________________________________________________________________
activation_1 (Activation)       (None, 112, 112, 64) 0           bn_conv1[0][0]
__________________________________________________________________________________________________
max_pooling2d_1 (MaxPooling2D)  (None, 55, 55, 64)   0           activation_1[0][0]
__________________________________________________________________________________________________
res2a_branch2a (Conv2D)         (None, 55, 55, 32)   2080        max_pooling2d_1[0][0]
__________________________________________________________________________________________________
bn2a_branch2a (BatchNormalizati (None, 55, 55, 32)   128         res2a_branch2a[0][0]
__________________________________________________________________________________________________
activation_2 (Activation)       (None, 55, 55, 32)   0           bn2a_branch2a[0][0]
__________________________________________________________________________________________________
res2a_branch2b (Conv2D)         (None, 55, 55, 32)   9248        activation_2[0][0]
__________________________________________________________________________________________________
bn2a_branch2b (BatchNormalizati (None, 55, 55, 32)   128         res2a_branch2b[0][0]
__________________________________________________________________________________________________
activation_3 (Activation)       (None, 55, 55, 32)   0           bn2a_branch2b[0][0]
__________________________________________________________________________________________________
res2a_branch2c (Conv2D)         (None, 55, 55, 256)  8448        activation_3[0][0]
__________________________________________________________________________________________________
res2a_branch1 (Conv2D)          (None, 55, 55, 256)  16640       max_pooling2d_1[0][0]
__________________________________________________________________________________________________
bn2a_branch2c (BatchNormalizati (None, 55, 55, 256)  1024        res2a_branch2c[0][0]
__________________________________________________________________________________________________
bn2a_branch1 (BatchNormalizatio (None, 55, 55, 256)  1024        res2a_branch1[0][0]
__________________________________________________________________________________________________
add_1 (Add)                     (None, 55, 55, 256)  0           bn2a_branch2c[0][0]
                                                                 bn2a_branch1[0][0]
__________________________________________________________________________________________________
activation_4 (Activation)       (None, 55, 55, 256)  0           add_1[0][0]
__________________________________________________________________________________________________
res2b_branch2a (Conv2D)         (None, 55, 55, 32)   8224        activation_4[0][0]
__________________________________________________________________________________________________
bn2b_branch2a (BatchNormalizati (None, 55, 55, 32)   128         res2b_branch2a[0][0]
__________________________________________________________________________________________________
activation_5 (Activation)       (None, 55, 55, 32)   0           bn2b_branch2a[0][0]
__________________________________________________________________________________________________
res2b_branch2b (Conv2D)         (None, 55, 55, 32)   9248        activation_5[0][0]
__________________________________________________________________________________________________
bn2b_branch2b (BatchNormalizati (None, 55, 55, 32)   128         res2b_branch2b[0][0]
__________________________________________________________________________________________________
activation_6 (Activation)       (None, 55, 55, 32)   0           bn2b_branch2b[0][0]
__________________________________________________________________________________________________
res2b_branch2c (Conv2D)         (None, 55, 55, 256)  8448        activation_6[0][0]
__________________________________________________________________________________________________
bn2b_branch2c (BatchNormalizati (None, 55, 55, 256)  1024        res2b_branch2c[0][0]
__________________________________________________________________________________________________
add_2 (Add)                     (None, 55, 55, 256)  0           bn2b_branch2c[0][0]
                                                                 activation_4[0][0]
__________________________________________________________________________________________________
ee2b (Activation)               (None, 55, 55, 256)  0           add_2[0][0]
__________________________________________________________________________________________________
res2c_branch2a (Conv2D)         (None, 55, 55, 32)   8224        ee2b[0][0]
__________________________________________________________________________________________________
bn2c_branch2a (BatchNormalizati (None, 55, 55, 32)   128         res2c_branch2a[0][0]
__________________________________________________________________________________________________
activation_7 (Activation)       (None, 55, 55, 32)   0           bn2c_branch2a[0][0]
__________________________________________________________________________________________________
res2c_branch2b (Conv2D)         (None, 55, 55, 32)   9248        activation_7[0][0]
__________________________________________________________________________________________________
bn2c_branch2b (BatchNormalizati (None, 55, 55, 32)   128         res2c_branch2b[0][0]
__________________________________________________________________________________________________
activation_8 (Activation)       (None, 55, 55, 32)   0           bn2c_branch2b[0][0]
__________________________________________________________________________________________________
res2c_branch2c (Conv2D)         (None, 55, 55, 256)  8448        activation_8[0][0]
__________________________________________________________________________________________________
bn2c_branch2c (BatchNormalizati (None, 55, 55, 256)  1024        res2c_branch2c[0][0]
__________________________________________________________________________________________________
add_3 (Add)                     (None, 55, 55, 256)  0           bn2c_branch2c[0][0]
                                                                 ee2b[0][0]
__________________________________________________________________________________________________
ee2c (Activation)               (None, 55, 55, 256)  0           add_3[0][0]
__________________________________________________________________________________________________
res3a_branch2a (Conv2D)         (None, 28, 28, 64)   16448       ee2c[0][0]
__________________________________________________________________________________________________
bn3a_branch2a (BatchNormalizati (None, 28, 28, 64)   256         res3a_branch2a[0][0]
__________________________________________________________________________________________________
activation_9 (Activation)       (None, 28, 28, 64)   0           bn3a_branch2a[0][0]
__________________________________________________________________________________________________
res3a_branch2b (Conv2D)         (None, 28, 28, 64)   36928       activation_9[0][0]
__________________________________________________________________________________________________
bn3a_branch2b (BatchNormalizati (None, 28, 28, 64)   256         res3a_branch2b[0][0]
__________________________________________________________________________________________________
activation_10 (Activation)      (None, 28, 28, 64)   0           bn3a_branch2b[0][0]
__________________________________________________________________________________________________
res3a_branch2c (Conv2D)         (None, 28, 28, 512)  33280       activation_10[0][0]
__________________________________________________________________________________________________
res3a_branch1 (Conv2D)          (None, 28, 28, 512)  131584      ee2c[0][0]
__________________________________________________________________________________________________
bn3a_branch2c (BatchNormalizati (None, 28, 28, 512)  2048        res3a_branch2c[0][0]
__________________________________________________________________________________________________
bn3a_branch1 (BatchNormalizatio (None, 28, 28, 512)  2048        res3a_branch1[0][0]
__________________________________________________________________________________________________
add_4 (Add)                     (None, 28, 28, 512)  0           bn3a_branch2c[0][0]
                                                                 bn3a_branch1[0][0]
__________________________________________________________________________________________________
activation_11 (Activation)      (None, 28, 28, 512)  0           add_4[0][0]
__________________________________________________________________________________________________
res3b_branch2a (Conv2D)         (None, 28, 28, 64)   32832       activation_11[0][0]
__________________________________________________________________________________________________
bn3b_branch2a (BatchNormalizati (None, 28, 28, 64)   256         res3b_branch2a[0][0]
__________________________________________________________________________________________________
activation_12 (Activation)      (None, 28, 28, 64)   0           bn3b_branch2a[0][0]
__________________________________________________________________________________________________
res3b_branch2b (Conv2D)         (None, 28, 28, 64)   36928       activation_12[0][0]
__________________________________________________________________________________________________
bn3b_branch2b (BatchNormalizati (None, 28, 28, 64)   256         res3b_branch2b[0][0]
__________________________________________________________________________________________________
activation_13 (Activation)      (None, 28, 28, 64)   0           bn3b_branch2b[0][0]
__________________________________________________________________________________________________
res3b_branch2c (Conv2D)         (None, 28, 28, 512)  33280       activation_13[0][0]
__________________________________________________________________________________________________
bn3b_branch2c (BatchNormalizati (None, 28, 28, 512)  2048        res3b_branch2c[0][0]
__________________________________________________________________________________________________
add_5 (Add)                     (None, 28, 28, 512)  0           bn3b_branch2c[0][0]
                                                                 activation_11[0][0]
__________________________________________________________________________________________________
ee3b (Activation)               (None, 28, 28, 512)  0           add_5[0][0]
__________________________________________________________________________________________________
res3c_branch2a (Conv2D)         (None, 28, 28, 64)   32832       ee3b[0][0]
__________________________________________________________________________________________________
bn3c_branch2a (BatchNormalizati (None, 28, 28, 64)   256         res3c_branch2a[0][0]
__________________________________________________________________________________________________
activation_14 (Activation)      (None, 28, 28, 64)   0           bn3c_branch2a[0][0]
__________________________________________________________________________________________________
res3c_branch2b (Conv2D)         (None, 28, 28, 64)   36928       activation_14[0][0]
__________________________________________________________________________________________________
bn3c_branch2b (BatchNormalizati (None, 28, 28, 64)   256         res3c_branch2b[0][0]
__________________________________________________________________________________________________
activation_15 (Activation)      (None, 28, 28, 64)   0           bn3c_branch2b[0][0]
__________________________________________________________________________________________________
res3c_branch2c (Conv2D)         (None, 28, 28, 512)  33280       activation_15[0][0]
__________________________________________________________________________________________________
bn3c_branch2c (BatchNormalizati (None, 28, 28, 512)  2048        res3c_branch2c[0][0]
__________________________________________________________________________________________________
add_6 (Add)                     (None, 28, 28, 512)  0           bn3c_branch2c[0][0]
                                                                 ee3b[0][0]
__________________________________________________________________________________________________
ee3c (Activation)               (None, 28, 28, 512)  0           add_6[0][0]
__________________________________________________________________________________________________
res3d_branch2a (Conv2D)         (None, 28, 28, 64)   32832       ee3c[0][0]
__________________________________________________________________________________________________
bn3d_branch2a (BatchNormalizati (None, 28, 28, 64)   256         res3d_branch2a[0][0]
__________________________________________________________________________________________________
activation_16 (Activation)      (None, 28, 28, 64)   0           bn3d_branch2a[0][0]
__________________________________________________________________________________________________
res3d_branch2b (Conv2D)         (None, 28, 28, 64)   36928       activation_16[0][0]
__________________________________________________________________________________________________
bn3d_branch2b (BatchNormalizati (None, 28, 28, 64)   256         res3d_branch2b[0][0]
__________________________________________________________________________________________________
activation_17 (Activation)      (None, 28, 28, 64)   0           bn3d_branch2b[0][0]
__________________________________________________________________________________________________
res3d_branch2c (Conv2D)         (None, 28, 28, 512)  33280       activation_17[0][0]
__________________________________________________________________________________________________
bn3d_branch2c (BatchNormalizati (None, 28, 28, 512)  2048        res3d_branch2c[0][0]
__________________________________________________________________________________________________
add_7 (Add)                     (None, 28, 28, 512)  0           bn3d_branch2c[0][0]
                                                                 ee3c[0][0]
__________________________________________________________________________________________________
ee3d (Activation)               (None, 28, 28, 512)  0           add_7[0][0]
__________________________________________________________________________________________________
res4a_branch2a (Conv2D)         (None, 14, 14, 128)  65664       ee3d[0][0]
__________________________________________________________________________________________________
bn4a_branch2a (BatchNormalizati (None, 14, 14, 128)  512         res4a_branch2a[0][0]
__________________________________________________________________________________________________
activation_18 (Activation)      (None, 14, 14, 128)  0           bn4a_branch2a[0][0]
__________________________________________________________________________________________________
res4a_branch2b (Conv2D)         (None, 14, 14, 128)  147584      activation_18[0][0]
__________________________________________________________________________________________________
bn4a_branch2b (BatchNormalizati (None, 14, 14, 128)  512         res4a_branch2b[0][0]
__________________________________________________________________________________________________
activation_19 (Activation)      (None, 14, 14, 128)  0           bn4a_branch2b[0][0]
__________________________________________________________________________________________________
res4a_branch2c (Conv2D)         (None, 14, 14, 1024) 132096      activation_19[0][0]
__________________________________________________________________________________________________
res4a_branch1 (Conv2D)          (None, 14, 14, 1024) 525312      ee3d[0][0]
__________________________________________________________________________________________________
bn4a_branch2c (BatchNormalizati (None, 14, 14, 1024) 4096        res4a_branch2c[0][0]
__________________________________________________________________________________________________
bn4a_branch1 (BatchNormalizatio (None, 14, 14, 1024) 4096        res4a_branch1[0][0]
__________________________________________________________________________________________________
add_8 (Add)                     (None, 14, 14, 1024) 0           bn4a_branch2c[0][0]
                                                                 bn4a_branch1[0][0]
__________________________________________________________________________________________________
activation_20 (Activation)      (None, 14, 14, 1024) 0           add_8[0][0]
__________________________________________________________________________________________________
res4b_branch2a (Conv2D)         (None, 14, 14, 128)  131200      activation_20[0][0]
__________________________________________________________________________________________________
bn4b_branch2a (BatchNormalizati (None, 14, 14, 128)  512         res4b_branch2a[0][0]
__________________________________________________________________________________________________
activation_21 (Activation)      (None, 14, 14, 128)  0           bn4b_branch2a[0][0]
__________________________________________________________________________________________________
res4b_branch2b (Conv2D)         (None, 14, 14, 128)  147584      activation_21[0][0]
__________________________________________________________________________________________________
bn4b_branch2b (BatchNormalizati (None, 14, 14, 128)  512         res4b_branch2b[0][0]
__________________________________________________________________________________________________
activation_22 (Activation)      (None, 14, 14, 128)  0           bn4b_branch2b[0][0]
__________________________________________________________________________________________________
res4b_branch2c (Conv2D)         (None, 14, 14, 1024) 132096      activation_22[0][0]
__________________________________________________________________________________________________
bn4b_branch2c (BatchNormalizati (None, 14, 14, 1024) 4096        res4b_branch2c[0][0]
__________________________________________________________________________________________________
add_9 (Add)                     (None, 14, 14, 1024) 0           bn4b_branch2c[0][0]
                                                                 activation_20[0][0]
__________________________________________________________________________________________________
ee4b (Activation)               (None, 14, 14, 1024) 0           add_9[0][0]
__________________________________________________________________________________________________
res4c_branch2a (Conv2D)         (None, 14, 14, 128)  131200      ee4b[0][0]
__________________________________________________________________________________________________
bn4c_branch2a (BatchNormalizati (None, 14, 14, 128)  512         res4c_branch2a[0][0]
__________________________________________________________________________________________________
activation_23 (Activation)      (None, 14, 14, 128)  0           bn4c_branch2a[0][0]
__________________________________________________________________________________________________
res4c_branch2b (Conv2D)         (None, 14, 14, 128)  147584      activation_23[0][0]
__________________________________________________________________________________________________
bn4c_branch2b (BatchNormalizati (None, 14, 14, 128)  512         res4c_branch2b[0][0]
__________________________________________________________________________________________________
activation_24 (Activation)      (None, 14, 14, 128)  0           bn4c_branch2b[0][0]
__________________________________________________________________________________________________
res4c_branch2c (Conv2D)         (None, 14, 14, 1024) 132096      activation_24[0][0]
__________________________________________________________________________________________________
bn4c_branch2c (BatchNormalizati (None, 14, 14, 1024) 4096        res4c_branch2c[0][0]
__________________________________________________________________________________________________
add_10 (Add)                    (None, 14, 14, 1024) 0           bn4c_branch2c[0][0]
                                                                 ee4b[0][0]
__________________________________________________________________________________________________
ee4c (Activation)               (None, 14, 14, 1024) 0           add_10[0][0]
__________________________________________________________________________________________________
res4d_branch2a (Conv2D)         (None, 14, 14, 128)  131200      ee4c[0][0]
__________________________________________________________________________________________________
bn4d_branch2a (BatchNormalizati (None, 14, 14, 128)  512         res4d_branch2a[0][0]
__________________________________________________________________________________________________
activation_25 (Activation)      (None, 14, 14, 128)  0           bn4d_branch2a[0][0]
__________________________________________________________________________________________________
res4d_branch2b (Conv2D)         (None, 14, 14, 128)  147584      activation_25[0][0]
__________________________________________________________________________________________________
bn4d_branch2b (BatchNormalizati (None, 14, 14, 128)  512         res4d_branch2b[0][0]
__________________________________________________________________________________________________
activation_26 (Activation)      (None, 14, 14, 128)  0           bn4d_branch2b[0][0]
__________________________________________________________________________________________________
res4d_branch2c (Conv2D)         (None, 14, 14, 1024) 132096      activation_26[0][0]
__________________________________________________________________________________________________
bn4d_branch2c (BatchNormalizati (None, 14, 14, 1024) 4096        res4d_branch2c[0][0]
__________________________________________________________________________________________________
add_11 (Add)                    (None, 14, 14, 1024) 0           bn4d_branch2c[0][0]
                                                                 ee4c[0][0]
__________________________________________________________________________________________________
ee4d (Activation)               (None, 14, 14, 1024) 0           add_11[0][0]
__________________________________________________________________________________________________
res4e_branch2a (Conv2D)         (None, 14, 14, 128)  131200      ee4d[0][0]
__________________________________________________________________________________________________
bn4e_branch2a (BatchNormalizati (None, 14, 14, 128)  512         res4e_branch2a[0][0]
__________________________________________________________________________________________________
activation_27 (Activation)      (None, 14, 14, 128)  0           bn4e_branch2a[0][0]
__________________________________________________________________________________________________
res4e_branch2b (Conv2D)         (None, 14, 14, 128)  147584      activation_27[0][0]
__________________________________________________________________________________________________
bn4e_branch2b (BatchNormalizati (None, 14, 14, 128)  512         res4e_branch2b[0][0]
__________________________________________________________________________________________________
activation_28 (Activation)      (None, 14, 14, 128)  0           bn4e_branch2b[0][0]
__________________________________________________________________________________________________
res4e_branch2c (Conv2D)         (None, 14, 14, 1024) 132096      activation_28[0][0]
__________________________________________________________________________________________________
bn4e_branch2c (BatchNormalizati (None, 14, 14, 1024) 4096        res4e_branch2c[0][0]
__________________________________________________________________________________________________
add_12 (Add)                    (None, 14, 14, 1024) 0           bn4e_branch2c[0][0]
                                                                 ee4d[0][0]
__________________________________________________________________________________________________
ee4e (Activation)               (None, 14, 14, 1024) 0           add_12[0][0]
__________________________________________________________________________________________________
res4f_branch2a (Conv2D)         (None, 14, 14, 128)  131200      ee4e[0][0]
__________________________________________________________________________________________________
bn4f_branch2a (BatchNormalizati (None, 14, 14, 128)  512         res4f_branch2a[0][0]
__________________________________________________________________________________________________
activation_29 (Activation)      (None, 14, 14, 128)  0           bn4f_branch2a[0][0]
__________________________________________________________________________________________________
res4f_branch2b (Conv2D)         (None, 14, 14, 128)  147584      activation_29[0][0]
__________________________________________________________________________________________________
bn4f_branch2b (BatchNormalizati (None, 14, 14, 128)  512         res4f_branch2b[0][0]
__________________________________________________________________________________________________
activation_30 (Activation)      (None, 14, 14, 128)  0           bn4f_branch2b[0][0]
__________________________________________________________________________________________________
res4f_branch2c (Conv2D)         (None, 14, 14, 1024) 132096      activation_30[0][0]
__________________________________________________________________________________________________
bn4f_branch2c (BatchNormalizati (None, 14, 14, 1024) 4096        res4f_branch2c[0][0]
__________________________________________________________________________________________________
add_13 (Add)                    (None, 14, 14, 1024) 0           bn4f_branch2c[0][0]
                                                                 ee4e[0][0]
__________________________________________________________________________________________________
ee4f (Activation)               (None, 14, 14, 1024) 0           add_13[0][0]
__________________________________________________________________________________________________
res5a_branch2a (Conv2D)         (None, 7, 7, 256)    262400      ee4f[0][0]
__________________________________________________________________________________________________
bn5a_branch2a (BatchNormalizati (None, 7, 7, 256)    1024        res5a_branch2a[0][0]
__________________________________________________________________________________________________
activation_31 (Activation)      (None, 7, 7, 256)    0           bn5a_branch2a[0][0]
__________________________________________________________________________________________________
res5a_branch2b (Conv2D)         (None, 7, 7, 256)    590080      activation_31[0][0]
__________________________________________________________________________________________________
bn5a_branch2b (BatchNormalizati (None, 7, 7, 256)    1024        res5a_branch2b[0][0]
__________________________________________________________________________________________________
activation_32 (Activation)      (None, 7, 7, 256)    0           bn5a_branch2b[0][0]
__________________________________________________________________________________________________
res5a_branch2c (Conv2D)         (None, 7, 7, 2048)   526336      activation_32[0][0]
__________________________________________________________________________________________________
res5a_branch1 (Conv2D)          (None, 7, 7, 2048)   2099200     ee4f[0][0]
__________________________________________________________________________________________________
bn5a_branch2c (BatchNormalizati (None, 7, 7, 2048)   8192        res5a_branch2c[0][0]
__________________________________________________________________________________________________
bn5a_branch1 (BatchNormalizatio (None, 7, 7, 2048)   8192        res5a_branch1[0][0]
__________________________________________________________________________________________________
add_14 (Add)                    (None, 7, 7, 2048)   0           bn5a_branch2c[0][0]
                                                                 bn5a_branch1[0][0]
__________________________________________________________________________________________________
activation_33 (Activation)      (None, 7, 7, 2048)   0           add_14[0][0]
__________________________________________________________________________________________________
res5b_branch2a (Conv2D)         (None, 7, 7, 256)    524544      activation_33[0][0]
__________________________________________________________________________________________________
bn5b_branch2a (BatchNormalizati (None, 7, 7, 256)    1024        res5b_branch2a[0][0]
__________________________________________________________________________________________________
activation_34 (Activation)      (None, 7, 7, 256)    0           bn5b_branch2a[0][0]
__________________________________________________________________________________________________
res5b_branch2b (Conv2D)         (None, 7, 7, 256)    590080      activation_34[0][0]
__________________________________________________________________________________________________
bn5b_branch2b (BatchNormalizati (None, 7, 7, 256)    1024        res5b_branch2b[0][0]
__________________________________________________________________________________________________
activation_35 (Activation)      (None, 7, 7, 256)    0           bn5b_branch2b[0][0]
__________________________________________________________________________________________________
res5b_branch2c (Conv2D)         (None, 7, 7, 2048)   526336      activation_35[0][0]
__________________________________________________________________________________________________
bn5b_branch2c (BatchNormalizati (None, 7, 7, 2048)   8192        res5b_branch2c[0][0]
__________________________________________________________________________________________________
add_15 (Add)                    (None, 7, 7, 2048)   0           bn5b_branch2c[0][0]
                                                                 activation_33[0][0]
__________________________________________________________________________________________________
ee5b (Activation)               (None, 7, 7, 2048)   0           add_15[0][0]
__________________________________________________________________________________________________
res5c_branch2a (Conv2D)         (None, 7, 7, 256)    524544      ee5b[0][0]
__________________________________________________________________________________________________
bn5c_branch2a (BatchNormalizati (None, 7, 7, 256)    1024        res5c_branch2a[0][0]
__________________________________________________________________________________________________
activation_36 (Activation)      (None, 7, 7, 256)    0           bn5c_branch2a[0][0]
__________________________________________________________________________________________________
res5c_branch2b (Conv2D)         (None, 7, 7, 256)    590080      activation_36[0][0]
__________________________________________________________________________________________________
bn5c_branch2b (BatchNormalizati (None, 7, 7, 256)    1024        res5c_branch2b[0][0]
__________________________________________________________________________________________________
activation_37 (Activation)      (None, 7, 7, 256)    0           bn5c_branch2b[0][0]
__________________________________________________________________________________________________
res5c_branch2c (Conv2D)         (None, 7, 7, 2048)   526336      activation_37[0][0]
__________________________________________________________________________________________________
bn5c_branch2c (BatchNormalizati (None, 7, 7, 2048)   8192        res5c_branch2c[0][0]
__________________________________________________________________________________________________
add_16 (Add)                    (None, 7, 7, 2048)   0           bn5c_branch2c[0][0]
                                                                 ee5b[0][0]
__________________________________________________________________________________________________
ee5c (Activation)               (None, 7, 7, 2048)   0           add_16[0][0]
__________________________________________________________________________________________________
avg_pool (AveragePooling2D)     (None, 1, 1, 2048)   0           ee5c[0][0]
__________________________________________________________________________________________________
flatten_1 (Flatten)             (None, 2048)         0           avg_pool[0][0]
__________________________________________________________________________________________________
fc1000 (Dense)                  (None, 50)           102450      flatten_1[0][0]
==================================================================================================
Total params: 10,503,666
Trainable params: 10,458,098
Non-trainable params: 45,568
__________________________________________________________________________________________________
Epoch 1/30
997/998 [============================>.] - ETA: 0s - loss: 0.2905 - acc: 0.9083Epoch 00001: val_acc improved from -inf to 0.77684, saving model to ./resnet/imagenet/results/80_1/80_best.h5
…
2017-11-26 11:04:39.550236: I tensorflow/core/common_runtime/gpu/gpu_device.cc:1045] Creating TensorFlow device (/gpu:0) -> (device: 0, name: GeForce GTX 1080 Ti, pci bus id: 0000:01:00.0)
Found 63911 images belonging to 50 classes.
Found 2500 images belonging to 50 classes.
[4.0540154224787006, 0.022435897435897436]
Found 63911 images belonging to 50 classes.
Found 2500 images belonging to 50 classes.
__________________________________________________________________________________________________
Layer (type)                    Output Shape         Param #     Connected to
==================================================================================================
input_1 (InputLayer)            (None, 224, 224, 3)  0
__________________________________________________________________________________________________
conv1 (Conv2D)                  (None, 112, 112, 64) 9472        input_1[0][0]
__________________________________________________________________________________________________
bn_conv1 (BatchNormalization)   (None, 112, 112, 64) 256         conv1[0][0]
__________________________________________________________________________________________________
activation_1 (Activation)       (None, 112, 112, 64) 0           bn_conv1[0][0]
__________________________________________________________________________________________________
max_pooling2d_1 (MaxPooling2D)  (None, 55, 55, 64)   0           activation_1[0][0]
__________________________________________________________________________________________________
res2a_branch2a (Conv2D)         (None, 55, 55, 32)   2080        max_pooling2d_1[0][0]
__________________________________________________________________________________________________
bn2a_branch2a (BatchNormalizati (None, 55, 55, 32)   128         res2a_branch2a[0][0]
__________________________________________________________________________________________________
activation_2 (Activation)       (None, 55, 55, 32)   0           bn2a_branch2a[0][0]
__________________________________________________________________________________________________
res2a_branch2b (Conv2D)         (None, 55, 55, 32)   9248        activation_2[0][0]
__________________________________________________________________________________________________
bn2a_branch2b (BatchNormalizati (None, 55, 55, 32)   128         res2a_branch2b[0][0]
__________________________________________________________________________________________________
activation_3 (Activation)       (None, 55, 55, 32)   0           bn2a_branch2b[0][0]
__________________________________________________________________________________________________
res2a_branch2c (Conv2D)         (None, 55, 55, 256)  8448        activation_3[0][0]
__________________________________________________________________________________________________
res2a_branch1 (Conv2D)          (None, 55, 55, 256)  16640       max_pooling2d_1[0][0]
__________________________________________________________________________________________________
bn2a_branch2c (BatchNormalizati (None, 55, 55, 256)  1024        res2a_branch2c[0][0]
__________________________________________________________________________________________________
bn2a_branch1 (BatchNormalizatio (None, 55, 55, 256)  1024        res2a_branch1[0][0]
__________________________________________________________________________________________________
add_1 (Add)                     (None, 55, 55, 256)  0           bn2a_branch2c[0][0]
                                                                 bn2a_branch1[0][0]
__________________________________________________________________________________________________
activation_4 (Activation)       (None, 55, 55, 256)  0           add_1[0][0]
__________________________________________________________________________________________________
res2b_branch2a (Conv2D)         (None, 55, 55, 32)   8224        activation_4[0][0]
__________________________________________________________________________________________________
bn2b_branch2a (BatchNormalizati (None, 55, 55, 32)   128         res2b_branch2a[0][0]
__________________________________________________________________________________________________
activation_5 (Activation)       (None, 55, 55, 32)   0           bn2b_branch2a[0][0]
__________________________________________________________________________________________________
res2b_branch2b (Conv2D)         (None, 55, 55, 32)   9248        activation_5[0][0]
__________________________________________________________________________________________________
bn2b_branch2b (BatchNormalizati (None, 55, 55, 32)   128         res2b_branch2b[0][0]
__________________________________________________________________________________________________
activation_6 (Activation)       (None, 55, 55, 32)   0           bn2b_branch2b[0][0]
__________________________________________________________________________________________________
res2b_branch2c (Conv2D)         (None, 55, 55, 256)  8448        activation_6[0][0]
__________________________________________________________________________________________________
bn2b_branch2c (BatchNormalizati (None, 55, 55, 256)  1024        res2b_branch2c[0][0]
__________________________________________________________________________________________________
add_2 (Add)                     (None, 55, 55, 256)  0           bn2b_branch2c[0][0]
                                                                 activation_4[0][0]
__________________________________________________________________________________________________
ee2b (Activation)               (None, 55, 55, 256)  0           add_2[0][0]
__________________________________________________________________________________________________
res2c_branch2a (Conv2D)         (None, 55, 55, 32)   8224        ee2b[0][0]
__________________________________________________________________________________________________
bn2c_branch2a (BatchNormalizati (None, 55, 55, 32)   128         res2c_branch2a[0][0]
__________________________________________________________________________________________________
activation_7 (Activation)       (None, 55, 55, 32)   0           bn2c_branch2a[0][0]
__________________________________________________________________________________________________
res2c_branch2b (Conv2D)         (None, 55, 55, 32)   9248        activation_7[0][0]
__________________________________________________________________________________________________
bn2c_branch2b (BatchNormalizati (None, 55, 55, 32)   128         res2c_branch2b[0][0]
__________________________________________________________________________________________________
activation_8 (Activation)       (None, 55, 55, 32)   0           bn2c_branch2b[0][0]
__________________________________________________________________________________________________
res2c_branch2c (Conv2D)         (None, 55, 55, 256)  8448        activation_8[0][0]
__________________________________________________________________________________________________
bn2c_branch2c (BatchNormalizati (None, 55, 55, 256)  1024        res2c_branch2c[0][0]
__________________________________________________________________________________________________
add_3 (Add)                     (None, 55, 55, 256)  0           bn2c_branch2c[0][0]
                                                                 ee2b[0][0]
__________________________________________________________________________________________________
ee2c (Activation)               (None, 55, 55, 256)  0           add_3[0][0]
__________________________________________________________________________________________________
res3a_branch2a (Conv2D)         (None, 28, 28, 64)   16448       ee2c[0][0]
__________________________________________________________________________________________________
bn3a_branch2a (BatchNormalizati (None, 28, 28, 64)   256         res3a_branch2a[0][0]
__________________________________________________________________________________________________
activation_9 (Activation)       (None, 28, 28, 64)   0           bn3a_branch2a[0][0]
__________________________________________________________________________________________________
res3a_branch2b (Conv2D)         (None, 28, 28, 64)   36928       activation_9[0][0]
__________________________________________________________________________________________________
bn3a_branch2b (BatchNormalizati (None, 28, 28, 64)   256         res3a_branch2b[0][0]
__________________________________________________________________________________________________
activation_10 (Activation)      (None, 28, 28, 64)   0           bn3a_branch2b[0][0]
__________________________________________________________________________________________________
res3a_branch2c (Conv2D)         (None, 28, 28, 512)  33280       activation_10[0][0]
__________________________________________________________________________________________________
res3a_branch1 (Conv2D)          (None, 28, 28, 512)  131584      ee2c[0][0]
__________________________________________________________________________________________________
bn3a_branch2c (BatchNormalizati (None, 28, 28, 512)  2048        res3a_branch2c[0][0]
__________________________________________________________________________________________________
bn3a_branch1 (BatchNormalizatio (None, 28, 28, 512)  2048        res3a_branch1[0][0]
__________________________________________________________________________________________________
add_4 (Add)                     (None, 28, 28, 512)  0           bn3a_branch2c[0][0]
                                                                 bn3a_branch1[0][0]
__________________________________________________________________________________________________
activation_11 (Activation)      (None, 28, 28, 512)  0           add_4[0][0]
__________________________________________________________________________________________________
res3b_branch2a (Conv2D)         (None, 28, 28, 64)   32832       activation_11[0][0]
__________________________________________________________________________________________________
bn3b_branch2a (BatchNormalizati (None, 28, 28, 64)   256         res3b_branch2a[0][0]
__________________________________________________________________________________________________
activation_12 (Activation)      (None, 28, 28, 64)   0           bn3b_branch2a[0][0]
__________________________________________________________________________________________________
res3b_branch2b (Conv2D)         (None, 28, 28, 64)   36928       activation_12[0][0]
__________________________________________________________________________________________________
bn3b_branch2b (BatchNormalizati (None, 28, 28, 64)   256         res3b_branch2b[0][0]
__________________________________________________________________________________________________
activation_13 (Activation)      (None, 28, 28, 64)   0           bn3b_branch2b[0][0]
__________________________________________________________________________________________________
res3b_branch2c (Conv2D)         (None, 28, 28, 512)  33280       activation_13[0][0]
__________________________________________________________________________________________________
bn3b_branch2c (BatchNormalizati (None, 28, 28, 512)  2048        res3b_branch2c[0][0]
__________________________________________________________________________________________________
add_5 (Add)                     (None, 28, 28, 512)  0           bn3b_branch2c[0][0]
                                                                 activation_11[0][0]
__________________________________________________________________________________________________
ee3b (Activation)               (None, 28, 28, 512)  0           add_5[0][0]
__________________________________________________________________________________________________
res3c_branch2a (Conv2D)         (None, 28, 28, 64)   32832       ee3b[0][0]
__________________________________________________________________________________________________
bn3c_branch2a (BatchNormalizati (None, 28, 28, 64)   256         res3c_branch2a[0][0]
__________________________________________________________________________________________________
activation_14 (Activation)      (None, 28, 28, 64)   0           bn3c_branch2a[0][0]
__________________________________________________________________________________________________
res3c_branch2b (Conv2D)         (None, 28, 28, 64)   36928       activation_14[0][0]
__________________________________________________________________________________________________
bn3c_branch2b (BatchNormalizati (None, 28, 28, 64)   256         res3c_branch2b[0][0]
__________________________________________________________________________________________________
activation_15 (Activation)      (None, 28, 28, 64)   0           bn3c_branch2b[0][0]
__________________________________________________________________________________________________
res3c_branch2c (Conv2D)         (None, 28, 28, 512)  33280       activation_15[0][0]
__________________________________________________________________________________________________
bn3c_branch2c (BatchNormalizati (None, 28, 28, 512)  2048        res3c_branch2c[0][0]
__________________________________________________________________________________________________
add_6 (Add)                     (None, 28, 28, 512)  0           bn3c_branch2c[0][0]
                                                                 ee3b[0][0]
__________________________________________________________________________________________________
ee3c (Activation)               (None, 28, 28, 512)  0           add_6[0][0]
__________________________________________________________________________________________________
res3d_branch2a (Conv2D)         (None, 28, 28, 64)   32832       ee3c[0][0]
__________________________________________________________________________________________________
bn3d_branch2a (BatchNormalizati (None, 28, 28, 64)   256         res3d_branch2a[0][0]
__________________________________________________________________________________________________
activation_16 (Activation)      (None, 28, 28, 64)   0           bn3d_branch2a[0][0]
__________________________________________________________________________________________________
res3d_branch2b (Conv2D)         (None, 28, 28, 64)   36928       activation_16[0][0]
__________________________________________________________________________________________________
bn3d_branch2b (BatchNormalizati (None, 28, 28, 64)   256         res3d_branch2b[0][0]
__________________________________________________________________________________________________
activation_17 (Activation)      (None, 28, 28, 64)   0           bn3d_branch2b[0][0]
__________________________________________________________________________________________________
res3d_branch2c (Conv2D)         (None, 28, 28, 512)  33280       activation_17[0][0]
__________________________________________________________________________________________________
bn3d_branch2c (BatchNormalizati (None, 28, 28, 512)  2048        res3d_branch2c[0][0]
__________________________________________________________________________________________________
add_7 (Add)                     (None, 28, 28, 512)  0           bn3d_branch2c[0][0]
                                                                 ee3c[0][0]
__________________________________________________________________________________________________
ee3d (Activation)               (None, 28, 28, 512)  0           add_7[0][0]
__________________________________________________________________________________________________
res4a_branch2a (Conv2D)         (None, 14, 14, 128)  65664       ee3d[0][0]
__________________________________________________________________________________________________
bn4a_branch2a (BatchNormalizati (None, 14, 14, 128)  512         res4a_branch2a[0][0]
__________________________________________________________________________________________________
activation_18 (Activation)      (None, 14, 14, 128)  0           bn4a_branch2a[0][0]
__________________________________________________________________________________________________
res4a_branch2b (Conv2D)         (None, 14, 14, 128)  147584      activation_18[0][0]
__________________________________________________________________________________________________
bn4a_branch2b (BatchNormalizati (None, 14, 14, 128)  512         res4a_branch2b[0][0]
__________________________________________________________________________________________________
activation_19 (Activation)      (None, 14, 14, 128)  0           bn4a_branch2b[0][0]
__________________________________________________________________________________________________
res4a_branch2c (Conv2D)         (None, 14, 14, 512)  66048       activation_19[0][0]
__________________________________________________________________________________________________
res4a_branch1 (Conv2D)          (None, 14, 14, 512)  262656      ee3d[0][0]
__________________________________________________________________________________________________
bn4a_branch2c (BatchNormalizati (None, 14, 14, 512)  2048        res4a_branch2c[0][0]
__________________________________________________________________________________________________
bn4a_branch1 (BatchNormalizatio (None, 14, 14, 512)  2048        res4a_branch1[0][0]
__________________________________________________________________________________________________
add_8 (Add)                     (None, 14, 14, 512)  0           bn4a_branch2c[0][0]
                                                                 bn4a_branch1[0][0]
__________________________________________________________________________________________________
activation_20 (Activation)      (None, 14, 14, 512)  0           add_8[0][0]
__________________________________________________________________________________________________
res4b_branch2a (Conv2D)         (None, 14, 14, 128)  65664       activation_20[0][0]
__________________________________________________________________________________________________
bn4b_branch2a (BatchNormalizati (None, 14, 14, 128)  512         res4b_branch2a[0][0]
__________________________________________________________________________________________________
activation_21 (Activation)      (None, 14, 14, 128)  0           bn4b_branch2a[0][0]
__________________________________________________________________________________________________
res4b_branch2b (Conv2D)         (None, 14, 14, 128)  147584      activation_21[0][0]
__________________________________________________________________________________________________
bn4b_branch2b (BatchNormalizati (None, 14, 14, 128)  512         res4b_branch2b[0][0]
__________________________________________________________________________________________________
activation_22 (Activation)      (None, 14, 14, 128)  0           bn4b_branch2b[0][0]
__________________________________________________________________________________________________
res4b_branch2c (Conv2D)         (None, 14, 14, 512)  66048       activation_22[0][0]
__________________________________________________________________________________________________
bn4b_branch2c (BatchNormalizati (None, 14, 14, 512)  2048        res4b_branch2c[0][0]
__________________________________________________________________________________________________
add_9 (Add)                     (None, 14, 14, 512)  0           bn4b_branch2c[0][0]
                                                                 activation_20[0][0]
__________________________________________________________________________________________________
ee4b (Activation)               (None, 14, 14, 512)  0           add_9[0][0]
__________________________________________________________________________________________________
res4c_branch2a (Conv2D)         (None, 14, 14, 128)  65664       ee4b[0][0]
__________________________________________________________________________________________________
bn4c_branch2a (BatchNormalizati (None, 14, 14, 128)  512         res4c_branch2a[0][0]
__________________________________________________________________________________________________
activation_23 (Activation)      (None, 14, 14, 128)  0           bn4c_branch2a[0][0]
__________________________________________________________________________________________________
res4c_branch2b (Conv2D)         (None, 14, 14, 128)  147584      activation_23[0][0]
__________________________________________________________________________________________________
bn4c_branch2b (BatchNormalizati (None, 14, 14, 128)  512         res4c_branch2b[0][0]
__________________________________________________________________________________________________
activation_24 (Activation)      (None, 14, 14, 128)  0           bn4c_branch2b[0][0]
__________________________________________________________________________________________________
res4c_branch2c (Conv2D)         (None, 14, 14, 512)  66048       activation_24[0][0]
__________________________________________________________________________________________________
bn4c_branch2c (BatchNormalizati (None, 14, 14, 512)  2048        res4c_branch2c[0][0]
__________________________________________________________________________________________________
add_10 (Add)                    (None, 14, 14, 512)  0           bn4c_branch2c[0][0]
                                                                 ee4b[0][0]
__________________________________________________________________________________________________
ee4c (Activation)               (None, 14, 14, 512)  0           add_10[0][0]
__________________________________________________________________________________________________
res4d_branch2a (Conv2D)         (None, 14, 14, 128)  65664       ee4c[0][0]
__________________________________________________________________________________________________
bn4d_branch2a (BatchNormalizati (None, 14, 14, 128)  512         res4d_branch2a[0][0]
__________________________________________________________________________________________________
activation_25 (Activation)      (None, 14, 14, 128)  0           bn4d_branch2a[0][0]
__________________________________________________________________________________________________
res4d_branch2b (Conv2D)         (None, 14, 14, 128)  147584      activation_25[0][0]
__________________________________________________________________________________________________
bn4d_branch2b (BatchNormalizati (None, 14, 14, 128)  512         res4d_branch2b[0][0]
__________________________________________________________________________________________________
activation_26 (Activation)      (None, 14, 14, 128)  0           bn4d_branch2b[0][0]
__________________________________________________________________________________________________
res4d_branch2c (Conv2D)         (None, 14, 14, 512)  66048       activation_26[0][0]
__________________________________________________________________________________________________
bn4d_branch2c (BatchNormalizati (None, 14, 14, 512)  2048        res4d_branch2c[0][0]
__________________________________________________________________________________________________
add_11 (Add)                    (None, 14, 14, 512)  0           bn4d_branch2c[0][0]
                                                                 ee4c[0][0]
__________________________________________________________________________________________________
ee4d (Activation)               (None, 14, 14, 512)  0           add_11[0][0]
__________________________________________________________________________________________________
res4e_branch2a (Conv2D)         (None, 14, 14, 128)  65664       ee4d[0][0]
__________________________________________________________________________________________________
bn4e_branch2a (BatchNormalizati (None, 14, 14, 128)  512         res4e_branch2a[0][0]
__________________________________________________________________________________________________
activation_27 (Activation)      (None, 14, 14, 128)  0           bn4e_branch2a[0][0]
__________________________________________________________________________________________________
res4e_branch2b (Conv2D)         (None, 14, 14, 128)  147584      activation_27[0][0]
__________________________________________________________________________________________________
bn4e_branch2b (BatchNormalizati (None, 14, 14, 128)  512         res4e_branch2b[0][0]
__________________________________________________________________________________________________
activation_28 (Activation)      (None, 14, 14, 128)  0           bn4e_branch2b[0][0]
__________________________________________________________________________________________________
res4e_branch2c (Conv2D)         (None, 14, 14, 512)  66048       activation_28[0][0]
__________________________________________________________________________________________________
bn4e_branch2c (BatchNormalizati (None, 14, 14, 512)  2048        res4e_branch2c[0][0]
__________________________________________________________________________________________________
add_12 (Add)                    (None, 14, 14, 512)  0           bn4e_branch2c[0][0]
                                                                 ee4d[0][0]
__________________________________________________________________________________________________
ee4e (Activation)               (None, 14, 14, 512)  0           add_12[0][0]
__________________________________________________________________________________________________
res4f_branch2a (Conv2D)         (None, 14, 14, 128)  65664       ee4e[0][0]
__________________________________________________________________________________________________
bn4f_branch2a (BatchNormalizati (None, 14, 14, 128)  512         res4f_branch2a[0][0]
__________________________________________________________________________________________________
activation_29 (Activation)      (None, 14, 14, 128)  0           bn4f_branch2a[0][0]
__________________________________________________________________________________________________
res4f_branch2b (Conv2D)         (None, 14, 14, 128)  147584      activation_29[0][0]
__________________________________________________________________________________________________
bn4f_branch2b (BatchNormalizati (None, 14, 14, 128)  512         res4f_branch2b[0][0]
__________________________________________________________________________________________________
activation_30 (Activation)      (None, 14, 14, 128)  0           bn4f_branch2b[0][0]
__________________________________________________________________________________________________
res4f_branch2c (Conv2D)         (None, 14, 14, 512)  66048       activation_30[0][0]
__________________________________________________________________________________________________
bn4f_branch2c (BatchNormalizati (None, 14, 14, 512)  2048        res4f_branch2c[0][0]
__________________________________________________________________________________________________
add_13 (Add)                    (None, 14, 14, 512)  0           bn4f_branch2c[0][0]
                                                                 ee4e[0][0]
__________________________________________________________________________________________________
ee4f (Activation)               (None, 14, 14, 512)  0           add_13[0][0]
__________________________________________________________________________________________________
res5a_branch2a (Conv2D)         (None, 7, 7, 256)    131328      ee4f[0][0]
__________________________________________________________________________________________________
bn5a_branch2a (BatchNormalizati (None, 7, 7, 256)    1024        res5a_branch2a[0][0]
__________________________________________________________________________________________________
activation_31 (Activation)      (None, 7, 7, 256)    0           bn5a_branch2a[0][0]
__________________________________________________________________________________________________
res5a_branch2b (Conv2D)         (None, 7, 7, 256)    590080      activation_31[0][0]
__________________________________________________________________________________________________
bn5a_branch2b (BatchNormalizati (None, 7, 7, 256)    1024        res5a_branch2b[0][0]
__________________________________________________________________________________________________
activation_32 (Activation)      (None, 7, 7, 256)    0           bn5a_branch2b[0][0]
__________________________________________________________________________________________________
res5a_branch2c (Conv2D)         (None, 7, 7, 1024)   263168      activation_32[0][0]
__________________________________________________________________________________________________
res5a_branch1 (Conv2D)          (None, 7, 7, 1024)   525312      ee4f[0][0]
__________________________________________________________________________________________________
bn5a_branch2c (BatchNormalizati (None, 7, 7, 1024)   4096        res5a_branch2c[0][0]
__________________________________________________________________________________________________
bn5a_branch1 (BatchNormalizatio (None, 7, 7, 1024)   4096        res5a_branch1[0][0]
__________________________________________________________________________________________________
add_14 (Add)                    (None, 7, 7, 1024)   0           bn5a_branch2c[0][0]
                                                                 bn5a_branch1[0][0]
__________________________________________________________________________________________________
activation_33 (Activation)      (None, 7, 7, 1024)   0           add_14[0][0]
__________________________________________________________________________________________________
res5b_branch2a (Conv2D)         (None, 7, 7, 256)    262400      activation_33[0][0]
__________________________________________________________________________________________________
bn5b_branch2a (BatchNormalizati (None, 7, 7, 256)    1024        res5b_branch2a[0][0]
__________________________________________________________________________________________________
activation_34 (Activation)      (None, 7, 7, 256)    0           bn5b_branch2a[0][0]
__________________________________________________________________________________________________
res5b_branch2b (Conv2D)         (None, 7, 7, 256)    590080      activation_34[0][0]
__________________________________________________________________________________________________
bn5b_branch2b (BatchNormalizati (None, 7, 7, 256)    1024        res5b_branch2b[0][0]
__________________________________________________________________________________________________
activation_35 (Activation)      (None, 7, 7, 256)    0           bn5b_branch2b[0][0]
__________________________________________________________________________________________________
res5b_branch2c (Conv2D)         (None, 7, 7, 1024)   263168      activation_35[0][0]
__________________________________________________________________________________________________
bn5b_branch2c (BatchNormalizati (None, 7, 7, 1024)   4096        res5b_branch2c[0][0]
__________________________________________________________________________________________________
add_15 (Add)                    (None, 7, 7, 1024)   0           bn5b_branch2c[0][0]
                                                                 activation_33[0][0]
__________________________________________________________________________________________________
ee5b (Activation)               (None, 7, 7, 1024)   0           add_15[0][0]
__________________________________________________________________________________________________
res5c_branch2a (Conv2D)         (None, 7, 7, 256)    262400      ee5b[0][0]
__________________________________________________________________________________________________
bn5c_branch2a (BatchNormalizati (None, 7, 7, 256)    1024        res5c_branch2a[0][0]
__________________________________________________________________________________________________
activation_36 (Activation)      (None, 7, 7, 256)    0           bn5c_branch2a[0][0]
__________________________________________________________________________________________________
res5c_branch2b (Conv2D)         (None, 7, 7, 256)    590080      activation_36[0][0]
__________________________________________________________________________________________________
bn5c_branch2b (BatchNormalizati (None, 7, 7, 256)    1024        res5c_branch2b[0][0]
__________________________________________________________________________________________________
activation_37 (Activation)      (None, 7, 7, 256)    0           bn5c_branch2b[0][0]
__________________________________________________________________________________________________
res5c_branch2c (Conv2D)         (None, 7, 7, 1024)   263168      activation_37[0][0]
__________________________________________________________________________________________________
bn5c_branch2c (BatchNormalizati (None, 7, 7, 1024)   4096        res5c_branch2c[0][0]
__________________________________________________________________________________________________
add_16 (Add)                    (None, 7, 7, 1024)   0           bn5c_branch2c[0][0]
                                                                 ee5b[0][0]
__________________________________________________________________________________________________
ee5c (Activation)               (None, 7, 7, 1024)   0           add_16[0][0]
__________________________________________________________________________________________________
avg_pool (AveragePooling2D)     (None, 1, 1, 1024)   0           ee5c[0][0]
__________________________________________________________________________________________________
flatten_1 (Flatten)             (None, 1024)         0           avg_pool[0][0]
__________________________________________________________________________________________________
fc1000 (Dense)                  (None, 50)           51250       flatten_1[0][0]
==================================================================================================
Total params: 6,416,370
Trainable params: 6,386,162
Non-trainable params: 30,208
__________________________________________________________________________________________________
Epoch 1/40
997/998 [============================>.] - ETA: 0s - loss: 2.3160 - acc: 0.3797Epoch 00001: val_acc improved from -inf to 0.55569, saving model to ./resnet/imagenet/results/70_1/70_best.h5
…
2017-11-26 18:20:04.221624: I tensorflow/core/common_runtime/gpu/gpu_device.cc:1045] Creating TensorFlow device (/gpu:0) -> (device: 0, name: GeForce GTX 1080 Ti, pci bus id: 0000:01:00.0)
Found 63911 images belonging to 50 classes.
Found 2500 images belonging to 50 classes.
[12.365144411722818, 0.055288461538461536]
Found 63911 images belonging to 50 classes.
Found 2500 images belonging to 50 classes.
__________________________________________________________________________________________________
Layer (type)                    Output Shape         Param #     Connected to
==================================================================================================
input_1 (InputLayer)            (None, 224, 224, 3)  0
__________________________________________________________________________________________________
conv1 (Conv2D)                  (None, 112, 112, 64) 9472        input_1[0][0]
__________________________________________________________________________________________________
bn_conv1 (BatchNormalization)   (None, 112, 112, 64) 256         conv1[0][0]
__________________________________________________________________________________________________
activation_1 (Activation)       (None, 112, 112, 64) 0           bn_conv1[0][0]
__________________________________________________________________________________________________
max_pooling2d_1 (MaxPooling2D)  (None, 55, 55, 64)   0           activation_1[0][0]
__________________________________________________________________________________________________
res2a_branch2a (Conv2D)         (None, 55, 55, 32)   2080        max_pooling2d_1[0][0]
__________________________________________________________________________________________________
bn2a_branch2a (BatchNormalizati (None, 55, 55, 32)   128         res2a_branch2a[0][0]
__________________________________________________________________________________________________
activation_2 (Activation)       (None, 55, 55, 32)   0           bn2a_branch2a[0][0]
__________________________________________________________________________________________________
res2a_branch2b (Conv2D)         (None, 55, 55, 32)   9248        activation_2[0][0]
__________________________________________________________________________________________________
bn2a_branch2b (BatchNormalizati (None, 55, 55, 32)   128         res2a_branch2b[0][0]
__________________________________________________________________________________________________
activation_3 (Activation)       (None, 55, 55, 32)   0           bn2a_branch2b[0][0]
__________________________________________________________________________________________________
res2a_branch2c (Conv2D)         (None, 55, 55, 256)  8448        activation_3[0][0]
__________________________________________________________________________________________________
res2a_branch1 (Conv2D)          (None, 55, 55, 256)  16640       max_pooling2d_1[0][0]
__________________________________________________________________________________________________
bn2a_branch2c (BatchNormalizati (None, 55, 55, 256)  1024        res2a_branch2c[0][0]
__________________________________________________________________________________________________
bn2a_branch1 (BatchNormalizatio (None, 55, 55, 256)  1024        res2a_branch1[0][0]
__________________________________________________________________________________________________
add_1 (Add)                     (None, 55, 55, 256)  0           bn2a_branch2c[0][0]
                                                                 bn2a_branch1[0][0]
__________________________________________________________________________________________________
activation_4 (Activation)       (None, 55, 55, 256)  0           add_1[0][0]
__________________________________________________________________________________________________
res2b_branch2a (Conv2D)         (None, 55, 55, 32)   8224        activation_4[0][0]
__________________________________________________________________________________________________
bn2b_branch2a (BatchNormalizati (None, 55, 55, 32)   128         res2b_branch2a[0][0]
__________________________________________________________________________________________________
activation_5 (Activation)       (None, 55, 55, 32)   0           bn2b_branch2a[0][0]
__________________________________________________________________________________________________
res2b_branch2b (Conv2D)         (None, 55, 55, 32)   9248        activation_5[0][0]
__________________________________________________________________________________________________
bn2b_branch2b (BatchNormalizati (None, 55, 55, 32)   128         res2b_branch2b[0][0]
__________________________________________________________________________________________________
activation_6 (Activation)       (None, 55, 55, 32)   0           bn2b_branch2b[0][0]
__________________________________________________________________________________________________
res2b_branch2c (Conv2D)         (None, 55, 55, 256)  8448        activation_6[0][0]
__________________________________________________________________________________________________
bn2b_branch2c (BatchNormalizati (None, 55, 55, 256)  1024        res2b_branch2c[0][0]
__________________________________________________________________________________________________
add_2 (Add)                     (None, 55, 55, 256)  0           bn2b_branch2c[0][0]
                                                                 activation_4[0][0]
__________________________________________________________________________________________________
ee2b (Activation)               (None, 55, 55, 256)  0           add_2[0][0]
__________________________________________________________________________________________________
res2c_branch2a (Conv2D)         (None, 55, 55, 32)   8224        ee2b[0][0]
__________________________________________________________________________________________________
bn2c_branch2a (BatchNormalizati (None, 55, 55, 32)   128         res2c_branch2a[0][0]
__________________________________________________________________________________________________
activation_7 (Activation)       (None, 55, 55, 32)   0           bn2c_branch2a[0][0]
__________________________________________________________________________________________________
res2c_branch2b (Conv2D)         (None, 55, 55, 32)   9248        activation_7[0][0]
__________________________________________________________________________________________________
bn2c_branch2b (BatchNormalizati (None, 55, 55, 32)   128         res2c_branch2b[0][0]
__________________________________________________________________________________________________
activation_8 (Activation)       (None, 55, 55, 32)   0           bn2c_branch2b[0][0]
__________________________________________________________________________________________________
res2c_branch2c (Conv2D)         (None, 55, 55, 256)  8448        activation_8[0][0]
__________________________________________________________________________________________________
bn2c_branch2c (BatchNormalizati (None, 55, 55, 256)  1024        res2c_branch2c[0][0]
__________________________________________________________________________________________________
add_3 (Add)                     (None, 55, 55, 256)  0           bn2c_branch2c[0][0]
                                                                 ee2b[0][0]
__________________________________________________________________________________________________
ee2c (Activation)               (None, 55, 55, 256)  0           add_3[0][0]
__________________________________________________________________________________________________
res3a_branch2a (Conv2D)         (None, 28, 28, 64)   16448       ee2c[0][0]
__________________________________________________________________________________________________
bn3a_branch2a (BatchNormalizati (None, 28, 28, 64)   256         res3a_branch2a[0][0]
__________________________________________________________________________________________________
activation_9 (Activation)       (None, 28, 28, 64)   0           bn3a_branch2a[0][0]
__________________________________________________________________________________________________
res3a_branch2b (Conv2D)         (None, 28, 28, 32)   18464       activation_9[0][0]
__________________________________________________________________________________________________
bn3a_branch2b (BatchNormalizati (None, 28, 28, 32)   128         res3a_branch2b[0][0]
__________________________________________________________________________________________________
activation_10 (Activation)      (None, 28, 28, 32)   0           bn3a_branch2b[0][0]
__________________________________________________________________________________________________
res3a_branch2c (Conv2D)         (None, 28, 28, 512)  16896       activation_10[0][0]
__________________________________________________________________________________________________
res3a_branch1 (Conv2D)          (None, 28, 28, 512)  131584      ee2c[0][0]
__________________________________________________________________________________________________
bn3a_branch2c (BatchNormalizati (None, 28, 28, 512)  2048        res3a_branch2c[0][0]
__________________________________________________________________________________________________
bn3a_branch1 (BatchNormalizatio (None, 28, 28, 512)  2048        res3a_branch1[0][0]
__________________________________________________________________________________________________
add_4 (Add)                     (None, 28, 28, 512)  0           bn3a_branch2c[0][0]
                                                                 bn3a_branch1[0][0]
__________________________________________________________________________________________________
activation_11 (Activation)      (None, 28, 28, 512)  0           add_4[0][0]
__________________________________________________________________________________________________
res3b_branch2a (Conv2D)         (None, 28, 28, 64)   32832       activation_11[0][0]
__________________________________________________________________________________________________
bn3b_branch2a (BatchNormalizati (None, 28, 28, 64)   256         res3b_branch2a[0][0]
__________________________________________________________________________________________________
activation_12 (Activation)      (None, 28, 28, 64)   0           bn3b_branch2a[0][0]
__________________________________________________________________________________________________
res3b_branch2b (Conv2D)         (None, 28, 28, 32)   18464       activation_12[0][0]
__________________________________________________________________________________________________
bn3b_branch2b (BatchNormalizati (None, 28, 28, 32)   128         res3b_branch2b[0][0]
__________________________________________________________________________________________________
activation_13 (Activation)      (None, 28, 28, 32)   0           bn3b_branch2b[0][0]
__________________________________________________________________________________________________
res3b_branch2c (Conv2D)         (None, 28, 28, 512)  16896       activation_13[0][0]
__________________________________________________________________________________________________
bn3b_branch2c (BatchNormalizati (None, 28, 28, 512)  2048        res3b_branch2c[0][0]
__________________________________________________________________________________________________
add_5 (Add)                     (None, 28, 28, 512)  0           bn3b_branch2c[0][0]
                                                                 activation_11[0][0]
__________________________________________________________________________________________________
ee3b (Activation)               (None, 28, 28, 512)  0           add_5[0][0]
__________________________________________________________________________________________________
res3c_branch2a (Conv2D)         (None, 28, 28, 64)   32832       ee3b[0][0]
__________________________________________________________________________________________________
…
activation_22 (Activation)      (None, 14, 14, 64)   0           bn4b_branch2b[0][0]
__________________________________________________________________________________________________
res4b_branch2c (Conv2D)         (None, 14, 14, 256)  16640       activation_22[0][0]
__________________________________________________________________________________________________
bn4b_branch2c (BatchNormalizati (None, 14, 14, 256)  1024        res4b_branch2c[0][0]
__________________________________________________________________________________________________
add_9 (Add)                     (None, 14, 14, 256)  0           bn4b_branch2c[0][0]
                                                                 activation_20[0][0]
__________________________________________________________________________________________________
ee4b (Activation)               (None, 14, 14, 256)  0           add_9[0][0]
__________________________________________________________________________________________________
res4c_branch2a (Conv2D)         (None, 14, 14, 64)   16448       ee4b[0][0]
__________________________________________________________________________________________________
bn4c_branch2a (BatchNormalizati (None, 14, 14, 64)   256         res4c_branch2a[0][0]
__________________________________________________________________________________________________
activation_23 (Activation)      (None, 14, 14, 64)   0           bn4c_branch2a[0][0]
__________________________________________________________________________________________________
res4c_branch2b (Conv2D)         (None, 14, 14, 64)   36928       activation_23[0][0]
__________________________________________________________________________________________________
bn4c_branch2b (BatchNormalizati (None, 14, 14, 64)   256         res4c_branch2b[0][0]
__________________________________________________________________________________________________
activation_24 (Activation)      (None, 14, 14, 64)   0           bn4c_branch2b[0][0]
__________________________________________________________________________________________________
res4c_branch2c (Conv2D)         (None, 14, 14, 256)  16640       activation_24[0][0]
__________________________________________________________________________________________________
bn4c_branch2c (BatchNormalizati (None, 14, 14, 256)  1024        res4c_branch2c[0][0]
__________________________________________________________________________________________________
add_10 (Add)                    (None, 14, 14, 256)  0           bn4c_branch2c[0][0]
                                                                 ee4b[0][0]
__________________________________________________________________________________________________
ee4c (Activation)               (None, 14, 14, 256)  0           add_10[0][0]
__________________________________________________________________________________________________
res4d_branch2a (Conv2D)         (None, 14, 14, 64)   16448       ee4c[0][0]
__________________________________________________________________________________________________
bn4d_branch2a (BatchNormalizati (None, 14, 14, 64)   256         res4d_branch2a[0][0]
__________________________________________________________________________________________________
activation_25 (Activation)      (None, 14, 14, 64)   0           bn4d_branch2a[0][0]
__________________________________________________________________________________________________
res4d_branch2b (Conv2D)         (None, 14, 14, 64)   36928       activation_25[0][0]
__________________________________________________________________________________________________
bn4d_branch2b (BatchNormalizati (None, 14, 14, 64)   256         res4d_branch2b[0][0]
__________________________________________________________________________________________________
activation_26 (Activation)      (None, 14, 14, 64)   0           bn4d_branch2b[0][0]
__________________________________________________________________________________________________
res4d_branch2c (Conv2D)         (None, 14, 14, 256)  16640       activation_26[0][0]
__________________________________________________________________________________________________
bn4d_branch2c (BatchNormalizati (None, 14, 14, 256)  1024        res4d_branch2c[0][0]
__________________________________________________________________________________________________
add_11 (Add)                    (None, 14, 14, 256)  0           bn4d_branch2c[0][0]
                                                                 ee4c[0][0]
__________________________________________________________________________________________________
ee4d (Activation)               (None, 14, 14, 256)  0           add_11[0][0]
__________________________________________________________________________________________________
res4e_branch2a (Conv2D)         (None, 14, 14, 64)   16448       ee4d[0][0]
__________________________________________________________________________________________________
bn4e_branch2a (BatchNormalizati (None, 14, 14, 64)   256         res4e_branch2a[0][0]
__________________________________________________________________________________________________
activation_27 (Activation)      (None, 14, 14, 64)   0           bn4e_branch2a[0][0]
__________________________________________________________________________________________________
res4e_branch2b (Conv2D)         (None, 14, 14, 64)   36928       activation_27[0][0]
__________________________________________________________________________________________________
bn4e_branch2b (BatchNormalizati (None, 14, 14, 64)   256         res4e_branch2b[0][0]
__________________________________________________________________________________________________
activation_28 (Activation)      (None, 14, 14, 64)   0           bn4e_branch2b[0][0]
__________________________________________________________________________________________________
res4e_branch2c (Conv2D)         (None, 14, 14, 256)  16640       activation_28[0][0]
__________________________________________________________________________________________________
bn4e_branch2c (BatchNormalizati (None, 14, 14, 256)  1024        res4e_branch2c[0][0]
__________________________________________________________________________________________________
add_12 (Add)                    (None, 14, 14, 256)  0           bn4e_branch2c[0][0]
                                                                 ee4d[0][0]
__________________________________________________________________________________________________
ee4e (Activation)               (None, 14, 14, 256)  0           add_12[0][0]
__________________________________________________________________________________________________
res4f_branch2a (Conv2D)         (None, 14, 14, 64)   16448       ee4e[0][0]
__________________________________________________________________________________________________
bn4f_branch2a (BatchNormalizati (None, 14, 14, 64)   256         res4f_branch2a[0][0]
__________________________________________________________________________________________________
activation_29 (Activation)      (None, 14, 14, 64)   0           bn4f_branch2a[0][0]
__________________________________________________________________________________________________
res4f_branch2b (Conv2D)         (None, 14, 14, 64)   36928       activation_29[0][0]
__________________________________________________________________________________________________
bn4f_branch2b (BatchNormalizati (None, 14, 14, 64)   256         res4f_branch2b[0][0]
__________________________________________________________________________________________________
activation_30 (Activation)      (None, 14, 14, 64)   0           bn4f_branch2b[0][0]
__________________________________________________________________________________________________
res4f_branch2c (Conv2D)         (None, 14, 14, 256)  16640       activation_30[0][0]
__________________________________________________________________________________________________
bn4f_branch2c (BatchNormalizati (None, 14, 14, 256)  1024        res4f_branch2c[0][0]
__________________________________________________________________________________________________
add_13 (Add)                    (None, 14, 14, 256)  0           bn4f_branch2c[0][0]
                                                                 ee4e[0][0]
__________________________________________________________________________________________________
ee4f (Activation)               (None, 14, 14, 256)  0           add_13[0][0]
__________________________________________________________________________________________________
res5a_branch2a (Conv2D)         (None, 7, 7, 128)    32896       ee4f[0][0]
__________________________________________________________________________________________________
bn5a_branch2a (BatchNormalizati (None, 7, 7, 128)    512         res5a_branch2a[0][0]
__________________________________________________________________________________________________
activation_31 (Activation)      (None, 7, 7, 128)    0           bn5a_branch2a[0][0]
__________________________________________________________________________________________________
res5a_branch2b (Conv2D)         (None, 7, 7, 128)    147584      activation_31[0][0]
__________________________________________________________________________________________________
bn5a_branch2b (BatchNormalizati (None, 7, 7, 128)    512         res5a_branch2b[0][0]
__________________________________________________________________________________________________
activation_32 (Activation)      (None, 7, 7, 128)    0           bn5a_branch2b[0][0]
__________________________________________________________________________________________________
res5a_branch2c (Conv2D)         (None, 7, 7, 512)    66048       activation_32[0][0]
__________________________________________________________________________________________________
res5a_branch1 (Conv2D)          (None, 7, 7, 512)    131584      ee4f[0][0]
__________________________________________________________________________________________________
bn5a_branch2c (BatchNormalizati (None, 7, 7, 512)    2048        res5a_branch2c[0][0]
__________________________________________________________________________________________________
bn5a_branch1 (BatchNormalizatio (None, 7, 7, 512)    2048        res5a_branch1[0][0]
__________________________________________________________________________________________________
add_14 (Add)                    (None, 7, 7, 512)    0           bn5a_branch2c[0][0]
                                                                 bn5a_branch1[0][0]
__________________________________________________________________________________________________
activation_33 (Activation)      (None, 7, 7, 512)    0           add_14[0][0]
__________________________________________________________________________________________________
res5b_branch2a (Conv2D)         (None, 7, 7, 128)    65664       activation_33[0][0]
__________________________________________________________________________________________________
bn5b_branch2a (BatchNormalizati (None, 7, 7, 128)    512         res5b_branch2a[0][0]
__________________________________________________________________________________________________
activation_34 (Activation)      (None, 7, 7, 128)    0           bn5b_branch2a[0][0]
__________________________________________________________________________________________________
res5b_branch2b (Conv2D)         (None, 7, 7, 128)    147584      activation_34[0][0]
__________________________________________________________________________________________________
bn5b_branch2b (BatchNormalizati (None, 7, 7, 128)    512         res5b_branch2b[0][0]
__________________________________________________________________________________________________
activation_35 (Activation)      (None, 7, 7, 128)    0           bn5b_branch2b[0][0]
__________________________________________________________________________________________________
res5b_branch2c (Conv2D)         (None, 7, 7, 512)    66048       activation_35[0][0]
__________________________________________________________________________________________________
bn5b_branch2c (BatchNormalizati (None, 7, 7, 512)    2048        res5b_branch2c[0][0]
__________________________________________________________________________________________________
add_15 (Add)                    (None, 7, 7, 512)    0           bn5b_branch2c[0][0]
                                                                 activation_33[0][0]
__________________________________________________________________________________________________
ee5b (Activation)               (None, 7, 7, 512)    0           add_15[0][0]
__________________________________________________________________________________________________
res5c_branch2a (Conv2D)         (None, 7, 7, 128)    65664       ee5b[0][0]
__________________________________________________________________________________________________
bn5c_branch2a (BatchNormalizati (None, 7, 7, 128)    512         res5c_branch2a[0][0]
__________________________________________________________________________________________________
activation_36 (Activation)      (None, 7, 7, 128)    0           bn5c_branch2a[0][0]
__________________________________________________________________________________________________
res5c_branch2b (Conv2D)         (None, 7, 7, 128)    147584      activation_36[0][0]
__________________________________________________________________________________________________
bn5c_branch2b (BatchNormalizati (None, 7, 7, 128)    512         res5c_branch2b[0][0]
__________________________________________________________________________________________________
activation_37 (Activation)      (None, 7, 7, 128)    0           bn5c_branch2b[0][0]
__________________________________________________________________________________________________
res5c_branch2c (Conv2D)         (None, 7, 7, 512)    66048       activation_37[0][0]
__________________________________________________________________________________________________
bn5c_branch2c (BatchNormalizati (None, 7, 7, 512)    2048        res5c_branch2c[0][0]
__________________________________________________________________________________________________
add_16 (Add)                    (None, 7, 7, 512)    0           bn5c_branch2c[0][0]
                                                                 ee5b[0][0]
__________________________________________________________________________________________________
ee5c (Activation)               (None, 7, 7, 512)    0           add_16[0][0]
__________________________________________________________________________________________________
avg_pool (AveragePooling2D)     (None, 1, 1, 512)    0           ee5c[0][0]
__________________________________________________________________________________________________
flatten_1 (Flatten)             (None, 512)          0           avg_pool[0][0]
__________________________________________________________________________________________________
fc1000 (Dense)                  (None, 50)           25650       flatten_1[0][0]
==================================================================================================
Total params: 1,680,114
Trainable params: 1,664,754
Non-trainable params: 15,360
__________________________________________________________________________________________________
Epoch 1/40
997/998 [============================>.] - ETA: 0s - loss: 3.5756 - acc: 0.1174Epoch 00001: val_acc improved from -inf to 0.18750, saving model to ./resnet/imagenet/results/40_1/40_best.h5
…
2017-11-27 16:04:45.432038: I tensorflow/core/common_runtime/gpu/gpu_device.cc:1045] Creating TensorFlow device (/gpu:0) -> (device: 0, name: GeForce GTX 1080 Ti, pci bus id: 0000:01:00.0)
Found 63911 images belonging to 50 classes.
Found 2500 images belonging to 50 classes.
[4.971954357929719, 0.015224358974358974]
Found 63911 images belonging to 50 classes.
Found 2500 images belonging to 50 classes.
__________________________________________________________________________________________________
Layer (type)                    Output Shape         Param #     Connected to
==================================================================================================
input_1 (InputLayer)            (None, 224, 224, 3)  0
__________________________________________________________________________________________________
conv1 (Conv2D)                  (None, 112, 112, 64) 9472        input_1[0][0]
__________________________________________________________________________________________________
bn_conv1 (BatchNormalization)   (None, 112, 112, 64) 256         conv1[0][0]
__________________________________________________________________________________________________
activation_1 (Activation)       (None, 112, 112, 64) 0           bn_conv1[0][0]
__________________________________________________________________________________________________
max_pooling2d_1 (MaxPooling2D)  (None, 55, 55, 64)   0           activation_1[0][0]
__________________________________________________________________________________________________
res2a_branch2a (Conv2D)         (None, 55, 55, 32)   2080        max_pooling2d_1[0][0]
__________________________________________________________________________________________________
bn2a_branch2a (BatchNormalizati (None, 55, 55, 32)   128         res2a_branch2a[0][0]
__________________________________________________________________________________________________
activation_2 (Activation)       (None, 55, 55, 32)   0           bn2a_branch2a[0][0]
__________________________________________________________________________________________________
res2a_branch2b (Conv2D)         (None, 55, 55, 32)   9248        activation_2[0][0]
__________________________________________________________________________________________________
bn2a_branch2b (BatchNormalizati (None, 55, 55, 32)   128         res2a_branch2b[0][0]
__________________________________________________________________________________________________
activation_3 (Activation)       (None, 55, 55, 32)   0           bn2a_branch2b[0][0]
__________________________________________________________________________________________________
res2a_branch2c (Conv2D)         (None, 55, 55, 64)   2112        activation_3[0][0]
__________________________________________________________________________________________________
res2a_branch1 (Conv2D)          (None, 55, 55, 64)   4160        max_pooling2d_1[0][0]
__________________________________________________________________________________________________
bn2a_branch2c (BatchNormalizati (None, 55, 55, 64)   256         res2a_branch2c[0][0]
__________________________________________________________________________________________________
bn2a_branch1 (BatchNormalizatio (None, 55, 55, 64)   256         res2a_branch1[0][0]
__________________________________________________________________________________________________
add_1 (Add)                     (None, 55, 55, 64)   0           bn2a_branch2c[0][0]
                                                                 bn2a_branch1[0][0]
__________________________________________________________________________________________________
activation_4 (Activation)       (None, 55, 55, 64)   0           add_1[0][0]
__________________________________________________________________________________________________
res2b_branch2a (Conv2D)         (None, 55, 55, 32)   2080        activation_4[0][0]
__________________________________________________________________________________________________
bn2b_branch2a (BatchNormalizati (None, 55, 55, 32)   128         res2b_branch2a[0][0]
__________________________________________________________________________________________________
activation_5 (Activation)       (None, 55, 55, 32)   0           bn2b_branch2a[0][0]
__________________________________________________________________________________________________
res2b_branch2b (Conv2D)         (None, 55, 55, 32)   9248        activation_5[0][0]
__________________________________________________________________________________________________
bn2b_branch2b (BatchNormalizati (None, 55, 55, 32)   128         res2b_branch2b[0][0]
__________________________________________________________________________________________________
activation_6 (Activation)       (None, 55, 55, 32)   0           bn2b_branch2b[0][0]
__________________________________________________________________________________________________
res2b_branch2c (Conv2D)         (None, 55, 55, 64)   2112        activation_6[0][0]
__________________________________________________________________________________________________
bn2b_branch2c (BatchNormalizati (None, 55, 55, 64)   256         res2b_branch2c[0][0]
__________________________________________________________________________________________________
add_2 (Add)                     (None, 55, 55, 64)   0           bn2b_branch2c[0][0]
                                                                 activation_4[0][0]
__________________________________________________________________________________________________
ee2b (Activation)               (None, 55, 55, 64)   0           add_2[0][0]
__________________________________________________________________________________________________
res2c_branch2a (Conv2D)         (None, 55, 55, 32)   2080        ee2b[0][0]
__________________________________________________________________________________________________
bn2c_branch2a (BatchNormalizati (None, 55, 55, 32)   128         res2c_branch2a[0][0]
__________________________________________________________________________________________________
activation_7 (Activation)       (None, 55, 55, 32)   0           bn2c_branch2a[0][0]
__________________________________________________________________________________________________
res2c_branch2b (Conv2D)         (None, 55, 55, 32)   9248        activation_7[0][0]
__________________________________________________________________________________________________
bn2c_branch2b (BatchNormalizati (None, 55, 55, 32)   128         res2c_branch2b[0][0]
__________________________________________________________________________________________________
activation_8 (Activation)       (None, 55, 55, 32)   0           bn2c_branch2b[0][0]
__________________________________________________________________________________________________
res2c_branch2c (Conv2D)         (None, 55, 55, 64)   2112        activation_8[0][0]
__________________________________________________________________________________________________
bn2c_branch2c (BatchNormalizati (None, 55, 55, 64)   256         res2c_branch2c[0][0]
__________________________________________________________________________________________________
add_3 (Add)                     (None, 55, 55, 64)   0           bn2c_branch2c[0][0]
                                                                 ee2b[0][0]
__________________________________________________________________________________________________
ee2c (Activation)               (None, 55, 55, 64)   0           add_3[0][0]
__________________________________________________________________________________________________
res3a_branch2a (Conv2D)         (None, 28, 28, 32)   2080        ee2c[0][0]
__________________________________________________________________________________________________
bn3a_branch2a (BatchNormalizati (None, 28, 28, 32)   128         res3a_branch2a[0][0]
__________________________________________________________________________________________________
activation_9 (Activation)       (None, 28, 28, 32)   0           bn3a_branch2a[0][0]
__________________________________________________________________________________________________
res3a_branch2b (Conv2D)         (None, 28, 28, 32)   9248        activation_9[0][0]
__________________________________________________________________________________________________
bn3a_branch2b (BatchNormalizati (None, 28, 28, 32)   128         res3a_branch2b[0][0]
__________________________________________________________________________________________________
activation_10 (Activation)      (None, 28, 28, 32)   0           bn3a_branch2b[0][0]
__________________________________________________________________________________________________
res3a_branch2c (Conv2D)         (None, 28, 28, 128)  4224        activation_10[0][0]
__________________________________________________________________________________________________
res3a_branch1 (Conv2D)          (None, 28, 28, 128)  8320        ee2c[0][0]
__________________________________________________________________________________________________
bn3a_branch2c (BatchNormalizati (None, 28, 28, 128)  512         res3a_branch2c[0][0]
__________________________________________________________________________________________________
bn3a_branch1 (BatchNormalizatio (None, 28, 28, 128)  512         res3a_branch1[0][0]
__________________________________________________________________________________________________
add_4 (Add)                     (None, 28, 28, 128)  0           bn3a_branch2c[0][0]
                                                                 bn3a_branch1[0][0]
__________________________________________________________________________________________________
activation_11 (Activation)      (None, 28, 28, 128)  0           add_4[0][0]
__________________________________________________________________________________________________
res3b_branch2a (Conv2D)         (None, 28, 28, 32)   4128        activation_11[0][0]
__________________________________________________________________________________________________
bn3b_branch2a (BatchNormalizati (None, 28, 28, 32)   128         res3b_branch2a[0][0]
__________________________________________________________________________________________________
activation_12 (Activation)      (None, 28, 28, 32)   0           bn3b_branch2a[0][0]
__________________________________________________________________________________________________
res3b_branch2b (Conv2D)         (None, 28, 28, 32)   9248        activation_12[0][0]
__________________________________________________________________________________________________
bn3b_branch2b (BatchNormalizati (None, 28, 28, 32)   128         res3b_branch2b[0][0]
__________________________________________________________________________________________________
activation_13 (Activation)      (None, 28, 28, 32)   0           bn3b_branch2b[0][0]
__________________________________________________________________________________________________
res3b_branch2c (Conv2D)         (None, 28, 28, 128)  4224        activation_13[0][0]
__________________________________________________________________________________________________
bn3b_branch2c (BatchNormalizati (None, 28, 28, 128)  512         res3b_branch2c[0][0]
__________________________________________________________________________________________________
add_5 (Add)                     (None, 28, 28, 128)  0           bn3b_branch2c[0][0]
                                                                 activation_11[0][0]
__________________________________________________________________________________________________
ee3b (Activation)               (None, 28, 28, 128)  0           add_5[0][0]
__________________________________________________________________________________________________
res3c_branch2a (Conv2D)         (None, 28, 28, 32)   4128        ee3b[0][0]
__________________________________________________________________________________________________
bn3c_branch2a (BatchNormalizati (None, 28, 28, 32)   128         res3c_branch2a[0][0]
__________________________________________________________________________________________________
activation_14 (Activation)      (None, 28, 28, 32)   0           bn3c_branch2a[0][0]
__________________________________________________________________________________________________
res3c_branch2b (Conv2D)         (None, 28, 28, 32)   9248        activation_14[0][0]
__________________________________________________________________________________________________
bn3c_branch2b (BatchNormalizati (None, 28, 28, 32)   128         res3c_branch2b[0][0]
__________________________________________________________________________________________________
activation_15 (Activation)      (None, 28, 28, 32)   0           bn3c_branch2b[0][0]
__________________________________________________________________________________________________
res3c_branch2c (Conv2D)         (None, 28, 28, 128)  4224        activation_15[0][0]
__________________________________________________________________________________________________
bn3c_branch2c (BatchNormalizati (None, 28, 28, 128)  512         res3c_branch2c[0][0]
__________________________________________________________________________________________________
add_6 (Add)                     (None, 28, 28, 128)  0           bn3c_branch2c[0][0]
                                                                 ee3b[0][0]
__________________________________________________________________________________________________
ee3c (Activation)               (None, 28, 28, 128)  0           add_6[0][0]
__________________________________________________________________________________________________
res3d_branch2a (Conv2D)         (None, 28, 28, 32)   4128        ee3c[0][0]
__________________________________________________________________________________________________
bn3d_branch2a (BatchNormalizati (None, 28, 28, 32)   128         res3d_branch2a[0][0]
__________________________________________________________________________________________________
activation_16 (Activation)      (None, 28, 28, 32)   0           bn3d_branch2a[0][0]
__________________________________________________________________________________________________
res3d_branch2b (Conv2D)         (None, 28, 28, 32)   9248        activation_16[0][0]
__________________________________________________________________________________________________
bn3d_branch2b (BatchNormalizati (None, 28, 28, 32)   128         res3d_branch2b[0][0]
__________________________________________________________________________________________________
activation_17 (Activation)      (None, 28, 28, 32)   0           bn3d_branch2b[0][0]
__________________________________________________________________________________________________
res3d_branch2c (Conv2D)         (None, 28, 28, 128)  4224        activation_17[0][0]
__________________________________________________________________________________________________
bn3d_branch2c (BatchNormalizati (None, 28, 28, 128)  512         res3d_branch2c[0][0]
__________________________________________________________________________________________________
add_7 (Add)                     (None, 28, 28, 128)  0           bn3d_branch2c[0][0]
                                                                 ee3c[0][0]
__________________________________________________________________________________________________
ee3d (Activation)               (None, 28, 28, 128)  0           add_7[0][0]
__________________________________________________________________________________________________
res4a_branch2a (Conv2D)         (None, 14, 14, 64)   8256        ee3d[0][0]
__________________________________________________________________________________________________
bn4a_branch2a (BatchNormalizati (None, 14, 14, 64)   256         res4a_branch2a[0][0]
__________________________________________________________________________________________________
activation_18 (Activation)      (None, 14, 14, 64)   0           bn4a_branch2a[0][0]
__________________________________________________________________________________________________
res4a_branch2b (Conv2D)         (None, 14, 14, 64)   36928       activation_18[0][0]
__________________________________________________________________________________________________
bn4a_branch2b (BatchNormalizati (None, 14, 14, 64)   256         res4a_branch2b[0][0]
__________________________________________________________________________________________________
activation_19 (Activation)      (None, 14, 14, 64)   0           bn4a_branch2b[0][0]
__________________________________________________________________________________________________
res4a_branch2c (Conv2D)         (None, 14, 14, 128)  8320        activation_19[0][0]
__________________________________________________________________________________________________
res4a_branch1 (Conv2D)          (None, 14, 14, 128)  16512       ee3d[0][0]
__________________________________________________________________________________________________
bn4a_branch2c (BatchNormalizati (None, 14, 14, 128)  512         res4a_branch2c[0][0]
__________________________________________________________________________________________________
bn4a_branch1 (BatchNormalizatio (None, 14, 14, 128)  512         res4a_branch1[0][0]
__________________________________________________________________________________________________
add_8 (Add)                     (None, 14, 14, 128)  0           bn4a_branch2c[0][0]
                                                                 bn4a_branch1[0][0]
__________________________________________________________________________________________________
activation_20 (Activation)      (None, 14, 14, 128)  0           add_8[0][0]
__________________________________________________________________________________________________
res4b_branch2a (Conv2D)         (None, 14, 14, 64)   8256        activation_20[0][0]
__________________________________________________________________________________________________
bn4b_branch2a (BatchNormalizati (None, 14, 14, 64)   256         res4b_branch2a[0][0]
__________________________________________________________________________________________________
activation_21 (Activation)      (None, 14, 14, 64)   0           bn4b_branch2a[0][0]
__________________________________________________________________________________________________
res4b_branch2b (Conv2D)         (None, 14, 14, 64)   36928       activation_21[0][0]
__________________________________________________________________________________________________
bn4b_branch2b (BatchNormalizati (None, 14, 14, 64)   256         res4b_branch2b[0][0]
__________________________________________________________________________________________________
activation_22 (Activation)      (None, 14, 14, 64)   0           bn4b_branch2b[0][0]
__________________________________________________________________________________________________
res4b_branch2c (Conv2D)         (None, 14, 14, 128)  8320        activation_22[0][0]
__________________________________________________________________________________________________
bn4b_branch2c (BatchNormalizati (None, 14, 14, 128)  512         res4b_branch2c[0][0]
__________________________________________________________________________________________________
add_9 (Add)                     (None, 14, 14, 128)  0           bn4b_branch2c[0][0]
                                                                 activation_20[0][0]
__________________________________________________________________________________________________
ee4b (Activation)               (None, 14, 14, 128)  0           add_9[0][0]
__________________________________________________________________________________________________
res4c_branch2a (Conv2D)         (None, 14, 14, 64)   8256        ee4b[0][0]
__________________________________________________________________________________________________
bn4c_branch2a (BatchNormalizati (None, 14, 14, 64)   256         res4c_branch2a[0][0]
__________________________________________________________________________________________________
activation_23 (Activation)      (None, 14, 14, 64)   0           bn4c_branch2a[0][0]
__________________________________________________________________________________________________
res4c_branch2b (Conv2D)         (None, 14, 14, 64)   36928       activation_23[0][0]
__________________________________________________________________________________________________
bn4c_branch2b (BatchNormalizati (None, 14, 14, 64)   256         res4c_branch2b[0][0]
__________________________________________________________________________________________________
activation_24 (Activation)      (None, 14, 14, 64)   0           bn4c_branch2b[0][0]
__________________________________________________________________________________________________
res4c_branch2c (Conv2D)         (None, 14, 14, 128)  8320        activation_24[0][0]
__________________________________________________________________________________________________
bn4c_branch2c (BatchNormalizati (None, 14, 14, 128)  512         res4c_branch2c[0][0]
__________________________________________________________________________________________________
add_10 (Add)                    (None, 14, 14, 128)  0           bn4c_branch2c[0][0]
                                                                 ee4b[0][0]
__________________________________________________________________________________________________
ee4c (Activation)               (None, 14, 14, 128)  0           add_10[0][0]
__________________________________________________________________________________________________
res4d_branch2a (Conv2D)         (None, 14, 14, 64)   8256        ee4c[0][0]
__________________________________________________________________________________________________
bn4d_branch2a (BatchNormalizati (None, 14, 14, 64)   256         res4d_branch2a[0][0]
__________________________________________________________________________________________________
activation_25 (Activation)      (None, 14, 14, 64)   0           bn4d_branch2a[0][0]
__________________________________________________________________________________________________
res4d_branch2b (Conv2D)         (None, 14, 14, 64)   36928       activation_25[0][0]
__________________________________________________________________________________________________
bn4d_branch2b (BatchNormalizati (None, 14, 14, 64)   256         res4d_branch2b[0][0]
__________________________________________________________________________________________________
activation_26 (Activation)      (None, 14, 14, 64)   0           bn4d_branch2b[0][0]
__________________________________________________________________________________________________
res4d_branch2c (Conv2D)         (None, 14, 14, 128)  8320        activation_26[0][0]
__________________________________________________________________________________________________
bn4d_branch2c (BatchNormalizati (None, 14, 14, 128)  512         res4d_branch2c[0][0]
__________________________________________________________________________________________________
add_11 (Add)                    (None, 14, 14, 128)  0           bn4d_branch2c[0][0]
                                                                 ee4c[0][0]
__________________________________________________________________________________________________
ee4d (Activation)               (None, 14, 14, 128)  0           add_11[0][0]
__________________________________________________________________________________________________
res4e_branch2a (Conv2D)         (None, 14, 14, 64)   8256        ee4d[0][0]
__________________________________________________________________________________________________
bn4e_branch2a (BatchNormalizati (None, 14, 14, 64)   256         res4e_branch2a[0][0]
__________________________________________________________________________________________________
activation_27 (Activation)      (None, 14, 14, 64)   0           bn4e_branch2a[0][0]
__________________________________________________________________________________________________
res4e_branch2b (Conv2D)         (None, 14, 14, 64)   36928       activation_27[0][0]
__________________________________________________________________________________________________
bn4e_branch2b (BatchNormalizati (None, 14, 14, 64)   256         res4e_branch2b[0][0]
__________________________________________________________________________________________________
activation_28 (Activation)      (None, 14, 14, 64)   0           bn4e_branch2b[0][0]
__________________________________________________________________________________________________
res4e_branch2c (Conv2D)         (None, 14, 14, 128)  8320        activation_28[0][0]
__________________________________________________________________________________________________
bn4e_branch2c (BatchNormalizati (None, 14, 14, 128)  512         res4e_branch2c[0][0]
__________________________________________________________________________________________________
add_12 (Add)                    (None, 14, 14, 128)  0           bn4e_branch2c[0][0]
                                                                 ee4d[0][0]
__________________________________________________________________________________________________
ee4e (Activation)               (None, 14, 14, 128)  0           add_12[0][0]
__________________________________________________________________________________________________
res4f_branch2a (Conv2D)         (None, 14, 14, 64)   8256        ee4e[0][0]
__________________________________________________________________________________________________
bn4f_branch2a (BatchNormalizati (None, 14, 14, 64)   256         res4f_branch2a[0][0]
__________________________________________________________________________________________________
activation_29 (Activation)      (None, 14, 14, 64)   0           bn4f_branch2a[0][0]
__________________________________________________________________________________________________
res4f_branch2b (Conv2D)         (None, 14, 14, 64)   36928       activation_29[0][0]
__________________________________________________________________________________________________
bn4f_branch2b (BatchNormalizati (None, 14, 14, 64)   256         res4f_branch2b[0][0]
__________________________________________________________________________________________________
activation_30 (Activation)      (None, 14, 14, 64)   0           bn4f_branch2b[0][0]
__________________________________________________________________________________________________
res4f_branch2c (Conv2D)         (None, 14, 14, 128)  8320        activation_30[0][0]
__________________________________________________________________________________________________
bn4f_branch2c (BatchNormalizati (None, 14, 14, 128)  512         res4f_branch2c[0][0]
__________________________________________________________________________________________________
add_13 (Add)                    (None, 14, 14, 128)  0           bn4f_branch2c[0][0]
                                                                 ee4e[0][0]
__________________________________________________________________________________________________
ee4f (Activation)               (None, 14, 14, 128)  0           add_13[0][0]
__________________________________________________________________________________________________
res5a_branch2a (Conv2D)         (None, 7, 7, 128)    16512       ee4f[0][0]
__________________________________________________________________________________________________
bn5a_branch2a (BatchNormalizati (None, 7, 7, 128)    512         res5a_branch2a[0][0]
__________________________________________________________________________________________________
activation_31 (Activation)      (None, 7, 7, 128)    0           bn5a_branch2a[0][0]
__________________________________________________________________________________________________
res5a_branch2b (Conv2D)         (None, 7, 7, 128)    147584      activation_31[0][0]
__________________________________________________________________________________________________
bn5a_branch2b (BatchNormalizati (None, 7, 7, 128)    512         res5a_branch2b[0][0]
__________________________________________________________________________________________________
activation_32 (Activation)      (None, 7, 7, 128)    0           bn5a_branch2b[0][0]
__________________________________________________________________________________________________
res5a_branch2c (Conv2D)         (None, 7, 7, 256)    33024       activation_32[0][0]
__________________________________________________________________________________________________
res5a_branch1 (Conv2D)          (None, 7, 7, 256)    33024       ee4f[0][0]
__________________________________________________________________________________________________
bn5a_branch2c (BatchNormalizati (None, 7, 7, 256)    1024        res5a_branch2c[0][0]
__________________________________________________________________________________________________
bn5a_branch1 (BatchNormalizatio (None, 7, 7, 256)    1024        res5a_branch1[0][0]
__________________________________________________________________________________________________
add_14 (Add)                    (None, 7, 7, 256)    0           bn5a_branch2c[0][0]
                                                                 bn5a_branch1[0][0]
__________________________________________________________________________________________________
activation_33 (Activation)      (None, 7, 7, 256)    0           add_14[0][0]
__________________________________________________________________________________________________
res5b_branch2a (Conv2D)         (None, 7, 7, 128)    32896       activation_33[0][0]
__________________________________________________________________________________________________
bn5b_branch2a (BatchNormalizati (None, 7, 7, 128)    512         res5b_branch2a[0][0]
__________________________________________________________________________________________________
activation_34 (Activation)      (None, 7, 7, 128)    0           bn5b_branch2a[0][0]
__________________________________________________________________________________________________
res5b_branch2b (Conv2D)         (None, 7, 7, 128)    147584      activation_34[0][0]
__________________________________________________________________________________________________
bn5b_branch2b (BatchNormalizati (None, 7, 7, 128)    512         res5b_branch2b[0][0]
__________________________________________________________________________________________________
activation_35 (Activation)      (None, 7, 7, 128)    0           bn5b_branch2b[0][0]
__________________________________________________________________________________________________
res5b_branch2c (Conv2D)         (None, 7, 7, 256)    33024       activation_35[0][0]
__________________________________________________________________________________________________
bn5b_branch2c (BatchNormalizati (None, 7, 7, 256)    1024        res5b_branch2c[0][0]
__________________________________________________________________________________________________
add_15 (Add)                    (None, 7, 7, 256)    0           bn5b_branch2c[0][0]
                                                                 activation_33[0][0]
__________________________________________________________________________________________________
ee5b (Activation)               (None, 7, 7, 256)    0           add_15[0][0]
__________________________________________________________________________________________________
res5c_branch2a (Conv2D)         (None, 7, 7, 128)    32896       ee5b[0][0]
__________________________________________________________________________________________________
bn5c_branch2a (BatchNormalizati (None, 7, 7, 128)    512         res5c_branch2a[0][0]
__________________________________________________________________________________________________
activation_36 (Activation)      (None, 7, 7, 128)    0           bn5c_branch2a[0][0]
__________________________________________________________________________________________________
res5c_branch2b (Conv2D)         (None, 7, 7, 128)    147584      activation_36[0][0]
__________________________________________________________________________________________________
bn5c_branch2b (BatchNormalizati (None, 7, 7, 128)    512         res5c_branch2b[0][0]
__________________________________________________________________________________________________
activation_37 (Activation)      (None, 7, 7, 128)    0           bn5c_branch2b[0][0]
__________________________________________________________________________________________________
res5c_branch2c (Conv2D)         (None, 7, 7, 256)    33024       activation_37[0][0]
__________________________________________________________________________________________________
bn5c_branch2c (BatchNormalizati (None, 7, 7, 256)    1024        res5c_branch2c[0][0]
__________________________________________________________________________________________________
add_16 (Add)                    (None, 7, 7, 256)    0           bn5c_branch2c[0][0]
                                                                 ee5b[0][0]
__________________________________________________________________________________________________
ee5c (Activation)               (None, 7, 7, 256)    0           add_16[0][0]
__________________________________________________________________________________________________
avg_pool (AveragePooling2D)     (None, 1, 1, 256)    0           ee5c[0][0]
__________________________________________________________________________________________________
flatten_1 (Flatten)             (None, 256)          0           avg_pool[0][0]
__________________________________________________________________________________________________
fc1000 (Dense)                  (None, 50)           12850       flatten_1[0][0]
==================================================================================================
Total params: 1,157,618
Trainable params: 1,147,890
Non-trainable params: 9,728
__________________________________________________________________________________________________
Epoch 1/40
997/998 [============================>.] - ETA: 0s - loss: 3.3452 - acc: 0.1444Epoch 00001: val_acc improved from -inf to 0.21354, saving model to ./resnet/imagenet/results/30_1/30_best.h5
…
